backend_engine/ml/models/session_1764582902/chess_valuenet_32ch_3resblocks.pth (torch, 300157 bytes, 39 tensors)

conv.weight f4 [32, 20, 3, 3]
000000 03 8b 48 bd c3 03 5b 3f 78 8a 5d 3e 85 f2 7f bc
       -0.048960697 0.85552615 0.21634853 -0.015621786
000010 54 c0 8a 3f c6 92 cd bd 80 32 81 be 8b 7d 25 3f
       1.0839944 -0.100377604 -0.2523384 0.6464469
000020 c1 f3 b1 be 83 31 94 3d c1 94 3a bf 38 05 b2 3e
       -0.34756282 0.07236006 -0.7288323 0.34769607
000030 8e 37 d2 be e7 dc 3f 3f 7c 78 d0 be 8a 76 d4 3d
       -0.4105801 0.74946445 -0.40716922 0.10374172
000040 f4 21 52 bf bc bf 5b be b7 a4 54 be 7a c1 08 3f
       -0.8208306 -0.2145986 -0.20765959 0.5342022
000050 8c 37 90 3e f5 35 a8 3d 81 2d 34 3f a1 51 dd bd
       0.2816738 0.082134165 0.70381933 -0.10806585
000060 66 68 c3 be 93 71 5a 3f 80 e2 7a be b4 dc 88 3d
       -0.38165587 0.8532955 -0.24500465 0.06682721
000070 f9 4b 58 3e bc e7 29 3e 7a fb 23 be 94 ff ca 3f
       0.21122731 0.16592306 -0.160139 1.5859246
000080 bb ac 95 bf 44 c1 02 be 13 ab d2 bf 45 4c 3b 3e
       -1.1693338 -0.12769037 -1.6458458 0.18290813
000090 dd 25 7c bf 80 a3 00 3f c2 bf a3 3e 25 f4 58 be
       -0.98495275 0.5024948 0.31982237 -0.21186884
0000a0 de ae f2 3f b5 50 bf be f2 ea a7 be 38 6d 3a 3e
       1.8959615 -0.37366262 -0.32796437 0.18205726
0000b0 b4 a0 6e bd 38 da a3 bf c3 4d e5 3d 90 fb 3c bf
       -0.058258727 -1.280097 0.111964725 -0.73821354
0000c0 4a 9b 35 bf e1 35 fb be 03 6e 07 bf 1e 84 82 be
       -0.7094008 -0.49064544 -0.5290224 -0.25491422
0000d0 61 e0 a5 3e d1 ac ad 3a 8b 34 9a 3e 45 26 4a c1
       0.3239775 0.0013250356 0.30118212 -12.634343
0000e0 ea 3e e8 ba 85 8d 19 3f d8 1a 4e bf 6f 95 25 3f
       -0.0017718945 0.59981567 -0.8050971 0.6468114
0000f0 b0 d7 cf be f3 a8 61 bf 3f 38 01 bf 60 22 04 3e
       -0.40594244 -0.8814842 -0.5047645 0.12903738
000100 c4 fb ae be 3e 9a f2 be 38 46 1b 40 d9 da 9b bf
       -0.34176457 -0.47383302 2.4261608 -1.2176162
000110 ed c7 1e 40 6d 57 2e c1 d8 e1 f2 bf e4 d8 06 bf
       2.4809525 -10.896344 -1.8975172 -0.526747
000120 a3 88 05 3f 2f a5 85 bf 76 0c 22 3d bb 79 f7 3f
       0.52161616 -1.0441035 0.039562665 1.9334024
000130 25 8a ea bf bc 1f 16 40 41 7d 0c 3d 89 27 bf c0
       -1.8323408 2.345687 0.03429914 -5.973576
000140 6d 70 69 3d de 8e 86 bd 70 e8 8b bf 1b 9b b3 be
       0.056991983 -0.065702185 -1.0930309 -0.35079274
000150 16 3c 28 40 4c 2a bc c0 06 9f 4c 40 b0 d9 ee 3e
       2.6286674 -5.880163 3.197206 0.46650457
000160 6f 1c 02 40 e2 8f 5d bf 4c 3a fd 3e ca 14 85 be
       2.0329854 -0.8654767 0.4945854 -0.25992423
000170 63 ba ea be 16 db 31 40 4b b5 4d c0 c4 82 6b 40
       -0.45845327 2.778997 -3.2141902 3.6798563
000180 b4 64 4a bd d2 87 dd 3f 76 d6 cc bf 46 5a ee bd
       -0.049412444 1.7307074 -1.6002948 -0.11638312
000190 c9 10 9f bf 29 a7 0a bf 52 bd 0e 3e d4 39 c1 bf
       -1.2426997 -0.54161316 0.13939407 -1.5095773
0001a0 5c 31 18 bf 32 7d d2 3d d8 2e 1e c0 7d ab 12 3e
       -0.59450316 0.10277785 -2.471609 0.1432323
0001b0 1b 85 5e 3e ca b2 48 3f 84 93 e9 3e be 12 12 3f
       0.21730463 0.7839781 0.45620358 0.5705985
0001c0 8a 45 04 40 49 40 35 3f be 11 e6 be b7 0a a7 3f
       2.0667443 0.70801216 -0.4493541 1.3050145
0001d0 87 6a 2b be 44 a3 c9 3c e1 01 81 be 26 3b 4c be
       -0.16739856 0.024613984 -0.25196746 -0.19944438
0001e0 3b 32 23 3e 8d f4 1c be af 95 c6 be c9 ac d0 3d
       0.1593713 -0.15327664 -0.38786075 0.10189206
0001f0 bc 47 8b bd d0 25 12 3e 77 78 c7 3e 4f 08 18 bd
       -0.068007916 0.14272237 0.38959095 -0.0371173
000200 13 b2 c1 bd 6b 71 8c 3e 9d 79 a2 bd 56 1c 80 be
       -0.09457793 0.2743028 -0.07933352 -0.2502162
000210 39 12 43 3d 3b 9b ce bd 50 3e c5 be c3 a6 79 3e
       0.0476248 -0.100882016 -0.38524103 0.24380021
000220 ff 08 2d 3e d7 35 da 3e be 64 ba bd 04 61 78 be
       0.16897963 0.42619202 -0.09101246 -0.24255759
000230 58 01 fe be 60 5d d9 bd 9d e6 b2 bc 0c a8 3f 3c
       -0.496104 -0.10613513 -0.02183848 0.01169778
000240 e5 23 71 3e df 47 21 3e cf fa ac 3d 8a 49 a3 3c
       0.23548849 0.15750073 0.084462754 0.019932527
000250 51 58 33 be 58 91 6b be a7 ed 27 3d 71 1c be bd
       -0.17514159 -0.23004663 0.040998127 -0.092827685
000260 92 81 79 be 52 a6 d7 bf 24 60 8f bf f0 10 43 bf
       -0.24365833 -1.6847632 -1.1201215 -0.7619772
000270 cf a9 8b bf 53 af 02 c0 68 6a 84 bf 4e 26 d0 bf
       -1.0911196 -2.041951 -1.0344973 -1.626169
000280 46 17 3c c0 55 70 32 c0 2e 03 44 c1 95 ad 34 c1
       -2.9389205 -2.7881062 -12.250776 -11.292378
000290 84 44 3b c1 d2 2a b2 c0 18 3e 84 c0 df c3 b3 c0
       -11.704227 -5.567727 -4.13258 -5.61766
0002a0 71 29 a7 c0 bc 0b 65 c0 bc 6a 8a c0 15 cd 59 bf
       -5.223809 -3.5788412 -4.325529 -0.85078555
0002b0 fe 9e 18 bf c5 5e e6 bf 06 08 57 3f 48 e3 0c 40
       -0.596176 -1.7997671 0.8399662 2.2013721
0002c0 be a5 8c be 53 5b 8b bd e4 81 49 3f 0b 30 b3 bf
       -0.274702 -0.06804528 0.7871382 -1.3999037
0002d0 7e c5 60 3f b1 95 5a bf 5b fd b3 be e8 05 70 3f
       0.8780135 -0.8538466 -0.35154232 0.9375901
0002e0 ea 70 57 bf 16 37 67 bf d0 6a ea be 7f 13 1e bf
       -0.8415667 -0.9031843 -0.45784616 -0.617485
0002f0 1c c7 82 bf c9 b9 c6 3f c5 62 26 3f 60 01 d0 be
       -1.0217013 1.5525447 0.6499446 -0.4062605
000300 e1 15 1c 40 15 63 0c 3f 0e 84 0c bf cd f5 31 40
       2.4388354 0.5483869 -0.54889 2.7806275
000310 bb 74 8b bf 34 ea 10 be 4e 7d df bf 63 1d 9f bf
       -1.0894998 -0.14151841 -1.7460115 -1.2430843
000320 c2 6d 17 40 c1 24 d0 bd 2b 17 7d bf 77 e1 ce 3e
       2.366074 -0.1016326 -0.98863477 0.4040639
000330 e4 ff d0 bf 0a b9 63 bf db 99 cf bf ff c8 6f 40
       -1.6328092 -0.8895422 -1.6218828 3.7466428
000340 c6 17 a7 bf f8 53 44 bd a6 93 a1 bf 87 b2 03 bf
       -1.305413 -0.04793164 -1.2623184 -0.51444286
000350 75 f5 b1 bd ca a1 03 bf 6c dd 98 3f 49 31 5c 40
       -0.08689395 -0.51418746 1.1942573 3.4405081
000360 ec e1 10 bf cb 1d 12 c0 a7 cb b9 3f db 7c dc bf
       -0.5659473 -2.2830684 1.4515275 -1.7225603
000370 e2 a2 1b bf a3 6a 7f 3f 99 f8 86 bf 7c e5 e7 3e
       -0.60795414 0.9977209 -1.0544616 0.4529227
000380 e8 3f 5b 40 24 88 8d 3f 51 ea da 3f f6 97 67 40
       3.4257755 1.1057172 1.7102758 3.61865
000390 f3 1d 95 3f 5b 14 a5 40 e6 b6 a7 40 10 a6 a3 3f
       1.1649765 5.158735 5.2410765 1.2785053
0003a0 8f 89 41 40 ec 4b 7a 40 19 89 78 be d6 6c fb 3f
       3.024021 3.910884 -0.24271049 1.9642589
0003b0 ba 1b c3 bf 68 fd 27 be c1 8c 80 bf 69 a1 48 bf
       -1.5242836 -0.1640526 -1.0042955 -0.7837129
0003c0 43 8c ba 3f 4a fc c6 be fc 23 0b c0 3f 61 7f bf
       1.4574054 -0.38864356 -2.1740713 -0.9975776
0003d0 03 63 ab bf 76 09 8b 3f a5 81 d2 be 5f e7 fd 3f
       -1.3389591 1.0862262 -0.41114536 1.9836234
0003e0 09 3a 91 bd b2 98 3b 3f 0b 29 59 bf 29 fe ce bf
       -0.070911475 0.7327987 -0.8482825 -1.6171314
0003f0 5f 7b 45 41 2c 2e 99 bf d3 81 e0 bf 38 93 d7 bd
       12.34262 -1.1967216 -1.7539619 -0.105261266

bn.weight f4 [32]
000000 7d 46 08 40 10 d9 31 3f 09 84 99 3f 7a 75 8d 3f
       2.1293023 0.69471836 1.1993419 1.1051476
000010 8a 0b db 3f 81 5f 3f 3f 82 b3 74 3f 15 26 88 3f
       1.7112896 0.747551 0.9558641 1.0636622
000020 81 12 69 3f 5b 0f d8 3f da ac cb 3f 9d a2 64 3f
       0.9104386 1.6879686 1.5912125 0.8931063
000030 43 da 9a 3f 51 81 4d 3f 03 90 1e 3f fa ac 63 3f
       1.2097858 0.80275446 0.61938494 0.88935816
000040 f4 24 4d 3f 17 66 cc 3f 71 4f 44 3f 16 3f d2 3f
       0.8013451 1.5968655 0.7668372 1.6425502
000050 37 42 b0 3f 9f 38 47 3f 56 a4 3b 3f 73 e4 25 3f
       1.3770207 0.7782077 0.7329763 0.6480171
000060 e6 0f 5f 3f 21 7a 36 3f 7f 1e 9a 3f 8d be 98 3f
       0.87133634 0.71280104 1.2040557 1.1933151
000070 fe b4 42 3f c1 c9 56 3f fc 89 4d 3f 66 6f 34 3f
       0.7605742 0.839016 0.8028867 0.7048248

bn.bias f4 [32]
000000 75 cf f9 bf 89 9d 0d 3f 06 16 3b 3f 05 fc 83 3f
       -1.9516436 0.55318505 0.7308048 1.0311285
000010 64 f0 51 bf 98 1b 32 3f f6 7e e3 3d ba 51 30 bf
       -0.8200743 0.69573355 0.111082 -0.68874705
000020 26 7d a0 3e 1c b2 98 40 83 67 88 bf 64 44 3e 3f
       0.3134548 4.771742 -1.0656589 0.74323106
000030 b4 34 98 be 0c fc ae 3f d0 59 87 3f 89 a8 10 be
       -0.2972771 1.3670669 1.0574284 -0.14126791
000040 6c bb 5a 3f 50 05 d0 be 77 e9 3c 3f 37 e3 65 be
       0.85442233 -0.40629053 0.7379374 -0.22449957
000050 51 cc 22 40 d7 2d 83 3f 24 c5 8d be db 29 c9 3e
       2.5437205 1.0248364 -0.2768947 0.39289746
000060 96 52 33 3f 2c d5 a0 3f ac 92 50 3f 90 fd 3e bf
       0.7004789 1.2565055 0.81473804 -0.74605656
000070 86 f6 0b 40 5d b5 13 be cb 40 83 3f 0f 05 45 3f
       2.1869216 -0.14424653 1.0254148 0.76960844

bn.running_mean f4 [32]
000000 b0 19 22 be 16 24 00 bf 6c f1 1c c0 80 61 32 b9
       -0.15830112 -0.5005506 -2.4522352 -0.00017011724
000010 cd 7f 12 c1 b0 12 3c 40 89 fd 4a bf a3 c7 11 bf
       -9.156201 2.9386406 -0.79293114 -0.56945246
000020 8a c0 c6 3f 42 1a 87 3d cf 22 d5 bd 5c 9e 82 bf
       1.5527508 0.06596805 -0.1040703 -1.0204577
000030 eb f8 a5 be 8e cd 59 3f 42 c4 1f bd 17 d8 2b 3f
       -0.32416472 0.85079277 -0.039005525 0.671266
000040 e1 34 70 c0 c1 cc 25 c0 de e9 14 bf ea f5 c5 3f
       -3.7532275 -2.5906222 -0.58169353 1.5465672
000050 56 97 58 3f 84 b3 c6 bf 24 32 ee 3f 5b bd fe be
       0.8460592 -1.5523534 1.8609052 -0.49753842
000060 dc 6a ed bf 5a e4 e6 3c 5d 2d b6 3d e6 63 7f 3e
       -1.8548236 0.028185058 0.08895371 0.24940452
000070 a3 19 4b bf 5f 38 ff bf f0 a2 01 bf f4 53 b2 3f
       -0.79335994 -1.9939078 -0.5063925 1.393187

bn.running_var f4 [32]
000000 b2 35 d8 41 8c 44 04 41 f5 54 16 42 86 1c 6d 41
       27.026218 8.266735 37.582966 14.819464
000010 ee 0b 82 42 ca 4b 19 41 e8 d3 93 41 66 38 6a 41
       65.0233 9.581003 18.47847 14.638769
000020 54 e7 e4 40 a6 ae 16 42 e7 e7 81 41 dc bd 54 41
       7.1532383 37.670555 16.238234 13.296352
000030 6e 26 da 40 2e 8d 23 41 a2 d3 13 41 0e 38 d6 40
       6.817191 10.221968 9.239168 6.6943426
000040 ed d5 8b 41 16 ab 09 42 29 d5 7b 41 58 15 81 41
       17.479456 34.417076 15.739541 16.135422
000050 92 42 e8 41 df 2f 1c 41 5a 7e 2e 41 c3 8d 03 41
       29.032505 9.761687 10.905848 8.22211
000060 87 c8 95 41 de 03 26 41 02 27 d7 41 b4 e7 8b 41
       18.722914 10.375944 26.894047 17.488136
000070 49 a6 fd 40 25 90 2c 41 2b 92 04 41 b0 0e ed 40
       7.9265485 10.785192 8.285686 7.408043

residual_blocks.0.conv1.weight f4 [32, 32, 3, 3]
000000 45 26 7b 3f be ca 8a 3d 4e 25 4c bc 75 ac fd bf
       0.9810527 0.06776951 -0.012460066 -1.9818255
000010 a3 8e 55 be df 19 e3 bf 32 0b ca bf 0f 0e ab 3f
       -0.20855193 -1.774227 -1.5784667 1.3363665
000020 94 d9 21 c0 f5 82 86 bf 23 02 0c 3f ea bd 4d bf
       -2.528905 -1.0508715 0.5469076 -0.8036791
000030 3a 38 58 3e 0b 69 d8 3f ba e4 21 3e b0 13 70 c0
       0.21115199 1.6907057 0.15809909 -3.7512016
000040 ec b7 fb 3f 76 ed 87 be e1 ea 1e 3e af c6 14 3f
       1.9665504 -0.26548356 0.15519287 0.5811567
000050 34 0e 02 40 80 45 27 bf 9e e3 9e 3f 95 41 28 3e
       2.032117 -0.65340424 1.2413213 0.16431268
000060 26 53 87 bf 67 f6 0d 40 0d d0 1e 40 43 50 30 40
       -1.057225 2.2181642 2.4814484 2.7548988
000070 02 95 2c bf 43 7f 67 3f 7e 2b ed 3e bf 2c 3d c0
       -0.6741487 0.9042856 0.46322244 -2.955856
000080 a7 5a a0 bf 1c d0 eb bf 61 3d a6 bf fe 5b 07 bf
       -1.2527665 -1.8422885 -1.2987481 -0.52874744
000090 d1 26 bf bf a6 d0 c8 be 36 57 1b c0 fb 95 9d bf
       -1.4933721 -0.39221686 -2.427198 -1.2311395
0000a0 76 ce 35 bf e6 f8 ec bf 17 97 24 bf e3 4e 2b be
       -0.7101816 -1.8513458 -0.64293045 -0.16729312
0000b0 06 3c 31 bf e5 e6 6b 3f 64 02 9f 3d 53 58 34 be
       -0.69232213 0.9214919 0.07764128 -0.17611818
0000c0 16 1e 09 c0 af a0 37 bf 33 ee 9f 3f 6a 01 50 bf
       -2.1424613 -0.7172956 1.2494568 -0.8125216
0000d0 2e 4c 31 3f f3 a1 d2 bf 30 78 6e 3f 79 5c 04 bd
       0.69256866 -1.6455673 0.9315214 -0.03231475
0000e0 14 33 85 3e 83 f7 c1 3f 06 ba 84 bf 40 da a3 bf
       0.26015532 1.515366 -1.036927 -1.280098
0000f0 ed aa 0b bf 49 da b5 3f bf f6 c2 bf ca 17 a2 bf
       -0.5455769 1.420724 -1.5231551 -1.266351
000100 e3 e5 29 3e c3 33 73 bf 7c 7e e9 bc cd f5 a0 bf
       0.16591601 -0.9500086 -0.028502695 -1.2575012
000110 87 5c 2b c0 95 31 41 40 8d 96 f8 3f 4d 19 aa bf
       -2.6775224 3.0186512 1.9420944 -1.3288971
000120 21 39 82 bf 30 68 6d 3f d7 13 ec be 9a 85 fb 3f
       -1.0173684 0.927371 -0.46108887 1.9650147
000130 27 c5 e2 bf 31 89 22 bf 52 7d 44 40 5e 9e 9b bf
       -1.7716416 -0.6349059 3.070149 -1.2157705
000140 0b ae 1d be da 12 d6 3e 15 8b b8 bf 38 04 09 bf
       -0.15398423 0.41811258 -1.4417444 -0.5352206
000150 df 15 c2 3e 4a bb 00 3e 18 ce c4 be 2e f4 4a 40
       0.3790731 0.12571445 -0.38438487 3.1711535
000160 fc 01 78 40 7d 5f 45 40 20 86 71 bf f4 64 79 3e
       3.875121 3.0839531 -0.94345284 0.24354917
000170 c8 d1 2c 40 85 cf 84 3f 6e 99 01 3f 5e 5e 64 3f
       2.700304 1.037583 0.5062474 0.8920649
000180 65 4a b1 bf c9 41 f2 3e 6d 89 2d 40 ab f4 c4 3e
       -1.3850828 0.47315815 2.7115128 0.38467917
000190 a8 40 8c 3f a7 c8 4f 3f 17 9a be bf ea 18 ee be
       1.0957232 0.81165546 -1.4890774 -0.46503383
0001a0 94 06 d4 bf d6 06 d4 3f aa 74 15 40 0d be b0 be
       -1.6564507 1.6564586 2.3352456 -0.34519997
0001b0 a8 72 a2 3e 18 fe 04 40 32 4e 1d 3e ec 8f bc bf
       0.317281 2.0780087 0.1536186 -1.4731421
0001c0 07 0f 08 40 94 88 de bd a5 52 9c bf 8c ca 2b c0
       2.1259172 -0.10865894 -1.2212721 -2.6842375
0001d0 fc f0 6b 3e 06 cb ce bd 74 fb 7f 3f 3f d5 fb be
       0.23041147 -0.100973174 0.9999306 -0.4918613
0001e0 8b d1 d4 bf 83 c1 d4 be b0 52 0c 3f 4f fb 9f 40
       -1.6626447 -0.41553888 0.5481367 4.9994273
0001f0 d9 4d 90 3e a3 58 4c 40 99 78 c9 3e 5d eb ac 3f
       0.28184393 3.19291 0.3934982 1.3509327
000200 57 9b ba bf 41 3f a4 3f b7 19 94 3f 21 bb 5e bf
       -1.4578656 1.2831804 1.1570348 -0.87004286
000210 f3 de bb 3f 9d c3 eb 3d a7 da c2 be 49 14 88 bf
       1.4677414 0.1151192 -0.38057443 -1.063119
000220 f7 8c 0e 40 ea e2 8c 3f e4 bd d4 3e 93 fd 10 40
       2.2273538 1.1006749 0.41551125 2.265477
000230 a0 d8 b1 3f 7d 0b 1d 40 85 b2 93 3e 4b ae 5c 3e
       1.3894234 2.4538262 0.28847137 0.21550862
000240 97 e8 ba be f7 c6 f6 3f 2e b4 17 3f 33 44 58 3c
       -0.36505577 1.9279469 0.5925931 0.013199854
000250 67 4a 1b 40 76 43 46 3f c7 ab bb 3f 3a 59 43 40
       2.4264162 0.7744669 1.4661797 3.052321
000260 36 8b a9 3f d5 6f ea 3e 33 ed 11 c0 1c 6e 44 bf
       1.3245609 0.45788446 -2.2801025 -0.76730514
000270 2b d4 a7 bd 27 a5 e8 bf a3 8c 95 3f 31 2f f3 be
       -0.08194765 -1.81754 1.1683544 -0.47496942
000280 6d 03 e4 be 44 e4 d5 bd 36 95 0c 3f 1f 0d db 3e
       -0.44533864 -0.10443929 0.5491518 0.42783448
000290 71 19 13 3e 04 0c 1d bf 42 20 cd 3f c1 c0 d0 3e
       0.14365174 -0.6134646 1.6025469 0.4077206
0002a0 c2 fa b0 3e 61 6c 09 3f e2 88 9a 3f 79 7f 90 bf
       0.34566313 0.53681 1.2073023 -1.1288902
0002b0 70 d7 3b bf 1e 0f 9a bf 84 1a 94 bf ea 10 56 be
       -0.73375607 -1.2035863 -1.1570592 -0.2090489
0002c0 f2 a1 de be 62 f8 2c 3f 54 89 67 bf f1 3e af bf
       -0.4348293 0.675665 -0.9044392 -1.3691083
0002d0 26 99 2a bf 0a 29 a8 3e e7 08 5e bf 5b c0 b4 bf
       -0.66639936 0.3284381 -0.86732334 -1.4121202
0002e0 51 63 bf 3f 68 9e 27 bf 6e d7 08 c0 8b 77 24 bd
       1.4952184 -0.65476084 -2.1381488 -0.040153068
0002f0 bb f7 b7 3e 67 69 c4 3f 7b 4b bc 3f ad c4 b3 3c
       0.3593119 1.5344666 1.4710535 0.021944368
000300 1c bc ba bf 5c f9 90 bf 64 6b 10 bf eb 6e 78 c0
       -1.4588656 -1.1326098 -0.56413865 -3.88177
000310 f5 4d ad 3f a2 ed 96 bf c9 1f 51 3f d2 e0 2e 3e
       1.3539416 -1.179127 0.81689125 0.1707795
000320 43 ed 1f bf ad 5d 88 bd 0f 7a 45 3f 4a df 80 be
       -0.6247141 -0.06658492 0.7713937 -0.25170356
000330 f0 a2 ea 3f 20 4b a6 bf 81 c6 e6 3f 28 44 6f bf
       1.8330975 -1.2991676 1.8029329 -0.93463373
000340 b3 12 8c 3f 46 a2 41 c0 55 3a b6 bf a7 65 c6 bd
       1.0943207 -3.0255294 -1.4236552 -0.096873574
000350 6a 33 33 3f 0f d9 38 40 a0 f5 5d bf f5 be e4 bf
       0.70000327 2.8882482 -0.8670292 -1.7870775
000360 0a ea ef 3e c4 b1 67 bf e6 f5 b4 bf a9 61 a9 be
       0.46858245 -0.90505624 -1.4137542 -0.3308232
000370 f6 40 1d 40 04 ce 1e 3e a2 2d 86 3f 61 9f a7 bc
       2.45709 0.15508276 1.0482676 -0.02046174
000380 c3 6e 0a 40 5f 10 7d 3e 65 84 0d bf 18 01 b8 3f
       2.1630104 0.24713276 -0.55280143 1.4375334
000390 2c 2c 0d c0 8a 3c 0d bf 79 69 df bf e5 c7 14 c0
       -2.205821 -0.551705 -1.7454063 -2.3247006
0003a0 7b 18 c4 3f 1a 9b f3 be 87 4c ca bc 22 e3 02 be
       1.5319971 -0.4757927 -0.024694694 -0.12781957
0003b0 03 a1 a1 3f 51 ae 85 bf 71 70 a7 bf a8 66 8d bf
       1.2627262 -1.0443822 -1.3081189 -1.1046953
0003c0 c4 f0 c9 bf e0 f0 d5 bc 32 ca ab 3e 96 7f b0 bf
       -1.5776601 -0.026115835 0.335527 -1.3788936
0003d0 95 06 c2 3f 82 ea 22 c0 41 28 13 bf 55 13 33 bf
       1.5158259 -2.5455632 -0.574833 -0.69951373
0003e0 f9 86 17 40 4d a9 76 3f 5b ca cc 3e e3 8b 19 c0
       2.367613 0.9635208 0.39998135 -2.399163
0003f0 2c 8c c2 3f fe 18 b8 bf d1 ad da 3f 0c 01 d2 bd
       1.5199027 -1.4382627 1.7084295 -0.10254106

residual_blocks.0.bn1.weight f4 [32]
000000 d7 ce ea 3f 9e 22 de 3f c7 02 8e 3f cf 46 0a 40
       1.8344373 1.7354314 1.1094598 2.1605718
000010 04 7b c4 3f 11 e8 bf 3f 0a 71 d6 3f 4f 93 9c 3f
       1.5350041 1.4992696 1.6753247 1.2232455
000020 15 df 33 40 28 ec 6e 40 83 e8 15 40 78 ca 8b 3f
       2.8104908 3.7331638 2.3423164 1.0921164
000030 53 3d 15 40 a2 8b a5 3f 9d 9a e1 3f c8 e6 18 40
       2.331868 1.2933238 1.7625309 2.3890858
000040 78 6b b9 3f 64 ff 89 3f 54 a1 a7 3f fc e1 22 40
       1.4485922 1.0781064 1.3096108 2.545043
000050 33 40 80 3f d3 45 9f 3f 7e 3a bf 3f b6 96 15 40
       1.0019592 1.2443184 1.4939725 2.3373237
000060 fd 33 ea 3f 99 c2 e3 3f 73 41 02 40 6f 68 8c 3f
       1.8297116 1.7793761 2.0352447 1.0969371
000070 db 0e 10 40 e6 4b c8 3f 47 c2 92 3f cb 9c 0d 40
       2.2509067 1.5648162 1.1465539 2.212695

residual_blocks.0.bn1.bias f4 [32]
000000 a4 e4 bc 3f ab f4 aa 3f 13 03 78 3f 83 17 dd bf
       1.4757276 1.3355917 0.9687969 -1.72728
000010 77 3d 4c be 6c 73 e3 3d c7 81 8d bf 66 19 1a 3e
       -0.19945322 0.11105999 -1.105523 0.15048751
000020 5c 9b dd bf 39 2f 54 c0 46 60 29 bf 13 5a 88 3e
       -1.7313037 -3.3153822 -0.66162527 0.2663122
000030 41 1a f4 be 8b c7 4f bf 9f 71 09 3e 9a 2a ad bf
       -0.4767628 -0.81163853 0.1342225 -1.3528626
000040 c9 8a 16 bf 89 5d 8d 3e 7d 13 75 3f 7f c9 f0 be
       -0.5880552 0.27610424 0.9573286 -0.4702873
000050 36 95 39 be ce eb 48 be 0f 66 f7 bd 90 03 09 3f
       -0.18123326 -0.19621202 -0.12080013 0.5352106
000060 a1 57 95 bc 72 e4 68 bf d8 d0 12 bf ff 13 54 3e
       -0.018230261 -0.9097358 -0.5734992 0.20710753
000070 d0 c6 86 bd 2d 1b 11 be ce 48 bf 3f 5f de f7 bf
       -0.06580889 -0.14170523 1.4944093 -1.9364737

residual_blocks.0.bn1.running_mean f4 [32]
000000 de 94 3d 42 ca 20 d8 41 e4 49 00 42 5d 97 d3 c1
       47.39538 27.01601 32.07216 -26.448908
000010 ea 66 37 41 e5 a2 2f c1 82 77 41 c1 e6 2c ab be
       11.4626255 -10.977269 -12.091677 -0.33432692
000020 64 71 99 c1 75 9b ac c0 f3 68 a0 c1 81 3b eb c0
       -19.180367 -5.3939767 -20.051245 -7.3510137
000030 d5 81 9c c2 0d c2 75 41 68 28 94 3f 72 77 be be
       -78.25358 15.359876 1.1574831 -0.37200505
000040 4b 92 72 41 b1 b6 0a c2 a6 15 2f 3f cd 28 6e c2
       15.160716 -34.67841 0.6839241 -59.539845
000050 e7 e3 b9 c1 d9 49 7c 41 24 a1 d5 c0 69 d2 36 42
       -23.23628 15.768029 -6.6759205 45.70548
000060 0f da 74 c0 1e dc 43 c2 07 26 86 42 9e dc df 40
       -3.8258092 -48.96496 67.07427 6.995681
000070 c5 25 36 c2 18 bf bb 3f 40 d8 ed 41 4a b5 d9 c1
       -45.536884 1.4667692 29.73059 -27.21352

residual_blocks.0.bn1.running_var f4 [32]
000000 2a 3c 5f 44 76 47 18 44 dd 6c b2 43 9a dc cd 43
       892.94006 609.1166 356.8505 411.72345
000010 85 81 09 44 a6 19 ea 43 54 32 e4 43 a7 26 b7 43
       550.02374 468.20038 456.3932 366.30197
000020 f0 2a 0b 44 fa 43 ab 43 1d fc fe 43 05 08 d9 43
       556.6709 342.53107 509.96964 434.06265
000030 b1 e5 0c 44 f3 d7 b9 43 0e 31 71 44 b6 79 14 44
       563.5889 371.6871 964.7665 593.90173
000040 85 94 dc 43 12 de ad 43 5b ce 42 44 c9 14 98 44
       441.1603 347.73492 779.2243 1216.6495
000050 1b 4c 5e 43 8a 26 82 43 56 e4 fb 43 1a 40 80 44
       222.29729 260.3011 503.78387 1026.0032
000060 8d 41 d2 43 ce b9 ea 43 c4 52 b1 44 b6 fa a4 43
       420.51212 469.4516 1418.5864 329.95868
000070 e0 1d 87 44 35 ec ab 43 9e b3 e8 43 a5 d7 cb 43
       1080.9336 343.84537 465.40326 407.68472

residual_blocks.0.conv2.weight f4 [32, 32, 3, 3]
000000 62 74 6d bf ab 0d e0 bf 47 db ab bf 4f 35 4d bf
       -0.9275571 -1.7504171 -1.3426293 -0.8015947
000010 64 55 3b 3f c3 3f da bf fd db 15 3f 26 b1 9b 3f
       0.7317717 -1.7050709 0.585388 1.2163436
000020 88 f0 a8 bb ec 2c 71 ba 3d ef dd bf a0 cc 80 3d
       -0.0051556267 -0.00092001143 -1.7338635 0.06289029
000030 08 83 b0 3f a8 e2 a5 3e 24 b7 cb bf 46 9c 00 be
       1.3789988 0.32399487 -1.5915265 -0.12559614
000040 50 e0 5d bf 46 d4 db bd 08 cb 4a 3f bf 33 a7 bf
       -0.866704 -0.10733847 0.7921605 -1.3062667
000050 09 8b bc 3f 7d 54 07 3e 02 30 73 3f f9 4b f0 be
       1.472993 0.13215823 0.9499513 -0.46932963
000060 91 c8 0b bf da d6 a9 3f 34 95 14 bf 04 ae 0b bf
       -0.54602915 1.3268692 -0.58040166 -0.545624
000070 2d 74 32 bf a5 d0 c1 bf fb 28 84 3f 8e 64 0a 40
       -0.6970852 -1.5141798 1.0325006 2.1623874
000080 ca e2 93 3f 13 38 05 bf 4f 4f 27 c0 c8 24 50 3f
       1.1553586 -0.5203869 -2.6142156 0.81306124
000090 36 2a bd 3d 40 0b d6 be 6c ca 9d bf b6 bd 09 3f
       0.09236567 -0.41805458 -1.2327399 0.538051
0000a0 ca a2 b1 bf 3e 75 1d c0 7e 83 e8 3f 9e d9 92 3e
       -1.3877804 -2.460281 1.8165128 0.28681654
0000b0 23 3d fb 3f b1 86 b0 bf 56 80 9a 3f df 70 fb be
       1.9628032 -1.3791105 1.2070415 -0.4910955
0000c0 9d 04 ad bf 9c ec 6e 3e e6 ee 4d 3e 57 d8 38 3f
       -1.3517033 0.23332447 0.20110664 0.7220511
0000d0 87 a7 b7 3f 51 45 12 40 97 d0 30 bf 22 4a 27 c0
       1.4348 2.2854807 -0.6906828 -2.6138997
0000e0 ff 5f ed 3d 08 c5 29 bf 61 00 f3 3e d3 7c 4b bd
       0.115905754 -0.6631627 0.47461227 -0.04967959
0000f0 ce ad 91 be f2 65 c9 3d c1 2c bd bd 58 ab de 3e
       -0.28452915 0.09833898 -0.09237052 0.434901
000100 e2 db 09 3f f2 19 03 3f 9b d3 e5 be 40 79 f9 3e
       0.5385114 0.51211464 -0.44888005 0.4872532
000110 90 6d fd 3e 28 ac 22 3f a3 fb ac be 91 3c 99 3d
       0.49497652 0.6354394 -0.33785734 0.07482255
000120 f2 f3 16 3e bc cc a8 bf 80 0c 21 3e 4b b6 ee bd
       0.14741495 -1.318748 0.15727425 -0.116558634
000130 04 15 52 bf b3 d4 11 3f 3b 49 41 bd ad e8 70 bf
       -0.8206332 0.5696518 -0.04718898 -0.94105035
000140 1e 4b 98 be e4 83 a8 bf e4 28 08 c0 dc af 32 be
       -0.2974481 -1.316525 -2.1274958 -0.17449898
000150 0e 13 28 c1 27 97 14 c1 05 9d 56 c1 0b 13 44 be
       -10.504652 -9.286902 -13.413335 -0.1914789
000160 99 6f 00 c1 41 5a 01 bd 8b 9f 9c bf b1 92 9b 3f
       -8.0272455 -0.031580213 -1.2236189 1.2154142
000170 d1 45 54 3e 74 be 9a bf 33 9a be 3e e9 38 96 3e
       0.20729758 -1.2089372 0.3722702 0.29340294
000180 33 f9 9a bf b1 33 d5 3f d5 1a 9a bf b5 d2 b7 be
       -1.21073 1.66564 -1.2039438 -0.35902944
000190 00 e0 02 3e fa cc 29 be bf fe 35 bf ea af 4a be
       0.12780762 -0.16582099 -0.71091837 -0.19793668
0001a0 48 0c d7 be 3b 70 bd be 2b 75 1f c0 88 7e b5 3c
       -0.42001557 -0.36999688 -2.4915264 0.022155061
0001b0 2f 11 33 3f 2c 73 a5 3f 36 34 16 3f 76 c3 1c 40
       0.69948095 1.2925773 0.5867342 2.44943
0001c0 d8 0d a2 3f d2 ee 8c 3d d2 f6 ad 3f 3a 73 0f bf
       1.2660475 0.06881489 1.3590949 -0.56035197
0001d0 5c 87 35 be d4 26 43 bf 7f 23 b3 bf e8 89 28 bf
       -0.17727417 -0.7623112 -1.3995208 -0.6583543
0001e0 d0 0e cb be 2b 60 84 be 9a 8c 8f 3c 8d c8 89 3e
       -0.3965974 -0.2585462 0.017523099 0.2691082
0001f0 36 31 9c be 50 f4 6b bf 02 63 b1 bc fa 15 90 bf
       -0.30506295 -0.92169666 -0.021653656 -1.1256707
000200 42 e4 c3 bd cd 72 37 bf 55 f1 c6 be a2 2c ce bf
       -0.09565021 -0.7165955 -0.38855997 -1.6107371
000210 60 c0 16 be 5f 0c e4 bf e7 2d 81 be 89 1b 12 3f
       -0.14721823 -1.7816275 -0.25230333 0.57073265
000220 a7 93 cc bf 49 1b 0c 3f dd 18 68 3e 28 a2 c2 bf
       -1.598256 0.54729134 0.22665735 -1.5205736
000230 31 11 67 3e 2e 2d bb be 38 b2 74 3e a6 c5 c3 be
       0.22565152 -0.36557907 0.2389611 -0.3823673
000240 43 f9 a9 3c 70 29 67 3d 50 7e 8e 3d 1f f6 e3 3e
       0.02074874 0.056436002 0.06957686 0.44523713
000250 d1 22 68 3e 47 77 6f bf 60 42 8d bf 32 3f 71 3f
       0.22669531 -0.9354138 -1.1035881 0.94237053
000260 45 2d e6 3d bc bd ae be 1b 56 60 3f e3 5f 7f 3f
       0.11239103 -0.3412913 0.87631387 0.99755687
000270 5d 3f c7 3d db 8c cc 3f 4c 92 32 3e 97 9e 4c bf
       0.097288825 1.5980486 0.1743862 -0.7992949
000280 71 8f b6 3f 7a 01 d5 3e 91 95 15 3e e0 fe c2 3e
       1.4262525 0.4160269 0.14607836 0.3808508
000290 eb 32 24 40 42 e2 cf bf c3 63 46 bf 00 74 c2 bf
       2.5656078 -1.6240923 -0.77495974 -1.519165
0002a0 34 42 47 bf 97 65 46 3f 1a dc be 3e 19 4d 82 be
       -0.7783539 0.77498764 0.372773 -0.25449446
0002b0 bb 53 5d be b4 63 47 be b8 ef 95 bf df 56 8e bf
       -0.21613972 -0.19471627 -1.1713781 -1.1120261
0002c0 53 90 c2 be b1 39 83 be 65 f6 1c be 56 62 c6 bf
       -0.38000736 -0.25629953 -0.15328367 -1.549876
0002d0 eb e3 60 bf 6b 35 d7 3f eb b2 88 3e fc ed a4 bf
       -0.87847775 1.6813177 0.26699004 -1.2885127
0002e0 a9 a6 ed 3d d7 06 1f 40 e5 c1 d9 3e 40 eb 1e c0
       0.116040535 2.4847925 0.42530742 -2.4831085
0002f0 ba 2a da 3e 66 f6 7f bf b4 14 1d be 5d b5 95 3f
       0.42610723 -0.9998535 -0.15339929 1.1695973
000300 50 84 7a bf 4f b4 21 40 21 a3 3c bf 67 7f d3 3e
       -0.9785814 2.5266302 -0.73686415 0.41308138
000310 92 46 a9 bf 06 d4 2e 40 a3 f5 fd 3d 4a 41 e4 be
       -1.3224661 2.731691 0.12400367 -0.44581062
000320 fc 8a 04 3f c2 18 c7 3e 80 7e 85 3f 0e ce 48 3f
       0.51774573 0.38886076 1.042923 0.78439415
000330 1d 8d e6 3d f6 0a ce 3f 19 c6 ce 3f e8 1b 8a 3f
       0.11257384 1.6097095 1.6154205 1.0789766
000340 7b 1c f3 3e a1 b3 3c 3e 2b 73 ee be bf 7a a0 3d
       0.47482666 0.18427898 -0.4657224 0.07835912
000350 e3 9c 8f 3f ee 51 dc be 7b cd 57 3f bf d9 b2 be
       1.1219753 -0.43031257 0.84297913 -0.34931752
000360 2c e4 65 be b3 01 1c bf 4b 5b c5 be 42 bd e8 bf
       -0.22450322 -0.6094009 -0.38546214 -1.8182757
000370 74 30 5a 3f 1f d3 51 3f 91 d5 fe bd ec 0f 9f 3f
       0.85230184 0.8196277 -0.12443078 1.2426734
000380 74 b8 b7 3e 0a 27 f2 be c4 8b af bf 2f 6f 34 3e
       0.35882914 -0.4729541 -1.3714528 0.17620538
000390 32 6a 69 bf 0b 6f c7 3f 20 a1 21 bb 62 63 25 bf
       -0.91177666 1.5580763 -0.0024662688 -0.6460477
0003a0 83 3b 80 be f9 ad 14 bf ba 75 a7 bf 18 13 a9 bf
       -0.25045404 -0.5807796 -1.3082802 -1.3208952
0003b0 fa 78 83 be d3 dd 16 3f 29 a3 ce 3f 36 23 a5 bb
       -0.25678235 0.58932227 1.6143543 -0.005039598
0003c0 11 36 72 bf 9c e2 0f be cb 91 b6 bf 0c d9 33 be
       -0.9461375 -0.14051288 -1.4263242 -0.17563266
0003d0 72 a8 f3 3f 52 c1 23 3e 4d 75 c9 bf 3a 7b 04 3d
       1.903578 0.15991715 -1.5738922 0.03234408
0003e0 c4 94 95 be 33 75 b7 be e3 13 8a bf 16 79 cc 3e
       -0.29215062 -0.35831603 -1.0787319 0.3993613
0003f0 85 9e bc 3e 0b 40 d3 bf dc f1 35 3f 79 e5 23 3d
       0.3683969 -1.6503919 0.71072173 0.040013764

residual_blocks.0.bn2.weight f4 [32]
000000 7b 5d 0e 40 a6 8d b0 3f 4e 12 e4 3f ab 39 a8 3f
       2.2244556 1.3793228 1.7818086 1.3142599
000010 92 7c 11 40 5f 8c 9d 3f 39 b2 8f 3f cb 0c d3 3f
       2.2732282 1.2308463 1.1226264 1.6488279
000020 bd 67 ba 3f 81 86 8a 3f b7 80 d3 3f 69 18 82 3f
       1.4562908 1.0822297 1.6523656 1.0163699
000030 40 3f 9d 3f 41 de c1 3f 6d e6 9a 3f 62 2a a2 3f
       1.2284927 1.5145952 1.210157 1.2669184
000040 a3 8a 7f 3f c1 f5 93 3f 70 8e 91 3f e4 da f6 3f
       0.9982092 1.1559373 1.1371593 1.928555
000050 54 ba 83 3f c1 f5 99 3f 12 9e 8e 3f 15 ad bc 3f
       1.0291238 1.2028123 1.1141989 1.474032
000060 c9 87 a9 3f 39 7d 8f 3f 0b f7 9d 3f b2 1a 07 40
       1.3244563 1.121009 1.2341017 2.1110044
000070 d0 36 a6 3f b9 2f ca 3f bc 3b 98 3f cf a0 b2 3f
       1.2985477 1.5795814 1.189323 1.3955325

residual_blocks.0.bn2.bias f4 [32]
000000 53 4c f0 bf f8 60 46 bf 40 99 15 bf 45 85 80 bf
       -1.8773292 -0.7749171 -0.58436966 -1.0040671
000010 da 5e f6 bc dd a4 18 bf 43 e5 26 3f db a8 a6 bc
       -0.030074526 -0.5962656 0.65193576 -0.020344188
000020 31 23 c1 3f 6d 4b be bf 24 d1 bb bf 1b 25 6b be
       1.5088865 -1.4866768 -1.46732 -0.22963373
000030 d7 b3 1d bf 3e 5c d2 bd 42 73 a0 3e dd 20 1d 3d
       -0.6160254 -0.102715 0.31337935 0.03836142
000040 d4 0d 9f 3e f3 10 6f 3e 42 7a e8 be df fc 86 bf
       0.31065238 0.2334631 -0.45405775 -1.054592
000050 3a 24 fd bf 6e 89 a5 bd 61 2f af 3d e8 8a dd 3f
       -1.977668 -0.08082853 0.08553959 1.7308016
000060 45 25 5d bc 1c 7d 09 bf f0 72 23 bf 15 c1 09 bf
       -0.013497655 -0.53706527 -0.63847256 -0.53810245
000070 7d 00 88 3e 8c d7 8a bf 27 2a bd be c9 54 63 bf
       0.26562873 -1.084703 -0.36946222 -0.88801247

residual_blocks.0.bn2.running_mean f4 [32]
000000 d2 fd 07 c2 02 80 a6 c1 01 ff 24 c2 b6 05 a3 c1
       -33.99787 -20.812504 -41.249027 -20.377789
000010 a2 10 00 c2 fc fc 25 40 b3 53 25 40 44 59 93 c1
       -32.016243 2.593566 2.5832336 -18.418587
000020 b5 b8 84 bf b4 c7 89 c0 35 ee ae c1 39 72 1a 41
       -1.0368868 -4.305628 -21.866312 9.652886
000030 02 42 51 c1 45 6c 03 c1 c1 ac bd 41 f0 37 94 c0
       -13.078615 -8.213933 23.709352 -4.6318283
000040 a8 57 e7 c1 d0 30 3d c1 c7 2a 96 c1 57 f2 04 c2
       -28.9178 -11.824417 -18.770887 -33.23666
000050 17 42 fe c1 e7 50 64 c1 9b 8c b8 41 80 55 0a 42
       -31.78227 -14.269752 23.068655 34.583496
000060 12 65 45 c1 e8 4f db c0 29 bb 03 c1 ff a4 94 c1
       -12.337175 -6.853504 -8.233193 -18.580564
000070 9a 70 a7 c1 78 68 63 c1 15 c2 ec c1 52 68 58 40
       -20.929981 -14.213005 -29.594767 3.3813672

residual_blocks.0.bn2.running_var f4 [32]
000000 73 bc 30 44 8c 2c ed 43 f7 b8 8c 44 78 b3 0b 44
       706.9445 474.34802 1125.7802 558.8042
000010 4c e6 ef 44 b2 9d f6 43 0d ff 0e 44 fd f7 75 44
       1919.1968 493.232 571.98517 983.8748
000020 9c 22 13 44 20 ae 41 44 6a 09 26 44 5c 25 ea 43
       588.5408 774.7207 664.1471 468.29187
000030 e5 bb eb 43 79 05 65 44 9c 91 1f 44 f5 ce 17 44
       471.46793 916.0855 638.27515 607.2337
000040 82 e1 ec 43 2f 17 c7 44 f0 4e e8 43 f2 9a 5d 44
       473.76178 1592.7245 464.6167 886.421
000050 c2 8b 71 44 d4 a3 03 44 b8 43 f3 43 a2 33 bb 44
       966.1837 526.5598 486.52905 1497.6135
000060 4f f0 0a 44 50 03 de 43 fb f8 2d 44 c2 4a 83 44
       555.7548 444.02588 695.8903 1050.3362
000070 9e 9a 3e 44 a0 a5 0e 44 bd 56 30 44 ec 06 d0 43
       762.4159 570.5879 705.3553 416.05408

residual_blocks.1.conv1.weight f4 [32, 32, 3, 3]
000000 6c ec 8c 40 1f 49 c0 40 fd ce 3d 40 d7 45 68 40
       4.40386 6.008926 2.9657586 3.6292627
000010 0c 0f 2b 40 4b 9a 19 40 3b b3 e4 3e 3a 5a 3b bf
       2.6727934 2.4000423 0.44667992 -0.7318455
000020 9b 4b 7d 3f 2a b8 84 bf 72 03 b6 be 0b b7 be be
       0.9894349 -1.0368702 -0.35549504 -0.37249026
000030 3d c5 1b 3f 18 6f 8c 3f 92 f5 63 3f e4 d3 7c bf
       0.60847837 1.0971403 0.89046586 -0.9876082
000040 a2 4c a1 bf 76 c8 8f 3f 35 a6 27 40 63 86 d7 bf
       -1.2601511 1.1233051 2.6195195 -1.6837887
000050 c8 21 06 c0 40 f8 36 3e 37 43 62 c0 89 b8 cc be
       -2.0958118 0.17868137 -3.5353525 -0.3998454
000060 3d 9d bb be 7b 11 34 c0 e0 bb 38 c0 fa e6 54 be
       -0.366434 -2.813567 -2.886467 -0.20791236
000070 9c 94 b7 3f ab 64 3f 3f 8c 5a 5f be 8f cd 2c bf
       1.4342227 0.7476298 -0.21811885 -0.6750116
000080 10 13 60 3f b4 5b c8 be 2e f8 74 3e 50 c9 2f 3f
       0.8752909 -0.39132464 0.23922798 0.68666553
000090 3c e2 41 40 7a 41 ad 3f df 83 43 3e 6a c2 8e be
       3.0294333 1.3535607 0.19093274 -0.278827
0000a0 2a da fb be 64 0b 82 bf 34 60 ab be 4b 54 82 bf
       -0.49189883 -1.0159726 -0.33471835 -1.0181974
0000b0 b5 78 21 3f 60 2c db 3e 99 e2 11 40 d7 4b 0c c0
       0.6307481 0.42807293 2.2794554 -2.192129
0000c0 35 13 c5 3f 09 0f 41 c0 a1 d6 8d 3f a4 36 43 40
       1.5396487 -3.0165427 1.1081125 3.05021
0000d0 bc 19 d4 be d3 cd 66 bf ad be 2f c0 30 5c 33 3f
       -0.41425884 -0.9015781 -2.746013 0.7006254
0000e0 91 1c a2 3e 19 a4 07 c0 7f 8f 8f bf 4a 2a e4 3e
       0.3166242 -2.1193907 -1.1215667 0.44563514
0000f0 82 38 04 bf b9 57 6f 3f 9b 94 2c 3e 71 45 74 bf
       -0.51648724 0.9349323 0.16853563 -0.9541846
000100 c0 51 1a c0 ba a5 e9 bf 1f d3 46 bf 9a fd e1 bf
       -2.4112396 -1.8253701 -0.77665895 -1.7655518
000110 77 8b 9b be e9 e7 a6 bf 09 12 a1 bf db cb 05 c0
       -0.3037984 -1.3039523 -1.2583629 -2.0905674
000120 2d e8 4f 40 ec e2 4b bf e1 2b 45 be bc 46 31 bf
       3.248546 -0.7964313 -0.1925502 -0.6924856
000130 8d d8 4c 3f 01 f3 13 3f 22 36 d6 bf df 59 06 3f
       0.8001793 0.5779267 -1.673527 0.5248088
000140 16 6a 11 be 2c 55 38 bf 9f 66 22 3f 71 22 19 bf
       -0.14200625 -0.7200496 0.6343784 -0.5981818
000150 69 60 5d 3f ef de 1a 3f 72 70 30 3f e3 bf 81 3e
       0.86475235 0.6049642 0.6892158 0.2534171
000160 66 1a c9 be 2a cf 2f 3e 66 15 6a bf 06 06 be 3f
       -0.39277953 0.1716887 -0.914389 1.4845588
000170 ff 7e 88 3f dd c9 8c 3f ce 44 4d c0 74 84 1d 40
       1.0663756 1.0999104 -3.2073245 2.4612093
000180 37 19 5f 3d 67 74 f0 be da 66 2a bf 52 36 11 40
       0.054467406 -0.46963808 -0.6656319 2.2689404
000190 a3 c7 41 3f e1 38 a2 bf 63 e0 41 bf ed 11 73 bf
       0.75695246 -1.2673608 -0.7573301 -0.9494923
0001a0 af 24 a3 bf ea 83 3e 3d ad 03 55 c0 27 08 26 c0
       -1.274557 0.04651252 -3.3283494 -2.5942476
0001b0 06 82 bf bf 3f 22 8f bc 0b 15 16 3f d2 ce 31 bf
       -1.4961555 -0.017472384 0.5862586 -0.6945621
0001c0 84 f2 9f be 8f 9f 8a be 7e 5a 61 3f a0 bd 16 40
       -0.31239712 -0.2707486 0.88028705 2.3553238
0001d0 65 4c 11 40 d3 68 54 40 f0 19 1e bf de 6b f0 3e
       2.2702878 3.318898 -0.6175833 0.46957296
0001e0 68 0f da 3e 02 5d 21 40 60 09 22 bf 83 e7 d2 be
       0.4258988 2.5213017 -0.63295555 -0.41192254
0001f0 53 e3 ba be 82 ea c3 3f 8e 47 1d bf 0a 7b 79 bf
       -0.3650156 1.5305941 -0.6143731 -0.9745337
000200 8f 1e 10 40 4c 60 11 c0 8d 8c 19 c0 62 3c ea 3f
       2.2518651 -2.2715025 -2.3992035 1.8299677
000210 cd 9c 7d 3f bd fa b3 be 53 18 37 3f 80 8a d9 3f
       0.99067384 -0.35152236 0.7152149 1.6995392
000220 10 f9 39 bd e9 e3 2b bf b1 44 16 3f c4 df 73 be
       -0.04540354 -0.6714464 0.58698565 -0.23815829
000230 53 89 23 3e f5 92 0c c0 ca 98 29 3f 56 7f ec 3f
       0.15970354 -2.1964695 0.6624876 1.847636
000240 6f 9b 70 c0 20 ce ab 3f c4 b8 09 40 4d 41 fd 3d
       -3.759487 1.3422279 2.1519022 0.12365971
000250 d9 62 79 bf 36 0a 9d 3e ec 0f 8d 3e 8f f7 14 bf
       -0.97416455 0.30671853 0.2755121 -0.58190244
000260 f1 8e 9c bf 8a 94 a8 3f 15 52 b9 3f 87 7c 60 3f
       -1.2231122 1.317033 1.4478174 0.87690014
000270 2f 07 0f be e5 d8 12 c0 9a 62 28 c0 3e 5a 0b c0
       -0.13967584 -2.2944882 -2.6310182 -2.177383
000280 ad 1f 8c bf eb d9 57 bf d4 c3 2b 3e d2 5a 31 40
       -1.0947167 -0.8431689 0.16773921 2.7711682
000290 f6 26 bf 40 08 4b a7 bf ff e7 a6 3f cf e8 35 bf
       5.973506 -1.3069773 1.303955 -0.7105836
0002a0 56 6c 66 3f fd c4 81 3f f7 8c ad 3f 94 f6 08 c0
       0.9000906 1.0138241 1.3558644 -2.14005
0002b0 f6 fb f6 bf 45 4e af bf 08 fc e0 be 71 84 61 c0
       -1.9295642 -1.3695761 -0.43942285 -3.5237086
0002c0 8c 56 07 40 5e ed 9b 3e 62 63 c3 be ac 2e e9 bf
       2.1146574 0.30454534 -0.3816176 -1.8217368
0002d0 0b de df be 7c b4 9c 40 6c a9 6b 3e 3d cc 0b 40
       -0.43724093 4.897032 0.23013848 2.1843407
0002e0 0e 0d 41 40 95 45 b9 3f e7 44 a2 3f 27 14 0f 40
       3.0164218 1.447436 1.2677277 2.235605
0002f0 6c 1c 2e 40 fd 93 62 bf 83 bb c5 bf 34 08 31 bf
       2.7204847 -0.8850706 -1.5447849 -0.6915314
000300 e7 50 e7 3e 04 b3 8c 3f 6c 5a 3f 3f eb ba 44 3f
       0.4517891 1.0992131 0.7474735 0.76847714
000310 0c 55 f5 be 0f 69 87 bf 36 11 75 3d 11 a0 00 3f
       -0.47916448 -1.0578936 0.059830867 0.5024424
000320 95 78 f1 3f 8f fe b3 3e 81 7e b9 3f d8 2e 73 3f
       1.8864924 0.3515515 1.4491731 0.9499335
000330 83 2f 39 3f c3 85 99 3f 4e cc 5f bf 3b c4 eb 3c
       0.7233812 1.1993946 -0.8742112 0.028780093
000340 22 c8 0c 3f 24 fc f8 3e 25 9b f4 3d 61 f5 c3 3f
       0.5499288 0.48629868 0.11943654 1.5309259
000350 82 4b e3 bf 62 07 3d 3f 72 1e ca 3e 2a ac d5 be
       -1.7757418 0.7383939 0.39476353 -0.41732913
000360 8b eb 84 bf c2 42 a5 3f 1f 2b a1 bd 09 f1 b6 be
       -1.0384382 1.2910998 -0.07869553 -0.3573077
000370 8d e9 8e 3f aa 8f a6 3f e4 4a 96 3f 5b c0 05 40
       1.1165024 1.3012593 1.1741605 2.0898654
000380 1a 28 2a 3f a9 0e 8b bf 96 78 4d c0 ef fa f7 3e
       0.6646744 -1.0863849 -3.210485 0.48433635
000390 74 de 31 be 4d 6f 2e bf 10 96 ec bf bc bd ad bf
       -0.17370015 -0.6813858 -1.8483295 -1.3573527
0003a0 29 6e fb bf 09 ac a4 bf f9 f6 1c 3f 07 9b 27 bf
       -1.9642993 -1.2865001 0.6131435 -0.6547093
0003b0 dc 51 f5 3f 01 bb 05 bf 6a 87 2e bf 0e 78 3c 3f
       1.9165606 -0.5223847 -0.68175375 0.7362069
0003c0 fa 16 c4 bf 76 3d d7 bf 3a 91 a1 be 6c 71 be be
       -1.5319512 -1.6815631 -0.31556112 -0.3719591
0003d0 31 ce cc 3f 5a 0e 48 bf ff 2b 37 3f 2b 7b 15 40
       1.6000425 -0.781469 0.7155151 2.3356426
0003e0 d1 ee 8c 3e a6 e1 14 bd 0d 55 96 bf 0a 53 90 bf
       0.27525952 -0.036348008 -1.1744705 -1.1275342
0003f0 e3 68 db bf 25 26 75 be 43 e5 bf 3f b4 1c 41 be
       -1.7141384 -0.23940332 1.499184 -0.18858606

residual_blocks.1.bn1.weight f4 [32]
000000 eb 11 e3 3f 49 7e f2 3f 5a 00 05 40 62 b6 ee 3f
       1.7739843 1.8944789 2.0781465 1.8649409
000010 94 c2 c0 3f c5 22 fe 3f 4f 05 10 40 d2 4e 21 40
       1.505938 1.9854361 2.250324 2.5204358
000020 f9 63 d3 3f 59 85 f4 3f cd 7a bc 3f 3d 10 03 40
       1.6514884 1.9103194 1.4724976 2.047866
000030 02 0a b0 3f f5 db 06 40 9d 53 c8 3f 14 f4 b6 3f
       1.3753054 2.107175 1.5650517 1.4293237
000040 00 27 a9 3f 97 4b 27 40 f5 32 b3 3f d9 bd 22 40
       1.3215027 2.6139886 1.3999926 2.5428374
000050 c3 7c ce 3f 65 9f bf 3f 1e 82 e1 3f c1 c1 05 40
       1.6131824 1.4970518 1.7617834 2.0899508
000060 79 9c f2 3f 62 b9 a7 3f 2d 86 e5 3f c5 34 d6 3f
       1.8954002 1.3103449 1.7931572 1.6734854
000070 14 71 14 40 3f 15 c8 3f 5d a0 04 40 5c ef 06 40
       2.3194017 1.5631484 2.0722878 2.1083593

residual_blocks.1.bn1.bias f4 [32]
000000 64 ac 50 bf 1f 17 4e 3f 35 7e d6 bf 74 54 d3 be
       -0.8151305 0.8050403 -1.6757265 -0.4127537
000010 79 cd 01 3f e6 1c c9 3c a5 ac 4f 3f 66 d4 24 c0
       0.5070415 0.024549913 0.8112281 -2.5754638
000020 73 5b 43 bf 74 ce c3 bf 9b f1 a3 3f 7a 1e d8 bf
       -0.76311415 -1.529738 1.2808107 -1.6884301
000030 0d 48 41 3f 9b da d9 3f dc 68 9f be 27 ef a3 3e
       0.75500566 1.7019838 -0.3113469 0.32018396
000040 3f 39 07 3f 37 c5 33 c0 21 1a a8 3e e1 1e 74 bd
       0.52821726 -2.808912 0.32832435 -0.05959976
000050 a8 cc 09 bf 2d 7d 6e be 87 a9 64 bf 64 ae ba bf
       -0.53827906 -0.23289938 -0.8932118 -1.458447
000060 3d 0e 6a bf ac dc 8c 3d b1 7b 06 3f fa 6d 1a bf
       -0.91427976 0.06878027 0.5253249 -0.6032406
000070 ec 8c 1c bf b3 99 87 be 1b 54 2e bf 03 16 db 3e
       -0.6115253 -0.2648445 -0.68097085 0.4279023

residual_blocks.1.bn1.running_mean f4 [32]
000000 16 86 5c c1 42 91 bf c1 36 6e 27 c2 a2 f7 9f 41
       -13.782736 -23.945927 -41.857628 19.995914
000010 e5 0a 84 c1 f6 9a 32 42 d9 dc 11 c1 e7 06 f3 c1
       -16.50532 44.65133 -9.116418 -30.37837
000020 96 63 83 41 b8 07 1f c2 4c 85 4e 41 a0 cf 38 c1
       16.423626 -39.757538 12.907543 -11.55069
000030 e8 a8 53 42 dd 1b 7e 42 c2 aa fc 41 cd 83 13 41
       52.914948 63.52721 31.583378 9.219678
000040 89 22 01 c0 36 ba 30 c2 3f 23 a8 c0 8b f1 07 42
       -2.0177329 -44.181847 -5.2543025 33.98588
000050 ae c5 c6 41 a7 8a c7 41 16 c0 fb c1 a6 83 80 3f
       24.846523 24.942701 -31.468792 1.0040176
000060 dd 3c e0 40 f3 f8 b8 c1 0e 73 81 c2 ec d6 a2 40
       7.0074296 -23.121557 -64.72472 5.0887356
000070 f4 c9 56 c0 bf ec 90 c0 a6 bf 86 c1 7d 1a a0 41
       -3.3560762 -4.5288997 -16.843578 20.012934

residual_blocks.1.bn1.running_var f4 [32]
000000 25 81 32 44 06 05 60 44 c0 6b c2 43 26 f5 10 44
       714.0179 896.0785 388.8418 579.83044
000010 2f a5 2e 44 2b 99 a4 44 c2 dd a9 44 64 ee 45 44
       698.581 1316.7865 1358.9299 791.72485
000020 e2 6f 1e 44 d6 06 1c 44 68 71 5d 44 a1 96 15 44
       633.74817 624.1068 885.772 598.3536
000030 ab b2 05 44 58 47 af 44 4b 50 04 44 af dc 1b 44
       534.7917 1402.2295 529.2546 623.4482
000040 32 63 1e 44 46 1e 27 44 d9 4c 33 44 0d 72 15 45
       633.5499 668.473 717.20074 2391.1282
000050 d4 d2 d4 43 36 20 1c 44 56 4a 07 44 62 2d 3b 44
       425.6471 624.5033 541.1615 748.7091
000060 a0 8f 0f 44 7f bb f6 43 00 ef 87 44 54 1f 50 44
       574.24414 493.4648 1087.4688 832.4895
000070 4c ed a0 44 72 b3 18 44 8e e7 77 44 4c bf 9d 44
       1287.4155 610.80383 991.61804 1261.978

residual_blocks.1.conv2.weight f4 [32, 32, 3, 3]
000000 79 6c 0c bf b2 38 6f bf 3b b2 8f bc 4f 6b 9d 3f
       -0.54853016 -0.93445885 -0.017541042 1.2298373
000010 ad 84 a8 bf d8 38 30 c0 e0 63 cb 3e 87 8f 05 3f
       -1.316549 -2.7534695 0.39724636 0.5217213
000020 f6 18 a6 3f d2 b0 65 3e 57 e7 ac 3d 8b bb 92 bf
       1.2976367 0.22430733 0.08442562 -1.1463484
000030 23 86 29 40 1e 05 e6 3f dc 54 a6 3f 57 1b d9 bf
       2.648812 1.7970312 1.2994647 -1.6961468
000040 3b 34 1f c0 09 dd e7 bf 00 a3 27 be a9 67 d0 3e
       -2.487563 -1.811433 -0.16370773 0.40704086
000050 17 4a 0f bf 04 c0 00 3e 33 e4 1b 40 a2 67 1f 40
       -0.5597243 0.12573248 2.4358032 2.4907002
000060 52 5a ff be 36 9f 06 bf f7 d0 ab 3f a7 d0 8a bd
       -0.49873596 -0.52586687 1.3423146 -0.067780785
000070 64 f8 4d c0 ee 8f e6 bd f5 f6 cc 3e a9 ad 1c 3f
       -3.2182856 -0.11257921 0.40032163 0.61202484
000080 9d ef 31 c0 88 20 c6 3f 09 56 b0 3e 97 bb 91 bf
       -2.7802498 1.5478678 0.3444064 -1.1385373
000090 94 3a 6b bf 14 05 6d 3f 17 56 db 3f ca b0 a5 bf
       -0.9188626 0.92585874 1.7135648 -1.2944577
0000a0 43 c5 33 bf 35 42 4e 40 7f 99 b5 bf e3 24 fe 3f
       -0.7022287 3.222791 -1.4187468 1.9855007
0000b0 6d b9 46 40 c1 04 dd 3f d8 ad 3f bd 4a 3d f6 be
       3.1050675 1.7267076 -0.04679665 -0.48093635
0000c0 f6 8a 80 bf b5 1c 2e 40 92 cc 1b bf a4 1b 2b bf
       -1.0042408 2.7205021 -0.60859025 -0.6683905
0000d0 2c a7 59 c0 02 9b d3 3f 88 fc f5 3e 44 8e 29 3e
       -3.4008284 1.653168 0.4804423 0.16558176
0000e0 19 45 ab be c0 e0 b2 3f 91 a8 26 bf 71 61 9e 3f
       -0.33451155 1.3974838 -0.6510096 1.2373487
0000f0 2c 4c 8b 3e 3d a3 b6 be ad ce 96 bf b3 ea d4 3f
       0.27206552 -0.35671416 -1.1781822 1.6634125
000100 da 94 17 40 31 f0 e2 bf ca fe ff 3e 53 8c ae 3f
       2.3684602 -1.7729551 0.49999076 1.3636574
000110 ea b9 81 3f 1c 01 86 3f 07 f5 d5 3e 3b af 6f 40
       1.0134861 1.0469089 0.41788504 3.7450702
000120 30 2d e4 bd 89 0b 41 3f c7 45 5d 3e ea 17 8c bf
       -0.11141431 0.75408226 0.21608649 -1.0944798
000130 8a d7 75 bf 2e 1d 0c bf f7 62 2a bf 15 3f f1 be
       -0.9603201 -0.54732025 -0.6655726 -0.4711844
000140 8b f3 07 3f dc b8 aa 3f fb 5b f6 3e 29 6a 83 40
       0.5310599 1.3337665 0.4811705 4.106709
000150 88 b4 b1 bf 9d 1d 07 c0 d3 72 92 3f 73 94 25 c0
       -1.3883219 -2.1111825 1.1441292 -2.5871856
000160 99 62 fb bf 02 4a 20 40 6a b5 8a 3f 00 2c f2 3d
       -1.9639465 2.504517 1.0836613 0.118247986
000170 3e 46 92 bf f7 34 91 3f 85 38 40 3f 88 7e c0 3e
       -1.1427686 1.1344289 0.7508624 0.37596536
000180 dd de dd 3f b7 67 de bf 92 41 39 3e 46 f1 16 bd
       1.7333637 -1.7375401 0.1809142 -0.03685119
000190 ab 73 4c 3f cf b8 3b 40 ac a7 d0 be 70 e1 1c c0
       0.79863995 2.9331548 -0.40752923 -2.4512596
0001a0 f1 a0 93 3f dd 77 62 bf c8 ec b3 3e b6 54 0b 40
       1.153349 -0.88464147 0.35141587 2.1770453
0001b0 4c ff b5 be 34 25 5a bf 15 a2 b7 be 2d de 11 bf
       -0.3554634 -0.8521302 -0.35865846 -0.5697964
0001c0 c0 d0 9a 3f 81 37 10 bf e2 93 4a 3f 2d 38 aa 3e
       1.2094955 -0.5633469 0.791319 0.33245984
0001d0 36 eb d8 3c 28 5e 69 3e fd d5 17 be c6 e8 b9 3d
       0.026479345 0.22789824 -0.14827724 0.09077601
0001e0 9b fa b8 3f 40 64 3f bf d8 f0 2e 3f 51 f5 48 bf
       1.4451479 -0.74762344 0.6833625 -0.78499323
0001f0 2b 5b d8 bf 18 c4 a5 bf ec 69 a0 3f 20 78 e7 be
       -1.6902822 -1.2950468 1.2532325 -0.45208836
000200 f4 00 7a 3f 64 16 7d bf 99 4f 29 bf f3 14 d4 3f
       0.97657704 -0.9886229 -0.6613708 1.6568893
000210 67 2d 91 bf e7 a1 94 3f b6 ef d7 bf 60 91 5f be
       -1.1341981 1.1611909 -1.6870029 -0.218328
000220 7e 80 c1 bf d0 fd b2 3f 1f 4c 1c 3f 2c 00 90 bf
       -1.5117338 1.3983707 0.6105365 -1.1250052
000230 c6 73 21 3e 8d 27 fd 3f 9f de 43 3f e9 11 2b be
       0.1576682 1.9777695 0.7651157 -0.16706051
000240 ed cd 0c 3e a5 99 bf bf 8f 8b de bf b7 b7 10 be
       0.1375043 -1.4968764 -1.738634 -0.14132582
000250 43 d3 f7 bf 5b ce c1 3f 05 8e e4 3e 26 08 9b bf
       -1.9361347 1.51411 0.44639602 -1.2111862
000260 9f fd 15 3f 02 36 f4 bf c7 37 9f 3f 05 32 85 c0
       0.5859012 -1.9078982 1.2438897 -4.162356
000270 12 28 2e 3f 77 b7 25 40 35 49 6b 40 4e df 47 c0
       0.6802989 2.5893228 3.6763432 -3.1230044
000280 d0 d2 f4 3d dd 84 8b 40 1f 4c 48 3e 02 83 15 bf
       0.11954272 4.3599687 0.19560288 -0.5840303
000290 fb b3 61 3f 4c ec db bf 52 84 9c bf f7 c4 70 c0
       0.88165253 -1.7181487 -1.2227881 -3.7620218
0002a0 d1 44 1b 3e 97 18 3b c0 8b 14 12 c0 73 40 89 3e
       0.1516297 -2.9233758 -2.2825038 0.26806983
0002b0 dd 19 9b bf 27 3c 02 c0 2e 8c b4 3e 81 f7 7c 3f
       -1.2117268 -2.0349214 0.352632 0.9881516
0002c0 1e 91 c9 bf 49 19 86 bf 94 28 af 3f ef 38 90 bf
       -1.5747411 -1.0476466 1.3684258 -1.1267375
0002d0 ba 54 9e 3f 13 8b 94 3f 39 55 b4 be bc 21 b4 bd
       1.2369606 1.1604942 -0.3522127 -0.08795497
0002e0 0f 19 01 c0 46 51 e1 3f 79 9e 94 be 6e 15 2e c0
       -2.0171545 1.7602928 -0.29027155 -2.720058
0002f0 ee af b6 3f 9b 49 8b 3c aa 57 d6 bf fa b8 96 bd
       1.427244 0.017002871 -1.6745503 -0.073595
000300 4b f0 5f bf aa cf 90 bd 4a 01 8a bf dc 87 57 3f
       -0.8747603 -0.07070859 -1.0781643 0.8419168
000310 0d b2 ae bf 7c 4d 41 40 61 17 91 bf 8b dc b0 3e
       -1.3648087 3.0203543 -1.133526 0.3454326
000320 3f 82 28 be 14 56 0e 40 9c 2b 2a 3f 5d 16 5c bf
       -0.16455935 2.2240038 0.6647279 -0.85971624
000330 cb 8e a8 3f ce 60 20 bd a0 0f 0c 40 89 9a 9b 3e
       1.3168577 -0.03915482 2.1884537 0.30391338
000340 94 1d 1f c0 b5 81 ea 3f a0 b8 6a bd 98 d9 aa 3f
       -2.4861803 1.8320833 -0.05730498 1.3347654
000350 b5 73 c7 bf db b0 cf be 85 de 31 bf 21 17 13 3f
       -1.5582186 -0.40564618 -0.6948016 0.57457167
000360 b1 5d aa bf a9 1d 3c 3f 62 a2 98 3e ef 1c 31 bf
       -1.3309842 0.7348276 0.29811388 -0.69184774
000370 9c d9 2b 3f c3 8f e7 bf bc 3d b3 bf 78 45 e4 be
       0.6712892 -1.8090748 -1.4003215 -0.4458425
000380 8e 78 ae 3f e0 41 c9 bf 38 4f fb 3f c6 2a fc 3e
       1.363054 -1.5723228 1.9633551 0.49251384
000390 af 52 35 3f 7a ef 7e 3e 44 85 0e 40 e2 bf 9b 3f
       0.7082929 0.2489604 2.226884 1.2167933
0003a0 da 44 ca 3f d9 e4 5f 40 11 6c d1 bf c5 12 63 be
       1.5802262 3.4983428 -1.6361104 -0.22175129
0003b0 31 b5 03 40 fd 85 6c 3f c1 75 c6 3e 8c 39 8b bf
       2.057934 0.9239195 0.38761714 -1.0876937
0003c0 80 e8 93 bf 21 c5 90 3f 45 1e d5 3f f1 e0 d7 3f
       -1.1555328 1.1310159 1.6649863 1.6865522
0003d0 53 70 60 bf a5 09 17 3f 5a d2 90 bd fc 9e 86 bd
       -0.87671393 0.5899909 -0.070713714 -0.065732926
0003e0 4d fe 01 40 9c 0e fc 3e 17 57 11 c0 fd 26 5e c0
       2.0311463 0.49229896 -2.2709405 -3.4711297
0003f0 b9 0f 0f c0 8a 28 08 bd 70 c7 ae be dc 7a 49 be
       -2.2353346 -0.033241786 -0.34136534 -0.19675773

residual_blocks.1.bn2.weight f4 [32]
000000 eb e0 13 40 f0 e2 b2 3f 6e 81 cc 3f 28 3e df 3f
       2.310603 1.3975506 1.5976999 1.7440844
000010 ec 87 95 3f d5 f4 03 40 40 59 c0 3f d5 55 bb 3f
       1.1682105 2.0618184 1.5027237 1.4635569
000020 ad 0d b8 3f d7 d3 78 3f f7 b0 13 40 43 14 ad 3f
       1.4379174 0.9719824 2.307676 1.3521808
000030 af 9f e4 3f 68 72 be 3f c1 38 00 40 01 70 c3 3f
       1.7861232 1.4878664 2.003464 1.5268556
000040 13 af ce 3f 62 bd c8 3f 6a 1f d6 3f c9 bd ba 3f
       1.6147178 1.5682795 1.6728337 1.4589168
000050 e5 e1 ae 3f 8e 48 da 3f f0 87 c4 3f 49 47 d7 3f
       1.3662688 1.7053392 1.5353985 1.681863
000060 f9 bb d5 3f b5 21 b7 3f 2a 14 99 3f 70 64 e2 3f
       1.669799 1.4307162 1.1959279 1.7686901
000070 08 ec aa 3f db 56 e5 3f d7 a3 f1 3f ee 61 1f 40
       1.3353281 1.7917131 1.8878125 2.4903522

residual_blocks.1.bn2.bias f4 [32]
000000 b4 44 b9 bf b7 7e 0f bf 10 3b cb be 74 e6 1b bf
       -1.4474092 -0.56052727 -0.396935 -0.6089852
000010 4e f6 84 bf e4 1c 20 c0 3c 8c 7b 3f 90 b1 b4 bf
       -1.0387666 -2.5017633 0.98260856 -1.4116688
000020 93 3a 58 3f 17 a5 05 c0 e3 c7 82 bf e5 49 3f be
       0.8446438 -2.0882013 -1.021725 -0.18680532
000030 77 4e 24 bf c2 ad ed bf 20 3b 03 bd 84 fe a8 bf
       -0.6418223 -1.8568652 -0.032038808 -1.3202672
000040 7b a6 9d bc d4 bd 84 3e e6 1f a1 be e2 5c 8e bf
       -0.019244423 0.25926077 -0.3146965 -1.1122096
000050 52 c7 96 bf c9 1f 7b bf 4f 24 f6 bf 16 a9 a1 3f
       -1.1779578 -0.98095375 -1.922983 1.2629726
000060 8a 73 82 bd 3d fd f8 bd cd 28 01 bf 8e 0b a4 be
       -0.063696936 -0.12157676 -0.5045288 -0.32040066
000070 4d 52 2c bf 41 bb 0b c0 1f 23 81 bf 5a cd 17 c0
       -0.6731308 -2.183304 -1.0088843 -2.3719087

residual_blocks.1.bn2.running_mean f4 [32]
000000 86 85 ff c0 cf 2b 5b 41 8f 86 32 c1 af 26 46 41
       -7.9850492 13.698195 -11.157851 12.384444
000010 c8 d2 a6 40 71 78 a9 c0 1f c9 00 41 2d e7 b9 3e
       5.21323 -5.2959523 8.049102 0.36309186
000020 7b f6 b6 3f e3 d3 16 c1 ad 3d 0b 42 cf 18 d5 41
       1.429397 -9.42673 34.81023 26.637114
000030 49 07 c2 c0 8b b0 32 c1 f5 28 19 c0 ee 01 ec c0
       -6.0633893 -11.168101 -2.3931248 -7.3752356
000040 d3 60 b8 40 32 97 79 41 92 59 df c0 79 16 7d c1
       5.7618194 15.599413 -6.979684 -15.8179865
000050 5d e2 96 40 52 49 7e c0 58 dd 8e c1 fd 12 5e c1
       4.715132 -3.973225 -17.858078 -13.879636
000060 b3 cb 6a 41 f3 15 d6 bf 0b cf 65 41 73 78 9a 41
       14.674731 -1.6725448 14.363048 19.308813
000070 f5 31 3c 41 a3 10 c2 41 18 3e 93 c1 76 10 f0 c1
       11.762197 24.258123 -18.40532 -30.008038
