backend_engine/ml/models/session_1764582902/epoch_1_32ch_3resblocks.pth (torch, 299751 bytes, 39 tensors)

conv.weight f4 [32, 20, 3, 3]
00000000: 2e3d 22be 3fc1 543f 1e22 353e 9bf3 83bc
00000010: f68c 253f eb80 88bd 5190 e5be b2ff 143f
00000020: f8bb f7be 55d1 be3e 5b69 0bbd 8d8c 0b3f
00000030: 19ee 5fbf b959 c63e 5e22 37bf 2697 eb3d
00000040: 61c5 ecbe d610 25be 3466 433d 4bfb 8e3f
00000050: 113b 063f 1f56 8d3d 991f 0c3f 97f7 32be
00000060: 5e8a 64be b1f1 fb3e a492 50be 15f5 453e
00000070: c11b 7d3f ee8a 35be 5ad1 fe3e 9e21 b43f
00000080: 0755 68bf 337e 633e aeb9 eabf 04bc a43e
00000090: 3d21 53bf 36ea b93f 0c23 613e 9a26 89be
000000a0: 95e9 a63f fa84 5fbe 1297 2f3e dcbb 363e
000000b0: 68b6 a13c 9c7d 48bf 8d96 593e ea41 1bbf
000000c0: 9d3a 96be ee01 b6be 8d42 94bc cff8 ddbe
000000d0: 3837 b33e 2d1a 533b 6128 003e be13 14c1
000000e0: 0477 17be 4bc9 063f 69c9 37bf 1670 073f
000000f0: f844 55be e861 32bf 2fd5 e4be c435 9abe
00000100: bb78 c3bd b857 22bf ee9c 0540 73b3 35bf
00000110: b81a f73f 7210 efc0 cd8b b9bf 6353 24bf
00000120: 0633 053f de24 89bf 2d51 4ebd 689b d73f
00000130: 0ad1 02be 742e d43f bc86 63be f9cc 52c0
00000140: eb94 d13b 9542 21be c9ba c3bf 1cc2 68be
00000150: 6c07 0740 7bbb 1cc0 0534 1240 f413 383e
00000160: af0e af3f 5515 84bf a8d2 0f3f 546e 80bf
00000170: c1aa 16bd 8681 0340 5553 cbbf d6b9 2740
00000180: 107d 9fbe 0e63 9d3f f18c 84bf c392 d3be
00000190: 2667 62bf 9b64 2abf 3c71 8c3e beb2 8ebf
000001a0: 6728 dfbd 3217 0f3f 2e9d fcbf 7021 953c
000001b0: 3b60 0e3e 9c9e 153f cc5b 8f3e 1d5d f53d
000001c0: 8bb5 553f 591f fc3e 5b4d a5bb cd36 533f
000001d0: a24f 9e3d 8572 ca3d 403e 46be 9a14 9abe
000001e0: 583f f23e d164 123e d774 54be afe3 743d
000001f0: 21fb a7be 6df2 d3be ef8d ab3e 1dce 383c
00000200: 3553 8bbe e27b f23e 211c 5b3e 5230 acbd
00000210: f5b9 d5bd eb5a a7be a907 4cbf ed24 e43d
00000220: 5595 c33a 8b32 b63e 034e fb3d 08c6 29bd
00000230: 0075 29be 5aed ffbd a7d8 6fbe a490 ffbd
00000240: 76a3 483d b350 ccbc 245c c43d 7032 2f3e
00000250: 6ab3 19bc f17a b53d 680d 82bc ebe6 86be
00000260: 8cd8 9bbe 872b 83bf ed6f babf 71b0 43bf
00000270: a4cb 81bf b2b3 25bf 7911 8dbf e5e1 07c0
00000280: 6284 f0bf 14df b5bf 1599 15c1 92db 05c1
00000290: 28db 18c1 03bd a5c0 cc5a 71c0 8929 abc0
000002a0: edaa 8fc0 a9a2 36c0 c767 7ec0 c6b8 26bf
000002b0: 184b 61be 39da b6bf 6ffc d93e 213a de3f
000002c0: ca08 66be 4bfc 96be 9002 c33e 71ba aabf
000002d0: d8ef 6f3f fd6b 2abf f653 95be d903 e63e
000002e0: c8dc 40bf dfc3 1cbf 1610 3abe c0ca a1be
000002f0: 9574 25bf e441 5a3f 529f 203f 972c e9bc
00000300: 97f6 b03f 83eb 863f 2098 6cbf 9e6d d13f
00000310: c578 59bf a828 e33e f88e c7bf 269a 2fbf
00000320: 98c4 d53f e723 9bbb 7433 7bbf 77cb 9cbe
00000330: 3e3e 71bf f3bc fcbe 0708 74bf bae0 e13f
00000340: c64a 43bf b2c9 3e3d 468e a1bf ed76 52bf
00000350: 05ff d23e a3cc f4be a6bd df3e f19c 2c40
00000360: b805 b5be b2bb 59bf 3d07 3e3f 9f91 8cbf
00000370: 72a3 1abf 7ad4 cd3e f115 ccbe cdcc ebbd
00000380: a75c 0640 88fe a43e 0bba 7c3f c656 dd3f
00000390: 42ba 353f 0c37 3e40 d337 5e40 6365 d53d
000003a0: 952e 0540 c98a 0540 fb9a 53be c4de c73f
000003b0: 5b97 99bf 36bc 89be ee15 f2be f92e 07bf
000003c0: 6dc9 413f 6908 0bbf 066c 0dc0 a201 53bf
000003d0: 7f84 f0be 8704 7e3e 290a 9abc 26cd aa3f
000003e0: e53a 4e3e b085 823e 9354 0dbf 6179 84bf
000003f0: 1b5f 0641 bbdc 6cbf 4e9f 97bf f58c 95be
-0.1584365 0.8310737 0.17688796 -0.016107371 0.64668214 -0.06665214 -0.44836667 0.5820266
-0.48385596 0.37269083 -0.03403602 0.5451134 -0.87472683 0.38740328 -0.71536815 0.11503439
-0.46244338 -0.16119704 0.04770489 1.1170439 0.5243388 0.06901192 0.54735714 -0.1747726
-0.22318408 0.49207833 -0.20368439 0.19331773 0.98870474 -0.17728779 0.49769098 1.4072759
-0.9075474 0.2221611 -1.8337915 0.32174695 -0.8247259 1.45246 0.21986026 -0.26787263
1.3040034 -0.2182807 0.17147473 0.178451 0.019740298 -0.78316665 0.21248837 -0.6064745
-0.29341593 -0.35548347 -0.01809814 -0.43353888 0.35003066 0.0032211647 0.12515403 -9.25482
-0.14791495 0.526509 -0.717917 0.52905405 -0.2082709 -0.69680643 -0.44693896 -0.30119145
-0.09544512 -0.634151 2.0877032 -0.7097694 1.9305029 -7.4707575 -1.4495789 -0.6418974
0.5203098 -1.0714376 -0.050370384 1.6844301 -0.12775055 1.6576676 -0.22219366 -3.2937605
0.0063959262 -0.15748055 -1.5291377 -0.22730297 2.109828 -2.448943 2.284425 0.17976362
1.3676356 -1.031901 0.5618081 -1.003367 -0.036783937 2.0547805 -1.5884806 2.6207175
-0.31150103 1.2295854 -1.0355512 -0.41322908 -0.8843864 -0.6655976 0.2743014 -1.1148298
-0.10896378 0.5589477 -1.9735467 0.01820442 0.13903897 0.58445144 0.27999723 0.119806506
0.8348014 0.49242666 -0.005044622 0.82505494 0.077300325 0.09885124 -0.19359684 -0.30093843
0.47313952 0.14296271 -0.20747696 0.05978745 -0.32808784 -0.41395894 0.33506724 0.01127961
-0.2721192 0.4736014 0.21397449 -0.08407654 -0.10435859 -0.32686552 -0.7969919 0.111398555
0.0014921824 0.35585436 0.12270739 -0.041448623 -0.16548538 -0.12496443 -0.2342249 -0.1247876
0.048984013 -0.024940824 0.09587887 0.17109084 -0.009381155 0.0886134 -0.015875533 -0.2634805
-0.3043865 -1.0247658 -1.4565407 -0.76441103 -1.0140271 -0.6472732 -1.1020957 -2.1231625
-1.87904 -1.4208703 -9.349874 -8.366106 -9.553505 -5.1793227 -3.7711668 -5.34882
-4.489615 -2.853678 -3.975084 -0.6512569 -0.22001302 -1.4285346 0.42575404 1.736149
-0.2246429 -0.2948936 0.38087893 -1.3338147 0.9372535 -0.6657103 -0.2916562 0.4492481
-0.75336885 -0.61236376 -0.18170199 -0.31599998 -0.64631015 0.8525679 0.62743104 -0.028463645
1.3825253 1.0540622 -0.92419624 1.6361578 -0.84949905 0.44366956 -1.5590506 -0.68594587
1.6700621 -0.0047345045 -0.98125386 -0.3062398 -0.942356 -0.49362907 -0.9532475 1.7646706
-0.7628597 0.04657907 -1.2621543 -0.82212716 0.4121019 -0.47812375 0.43699378 2.697079
-0.35355926 -0.85052025 0.74229795 -1.098194 -0.6040565 0.4020117 -0.3986049 -0.11513672
2.099405 0.32225442 0.9872138 1.7292106 0.7098733 2.9721098 3.4721572 0.104197286
2.0809681 2.0865958 -0.20664589 1.5614858 -1.1999315 -0.26901406 -0.47282356 -0.5280605
0.75697976 -0.5430971 -2.2097182 -0.82424366 -0.46976086 0.24806415 -0.018803673 1.3343856
0.20139654 0.2549262 -0.55207175 -1.0349542 8.398219 -0.9252431 -1.1845491 -0.29209104

bn.weight f4 [32]
00000000: f3c8 b83f 3bd1 203f 1258 8a3f 49f7 763f
00000010: fe0a ab3f e651 283f 1989 463f 6777 503f
00000020: 5ca2 3d3f c319 b63f f271 ad3f 21f6 443f
00000030: 6de7 863f 9ea9 303f a7fd ff3e bfc4 4b3f
00000040: d82e 223f 1d19 ac3f 4adc 2f3f cef7 ba3f
00000050: 47f2 993f caeb 3d3f 82b9 363f 594f 133f
00000060: 7293 4d3f 659b 173f 73f7 733f a8f5 7f3f
00000070: b1ce 2c3f 7eee 3d3f 84df 2a3f 4a03 183f
1.4436325 0.6281926 1.0808127 0.9647108 1.336273 0.6574997 0.77552944 0.81432194
0.74075866 1.4226612 1.3550398 0.7693806 1.0539376 0.69008815 0.4999821 0.79597086
0.6335273 1.3445164 0.6869551 1.4606874 1.2027062 0.7418791 0.7137681 0.5754295
0.8030311 0.5922149 0.9529945 0.99984217 0.67502886 0.74192035 0.6674731 0.5938002

bn.bias f4 [32]
00000000: 10ca 97bf a633 eb3e 0905 223f 27d5 4d3f
00000010: edd1 33bf 33c5 143f fd7e c53d 4c2d febe
00000020: 7bec 373e 5e20 5340 3c8b 5cbf 83d1 233f
00000030: c7cb 95be 9d17 a53f 0c9f 3c3f 4c5c 28be
00000040: feae 2e3f 3700 a4be 4176 1d3f 8d6d 3dbe
00000050: 8469 0540 6fac 5c3f 9d74 9fbe fc1d 813e
00000060: 7741 223f f957 623f 5ddb 193f d1d7 16bf
00000070: a519 e03f 9511 f0bd 037b 413f b448 1f3f
-1.185854 0.45937842 0.63288933 0.8040337 -0.70242196 0.581134 0.09643362 -0.49643934
0.17961304 3.2988505 -0.86149955 0.63991565 -0.29257032 1.2897831 0.73680186 -0.16441458
0.68235767 -0.32031414 0.61508566 -0.18498822 2.0845652 0.8620061 -0.31143656 0.2521819
0.6338114 0.88415486 0.60100347 -0.5892306 1.7507826 -0.117221035 0.75578326 0.6222031

bn.running_mean f4 [32]
00000000: a62e 25bf f0fb 8fbe c10f bbbf be96 96bd
00000010: defc d2c0 4772 e73f 9043 37bf 0128 f9be
00000020: 336f 5d3f 4aa1 81bd 6996 0abe 6d77 17bf
00000030: 67c8 19be ac11 ab3e 7cb8 3e3e b452 d23e
00000040: 5d59 2ac0 7463 02c0 2156 e2be 9079 5c3f
00000050: 96ab bc3e 5baf aebf 3a29 bd3f c7ea 08bf
00000060: 9c5d 6bbf ef58 48bd ed2f 7d3e 0a68 733f
00000070: 0b0a 3bbf 8bf1 a2bf dcf4 5cbe 07bc 7e3f
-0.64524305 -0.281219 -1.4614183 -0.073529705 -6.5933676 1.808175 -0.7158747 -0.48663333
0.864978 -0.063295916 -0.1353394 -0.59166604 -0.15017854 0.3341192 0.18625063 0.41078722
-2.6617043 -2.0373201 -0.44206336 0.8612299 0.3684966 -1.3647264 1.4778206 -0.5348324
-0.9193971 -0.04891294 0.24725313 0.95080626 -0.730622 -1.2729963 -0.21577781 0.99505657

bn.running_var f4 [32]
00000000: 02ba 6241 43df 7f40 cf43 9441 6ecd d740
00000010: c9d4 0542 288d aa40 47ae 1141 61b4 c640
00000020: 99a4 5140 936d 8541 6cc4 fc40 7fa3 cc40
00000030: 8115 5b40 a2cc b340 c1a6 8e40 4ced 6340
00000040: 409c f540 65ab 9341 5278 0d41 3ef3 1641
00000050: 5c0b 5241 a1e2 a440 dc31 d240 3cc1 7640
00000060: c2a3 1141 5438 a740 9878 4141 992f 0741
00000070: 893d 8540 7a29 c840 39a8 8140 651c 6c40
14.170412 3.9980018 18.53311 6.743827 33.457798 5.329731 9.105048 6.209519
3.2756712 16.678503 7.8989773 6.394958 3.4231875 5.6187296 4.4578557 3.5613585
7.6753235 18.458689 8.841875 9.434385 13.127773 5.1526647 6.5685863 3.855544
9.10248 5.225626 12.091942 8.4491205 4.1637616 6.255063 4.051785 3.689233

residual_blocks.0.conv1.weight f4 [32, 32, 3, 3]
00000000: dcce 543e 14a2 683f eabc 17bf dc28 87bf
00000010: f502 59bf a710 c1bf 0fdb 1abf 16f0 513f
00000020: 687b 0ac0 fc7e dbbe 97c2 1d3f 037a 85bd
00000030: 5e2a 3d3e 0e6c 293f d4ec acbd 5bf5 38c0
00000040: 2bb8 c43f 4e0f 28be 2970 203f f667 213f
00000050: a5a0 813f 81ad 2cbf 61b0 c03e f902 b93e
00000060: 9cf1 eabe ee35 9d3f 54b2 c53f 0be6 de3f
00000070: aa05 34bf 4316 563f 91cd 843e 2f50 1bc0
00000080: 0cdd b5bf 8af7 aebf 5645 9ebf 7075 c43d
00000090: 130e d0be 1355 8f3d 908d 75bf c6ac f2bf
000000a0: 1255 3bbf 3f44 81bf 01e0 c8bd ab56 9e3e
000000b0: 1039 87bf 42d6 dd3e 8a55 733f 1cae 31bf
000000c0: 0e03 b5bf 0acb 91bf a07a 433f e02e 1bbf
000000d0: 9c53 c6be a88c 8ebf bfeb e93e 779d cebe
000000e0: 9411 9cbd 2378 56bd 93a8 99bf 0322 8ebf
000000f0: a956 99be 9492 703f f662 99bf 0850 b03e
00000100: fc8b b6bd e53a 52bf cad0 d33e cf16 26bf
00000110: 2b6e 07c0 3b73 ab3f b8cf 983f 026d 70bf
00000120: 7875 15bf 0cc0 a93d 27d3 90bf 6d25 973f
00000130: 18c2 6ebf bfa3 5fbf c6b6 1b40 1804 8ebf
00000140: 705d 95be 6c69 d53e f14d 3dbf cdf4 b3be
00000150: e8e1 c43e 2cb4 93bd 6fba b8be 0e0c 1740
00000160: 16f2 1140 42bf 0640 bc1a 41bf 3a51 583f
00000170: ca25 c13f 9c76 033e 45e8 013e 6d1b 673f
00000180: 7f0e d8be 0276 ab3e 12f6 9f3f 8831 083e
00000190: e8b3 153f b7f2 c73e c4f3 acbf 53e5 613e
000001a0: debd a9bf 3c9f b83f 02c7 0440 e94e e73c
000001b0: 2825 3f3f 3936 063f 88de 973e da58 a2be
000001c0: d7c2 823f a749 413d 98b8 30bf 0891 b7bf
000001d0: 4bb7 1c3e 0c97 bfbe 0ce8 8e3f 03ec 8a3d
000001e0: 4b6c 89bf f155 523e 9bcb 133e e6f2 5440
000001f0: 5250 243f 0ac6 1e40 6904 3d3f 1925 4b3e
00000200: a7d9 68be f3e5 b8bd 218e 6f3f 869e d2be
00000210: d50f 4f3f c97e ce3e e92b 99bf 1852 5d3d
00000220: fd83 b13f ca60 563f 97c5 bc3c df3d 793f
00000230: f37a c43e a48d 2d3f cef5 5b3f a4ab 3b3e
00000240: 8f0b 8abe e491 d73f 34e7 3cbc 11fe 203e
00000250: 8d02 a13f 0e1f 98bc 1518 8e3f 8655 1340
00000260: 91b6 413f 0dc3 7e3e b64a aebf a11d 5dbf
00000270: 9513 0f3d 54e4 61bf 4bda 623f c992 06bf
00000280: 6277 0fbe 18f5 14bd 3d28 20be e021 de3e
00000290: 6ee5 143f ac6e da3d 835a ad3f 4179 273e
000002a0: de0d 923e 6f03 dc3e 2aba 403f 5714 a3bf
000002b0: 9906 c4bb 30a6 51bf 0c22 97be 4aa3 cabe
000002c0: b47c 8abd a8a1 5a3f 3c5e 56bf ca02 a7bf
000002d0: 244c f7be cde7 3c3e e565 45bf 38c8 b4bf
000002e0: 131e 213f 81a3 f9be 6f2f 93bf 0633 59bd
000002f0: 1af2 66be 8f1a ca3f b3cd 853f b052 fe3d
00000300: 5dcc cbbf 5ac4 31bf 1cd3 9bbd 210e 50c0
00000310: 32c5 b33f 743d 8dbf 8335 223f c6c6 3fbd
00000320: 19ec 7bbf 92d5 6bbe c806 bebe 5bb6 ff3d
00000330: 8324 7b3f d56b 60bd 25e8 d03f a3e7 01bf
00000340: b958 893f a6fd afbf 3a9c 43bf d6f2 83be
00000350: 4410 cabd 9dd9 0e40 ee21 2bbe df50 5fbf
00000360: 2f77 883e b87e e9bd 70ba a8bf e143 17be
00000370: 4c9a d23f 0487 13be 7ec7 903f 15a5 6a3e
00000380: 2406 b93f 2a8c 13be 000c 1dbf ec84 ae3e
00000390: 6fad fabf 3e82 04bf 8ef1 95bf 2bb9 eabf
000003a0: 5672 b73f 32cf 033e 1ec0 6d3f 6154 cb3e
000003b0: 9be7 a23f 3f25 0cbf c4e6 8bbf 0537 58bf
000003c0: a10a b7bf 4dd5 f43d e370 9cbe 098f 32bf
000003d0: d2fb 3c3f 3843 1bbf 92f0 bbbd 1573 f0bd
000003e0: 55f6 8a3f aef1 143e ed20 fc3e dd33 0cc0
000003f0: 1585 a43f 04cb 3cbf 9684 253f 3d7d 57be
0.20782036 0.9087231 -0.59272635 -1.0559344 -0.8477014 -1.5083207 -0.60490507 0.8200697
-2.1637821 -0.4287032 0.61625046 -0.065174125 0.18473193 0.66180503 -0.08443609 -2.8899753
1.5368704 -0.16412088 0.6267114 0.63049257 1.012715 -0.67452246 0.37634566 0.3613508
-0.45887458 1.2282083 1.5445046 1.7413954 -0.7032114 0.8362772 0.25938085 -2.426769
-1.4208083 -1.3669293 -1.236491 0.09592712 -0.40635738 0.069986485 -0.9591913 -1.8958976
-0.7317668 -1.0098952 -0.0980835 0.30925497 -1.0564289 0.43327528 0.950524 -0.69406295
-1.4141557 -1.1390088 0.76358986 -0.606184 -0.38735664 -1.1136675 0.45687672 -0.4035451
-0.0762054 -0.052360665 -1.200457 -1.110413 -0.2994893 0.9397366 -1.1983325 0.3443606
-0.08913419 -0.82121116 0.4137023 -0.64878553 -2.116099 1.339454 1.1938391 -0.9391633
-0.5838237 0.08288583 -1.1314439 1.1808296 -0.93264914 -0.8735923 2.4330306 -1.1094999
-0.2917285 0.41681993 -0.73947054 -0.35147706 0.38453603 -0.072120994 -0.36079738 2.3601108
2.2804008 2.1054235 -0.7543142 0.8449894 1.5089657 0.12838215 0.1268626 0.90276223
-0.4219856 0.3348847 1.249697 0.13300145 0.5847764 0.39052364 -1.3511891 0.22060136
-1.3261068 1.4423594 2.0746465 0.02823587 0.7466607 0.5242649 0.29661965 -0.31708413
1.021571 0.04718938 -0.6903167 -1.4341135 0.15304296 -0.37419927 1.1164565 0.06783297
-1.0736173 0.20540597 0.14433138 3.3273253 0.6418506 2.4808373 0.73834854 0.1983837
-0.22739278 -0.09028234 0.93576247 -0.4113657 0.8088353 0.40331104 -1.1966525 0.05403337
1.3868405 0.8374144 0.023043437 0.9736003 0.38375053 0.6779425 0.85921943 0.18327194
-0.26961944 1.6841397 -0.0115297325 0.15721919 1.2578903 -0.018569496 1.1101099 2.302095
0.756692 0.24879093 -1.361655 -0.86373335 0.034930784 -0.88239026 0.8861434 -0.52567726
-0.14010385 -0.036366552 -0.1564035 0.4338522 0.5816258 0.1066564 1.3543247 0.16354848
0.28526205 0.4297137 0.75284064 -1.2740582 -0.005982232 -0.81894207 -0.29518163 -0.39577705
-0.067620665 0.8540292 -0.8373754 -1.3047726 -0.48300278 0.184478 -0.77108604 -1.4123602
0.62936515 -0.48757556 -1.149885 -0.053027175 -0.22553292 1.5789355 1.04534 0.12418115
-1.5921742 -0.69440234 -0.07608625 -3.2508624 1.4044554 -1.1034379 0.633629 -0.046820424
-0.9840713 -0.2303069 -0.3711455 0.124859534 0.9810259 -0.054790337 1.6320845 -0.50744075
1.0730201 -1.3749282 -0.7641026 -0.25771207 -0.09866384 2.232032 -0.16712162 -0.87232774
0.2665343 -0.11401123 -1.3181896 -0.14771987 1.6453338 -0.14406973 1.131088 0.22914536
1.4454999 -0.14408937 -0.61346436 0.34085786 -1.9584178 -0.51761234 -1.1714342 -1.8337759
1.4331768 0.12872007 0.9287127 0.39712813 1.272693 -0.54744333 -1.0929799 -0.84458953
-1.4300119 0.119547464 -0.30554876 -0.69749504 0.7382175 -0.6064944 -0.091767445 -0.117407
1.0856425 0.14545318 0.4924387 -2.1906655 1.2853113 -0.7374728 0.64655435 -0.21043868

residual_blocks.0.bn1.weight f4 [32]
00000000: 4d49 af3f e0db ae3f af59 7f3f c6e1 e33f
00000010: 680e ae3f e5dc 9d3f 8e20 ad3f 6840 6b3f
00000020: e319 0f40 bef2 2940 971b de3f 226d 5a3f
00000030: c055 e03f c11b 803f bf19 b43f 569a f73f
00000040: ede5 a23f 54a0 773f 53b7 833f e039 0740
00000050: dc7c 473f e60b 843f 35fe a83f 6cde d13f
00000060: 0bbe b83f ff3e be3f 26ea b93f 2204 703f
00000070: 23b9 ef3f ee52 b23f 3636 5c3f ba00 d73f
1.3694245 1.366085 0.9974622 1.7803276 1.3598146 1.2333037 1.352556 0.9189515
2.235955 2.6554408 1.735217 0.85322773 1.7526169 1.000847 1.4070357 1.9343975
1.2726418 0.96729016 1.0290321 2.1129074 0.77924895 1.0316131 1.3202578 1.6396003
1.4432997 1.4862975 1.4524581 0.93756306 1.8728374 1.3931558 0.8602022 1.6797097

residual_blocks.0.bn1.bias f4 [32]
00000000: 66dd 833f ba5d 7a3f 86dc 1f3f 7a11 b8bf
00000010: 659f 01be cf8b f63d 597a 48bf 57dd 273e
00000020: b857 bdbf 0739 18c0 143e d5be 2ebd 933e
00000030: ceea a4be ba97 22bf 282b 8d3d 24c2 79bf
00000040: 0c36 d6be f7dd 623e 80bb 153f 47ad cdbe
00000050: ed0a 44be 9942 30be 1a35 8eba 6eb8 0b3f
00000060: aca7 813d f45a 39bf 67a5 d8be 0e4e cc3d
00000070: 3014 6abe 8f17 5ebe 0a68 723f cc05 d8bf
1.030194 0.97799265 0.6244587 -1.4380333 -0.1265846 0.12038385 -0.7831169 0.16393028
-1.4792395 -2.3784807 -0.41648924 0.2885527 -0.32210392 -0.63512766 0.06892997 -0.9756186
-0.4183811 0.22154985 0.5848923 -0.40171263 -0.19144793 -0.17212905 -0.0010849566 0.5457829
0.06330809 -0.7240441 -0.42313692 0.09975825 -0.22859263 -0.21688674 0.9469 -1.6876769

residual_blocks.0.bn1.running_mean f4 [32]
00000000: f792 ae41 4a0e 2a41 d104 6f41 a111 49c1
00000010: 20e6 4741 d7a4 32c1 f10f 9ec0 0dc8 9340
00000020: 7f18 81c1 d131 99c0 3760 7ac1 0eb0 92c0
00000030: 903a 1dc2 1d73 1441 21d5 2840 ec2c bbbf
00000040: 39df 2f41 c75f c0c1 d7a1 6940 e3ec 12c2
00000050: 4c6b cac0 0b68 7940 1477 b0c0 cac2 9c41
00000060: 995f d8be 804a d2c1 8581 0742 cab6 c240
00000070: 5042 01c2 f1cc 3dc0 6667 8741 7021 96c1
21.82176 10.628489 14.938676 -12.566804 12.493683 -11.165244 -4.939446 4.6181703
-16.136961 -4.787331 -15.64849 -4.583991 -39.30719 9.278104 2.6380084 -1.4623084
10.991998 -24.046766 3.650503 -36.731335 -6.325598 3.8969753 -5.514536 19.595112
-0.42260435 -26.286377 33.876484 6.084813 -32.31476 -2.9656336 16.925488 -18.766327

residual_blocks.0.bn1.running_var f4 [32]
00000000: 27ca 8d43 762c 5343 c814 0643 a4cb 2f43
00000010: 1df8 4443 85ca 3843 444c 3e43 58e2 0343
00000020: 1bb2 5643 dbf5 fd42 a163 2b43 0f9b 1143
00000030: 8a0b 5943 e68c 0843 608c b143 59bb 4a43
00000040: 972b 2243 1fa1 0d43 5270 a443 af6c d943
00000050: eec9 cb42 10d3 c642 e589 4343 4b83 9d43
00000060: 0a24 1543 e465 3243 0b8d cc43 cff0 0243
00000070: 20cb bf43 0dd2 1343 51a5 0e43 4c0a 1743
283.5793 211.17368 134.08118 175.79547 196.9692 184.79109 190.29791 131.88416
214.69572 126.98019 171.38918 145.6057 217.04507 136.55038 355.09668 202.73183
162.17027 141.62938 328.8775 434.8491 101.894394 99.41223 195.53865 315.02573
149.14078 178.39801 409.1019 130.94066 383.5869 147.82051 142.64577 151.04022

residual_blocks.0.conv2.weight f4 [32, 32, 3, 3]
00000000: cfe8 1dbf 23f7 aebf ff1a 02c0 4e84 2cbf
00000010: 57b5 743e 4305 a0bf 66dd dd3d 51a8 1e3f
00000020: beaa 99bd c96b 1a3e d5c9 3abf 4ea1 83be
00000030: f0b1 943f e3a2 fd3e 1c1b 70bf 88e9 923e
00000040: db21 50be b9a8 d9bd d058 223f e666 9abf
00000050: 7dc5 733f cef4 1fbf 8f7a 953f 1e11 8abe
00000060: ac2e 13bf 18eb 0b3f c0b9 b7be 70cd 8c3e
00000070: 898e 7cbf 2207 4bbe caa6 4d3f 7ebc cc3f
00000080: 076c 2d3f cd44 3cbe 44b8 a9bf 99d7 22be
00000090: d1c0 1abf 249d a53d 92f2 91bf 8044 343f
000000a0: 57ff 2fbe fba1 85bf a9f5 963f 258b 0c3e
000000b0: 8c61 5a3f 4e1d 19bf 9d51 ba3e 7d01 9cbe
000000c0: 8c2c 52bf 3b49 46be 9277 dd3e a2e2 e83e
000000d0: 01ef 8c3f 0247 df3f 0366 c8bd 8c40 0ec0
000000e0: d60a 62bd 1838 87bd 4325 193f b546 03be
000000f0: 805d 183e 1b57 123f 107a 793e ac17 103f
00000100: 30dd 233f a7e4 283e 0944 97bd f54a 3a3f
00000110: e177 a83e 5c76 bebd 6f1f b53d 217c 673d
00000120: 2979 4c3e 45ee 79bf 7df3 a83c 47b9 e7bd
00000130: 9c62 80bf 4b02 633e 50df 4cbf e206 94be
00000140: c583 98be e7f5 03c0 ca2f 15c0 664e 92bf
00000150: 69f3 acc0 c294 ecc0 5b85 06c1 6df6 95be
00000160: 2954 c9c0 692b 2ebf c136 84bf f093 893f
00000170: c65e 34bf c96a 6ebf bc0b fc3e c7d5 023f
00000180: 2dbf 65bf edc7 753f c3a0 4cbf 32af f93d
00000190: b87c 44be 8841 953d e7a0 50bf aa6c 83be
000001a0: 577a eabe f7a4 a5bf b330 0ec0 d96b 893e
000001b0: e434 163d 182e 0b3f e45d 423f c9ac b83f
000001c0: cf2f 553f 3030 09bd f81f 273f 523c 05be
000001d0: 16f7 343e 685d 2c3e 26fb 97bf c66b 84bf
000001e0: 85c2 20bf 4a17 1a3d aceb 1f3f 0249 7dbe
000001f0: ac2f bdbe 91e0 94be 7dd4 5ebd 632a c4bf
00000200: 6fee 3a3e a0ee 1ebf 7f3b 24bd 32d6 98bf
00000210: 3b62 63be 3973 5cbf c178 89bf 6b24 723e
00000220: c2c6 bcbf 2a55 84be 2844 1d3d beb6 48bf
00000230: df9c d73e d1d2 c0be 7bda 803e 184e 28bf
00000240: 250e 2d3d be4d d3be 0c72 293f dd45 b23e
00000250: 7470 4a3e d0a1 4dbf c600 5ebe ddca 39be
00000260: 077a 99bd 1c69 fe3d 7ff0 ad3e 5f51 493f
00000270: 6d3c 36be 77ac 0540 7e8d d1be fb11 f9be
00000280: 67e1 573f e041 2a3f f1d3 ee3e 7af6 2b3e
00000290: 138d f23f 62c6 78bf 6e56 43bf 9677 45bf
000002a0: e823 1abe c414 9f3e d102 1cbe 31f8 9cbe
000002b0: 8c20 a83d 8e01 013f deb3 62bf 028f f5be
000002c0: f199 d1be 1258 b5bf 327b 95be ee1d b4bf
000002d0: 002f 51bf e6fc 9f3f e00f 1e3f 748c 4dbf
000002e0: e0cc 30bf 0f30 f73f d424 2a3f ceba 9bbf
000002f0: 2fce 473e 9262 88bf 1518 a23e 4625 ed3e
00000300: b0cf eebe a86f 423f 8e56 0a3d ceae 9bbe
00000310: e2ce 49be 36ab a93f 5a64 b23d bdfd 64be
00000320: 49d0 9b3e b002 f63e c71b 203f dd1a 2d3e
00000330: 7f03 4a3e 0c06 b73f b5e9 953f f045 063f
00000340: 94d6 0e3f 27ea 0c3e 6a8a 39bf 0328 6b3d
00000350: 3cd9 433f a473 063f afcf f03e ac64 e2be
00000360: 3920 0fbe 68ea c3be f496 b4be 9ec6 91bf
00000370: 4b5c a53e 96a4 363f 9937 cebe 3685 233f
00000380: 993d 113f ccfb 67bf 4e45 90bf 6bfa a7bd
00000390: a7e9 c6bf e1e1 0e3f 3cf0 15bf 2f05 64be
000003a0: 58c3 33bf 9f89 54bd fe8f 57bf 98ec 20bf
000003b0: 4369 81be 2bcf 6f3f d06e 7e3f 104e a53d
000003c0: 657a debe 8764 73bb 5111 afbf 7aff dabe
000003d0: 8e4a 7d3f 004d cc3d 4f74 c3be 708c e53d
000003e0: 741c 6dbe 1983 e0be d80f a3be 3fed 0abe
000003f0: 623e 963d 811e 8dbf 30c1 433c 5de4 0bbf
-0.6168336 -1.366917 -2.0328977 -0.6738938 0.238973 -1.2501606 0.10833244 0.6197558
-0.075032696 0.1508018 -0.7296422 -0.25709003 1.1616802 0.49538335 -0.93791366 0.28693795
-0.20325415 -0.106278844 0.6341677 -1.2062652 0.9522322 -0.6248292 1.1678027 -0.26966184
-0.5749309 0.546556 -0.35883904 0.27500486 -0.9865499 -0.1982694 0.80332625 1.5995023
0.6774296 -0.1838562 -1.3259358 -0.15902556 -0.60450464 0.08086613 -1.1402152 0.7041702
-0.17187248 -1.0440058 1.179372 0.13724954 0.85305095 -0.5981034 0.3639039 -0.30469885
-0.82099223 -0.19363873 0.43255287 0.45485407 1.1010438 1.7443545 -0.09785082 -2.2226896
-0.055186115 -0.06602496 0.5982248 -0.12819941 0.14879417 0.5716416 0.2436297 0.5628612
0.6400938 0.16493474 -0.073860236 0.72770625 0.3290396 -0.09299919 0.08843886 0.056514863
0.19968094 -0.97629195 0.020623917 -0.11314636 -1.0030093 0.22168843 -0.8002825 -0.289115
-0.29788032 -2.0618837 -2.3310418 -1.1430175 -5.404713 -7.393159 -8.4075575 -0.2928957
-6.2915235 -0.6803499 -1.032921 1.0748272 -0.7045711 -0.9313169 0.49227703 0.5110745
-0.89744836 0.9600819 -0.799328 0.12191619 -0.19188201 0.0728789 -0.8149552 -0.25668842
-0.45796463 -1.2940968 -2.2217224 0.26840094 0.036671534 0.5436721 0.75924516 1.442773
0.83276075 -0.03349322 0.65283155 -0.13011292 0.17672381 0.16832507 -1.187352 -1.034539
-0.62796813 0.037619866 0.6246898 -0.24734882 -0.36950433 -0.2907758 -0.054401863 -1.5325435
0.18255018 -0.6208286 -0.040095802 -1.1940367 -0.2220544 -0.86113316 -1.0739976 0.23646705
-1.4748156 -0.25846225 0.038395077 -0.7840384 0.4211187 -0.3766084 0.25166687 -0.6574416
0.042249817 -0.4127025 0.66189647 0.34818926 0.1976946 -0.8032503 -0.21679983 -0.18143792
-0.07493978 0.12422392 0.33972546 0.7863979 -0.17796488 2.0886514 -0.40928262 -0.4864653
0.8432831 0.6650677 0.46646073 0.16793242 1.8949302 -0.9717771 -0.76303756 -0.771356
-0.1505276 0.3107053 -0.1523545 -0.30658105 0.08209333 0.50393 -0.88555706 -0.4796067
-0.4093776 -1.4167502 -0.29195553 -1.4071634 -0.8171234 1.2499053 0.61742973 -0.8029244
-0.69062614 1.9311541 0.66462445 -1.2166383 0.19512247 -1.0655081 0.31658998 0.463175
-0.46642828 0.75951624 0.03377395 -0.30406803 -0.19707826 1.3255374 0.08710547 -0.22362418
0.30432346 0.48048925 0.62542385 0.16904779 0.19727896 1.429872 1.1711947 0.52450466
0.5579617 0.13761197 -0.7247683 0.057411205 0.7650335 0.52520204 0.4703345 -0.44217432
-0.13977136 -0.38264775 -0.35271418 -1.1388738 0.32296976 0.7134489 -0.40276793 0.6387514
0.56734616 -0.90618587 -1.127115 -0.0820206 -1.5540055 0.55813414 -0.58569694 -0.22267602
-0.70219946 -0.05188906 -0.8420409 -0.62861013 -0.2527562 0.9367549 0.99387836 0.0807153
-0.43452755 -0.0037138776 -1.367716 -0.42773038 0.98941886 0.09975624 -0.38174674 0.11208427
-0.23155385 -0.4385002 -0.31848025 -0.13567065 0.07336117 -1.1024934 0.011947915 -0.5464533

residual_blocks.0.bn2.weight f4 [32]
00000000: c4f2 e63f 0159 943f 00ea b13f 1d86 843f
00000010: 6a57 e93f a837 833f d224 5d3f cb02 a63f
00000020: 2e0b a33f b7ac 753f f917 b83f d452 513f
00000030: 5952 8b3f beec 993f 091d 813f bbc5 7a3f
00000040: 3a43 463f b90f 613f a0bb 683f 5fa3 af3f
00000050: fb09 4d3f bdc1 853f e04a 783f bc7f 943f
00000060: 9abf 843f c4a5 853f 5dfc 6f3f 734f e43f
00000070: 263a 803f 835c a33f c190 913f c89d a23f
1.8042836 1.1589662 1.3899536 1.0353428 1.8229802 1.025136 0.8638431 1.2969602
1.2737787 0.95966667 1.4382316 0.8176701 1.0884506 1.2025373 1.0086986 0.9795796
0.7744633 0.87914616 0.90911293 1.3721732 0.80093354 1.0449749 0.9698925 1.1601481
1.0370972 1.0441213 0.9374445 1.7836746 1.0017745 1.2762607 1.13723 1.2704401

residual_blocks.0.bn2.bias f4 [32]
00000000: b6c8 c2bf 0057 3ebf c440 15bf b2b6 5ebf
00000010: 6491 26bc 4cb1 12bf c03f dc3e 9660 a7bd
00000020: 90cd 873f 2416 35bf 470f 98bf d21a 92be
00000030: 6719 0cbf ca51 ddbe 78e6 ff3d 484d a0bd
00000040: e30f 403d 6589 643e d9cc d0be f2a4 31bf
00000050: acc0 dcbf a9e0 23be 8d1c a0bd 1264 c23f
00000060: 7e45 263d 1000 debe 4a25 07bf 9b43 06bf
00000070: edc8 50be f4df 7abf 2560 afbe 682e 78bf
-1.5217502 -0.743515 -0.5830195 -0.8699752 -0.0101665 -0.57301784 0.43017387 -0.08172719
1.0609608 -0.7073691 -1.1879662 -0.28536087 -0.5472626 -0.43226463 0.1249513 -0.0782724
0.04689015 0.22318037 -0.40781286 -0.6939231 -1.7246299 -0.1600367 -0.07817946 1.5186789
0.040593617 -0.43359423 -0.52791274 -0.5244691 -0.20389147 -0.97997975 -0.3425304 -0.9694581

residual_blocks.0.bn2.running_mean f4 [32]
00000000: 73a7 a2c1 92e8 0dc1 570b b9c1 17eb 19c1
00000010: f7d2 8ec1 d933 6640 357e be3f 3f6c 23c1
00000020: 210a 2b3e 7726 79be 6eb8 24c1 5756 a240
00000030: 5cc5 01c1 5ee8 3ac0 d15e 5741 9861 eec0
00000040: 2626 54c1 2522 20c1 acc6 f5c0 32cb 86c1
00000050: c0e5 76c1 b556 03c0 a7f6 0a41 ff38 8341
00000060: c08b 15c1 96e0 c2bf 6209 ffc0 082e fac0
00000070: 2f3e c2c0 ba7b aec0 2415 3dc1 05db 2240
-20.331762 -8.86928 -23.130537 -9.619895 -17.85301 3.5969145 1.4882265 -10.213927
0.16703083 -0.2433108 -10.295027 5.0730395 -8.110683 -2.9204326 13.460649 -7.4494133
-13.259314 -10.008336 -7.680502 -16.849216 -15.431091 -2.0521672 8.685218 16.40283
-9.346619 -1.5224788 -7.9698954 -7.818119 -6.070091 -5.4526033 -11.817661 2.544618

residual_blocks.0.bn2.running_var f4 [32]
00000000: cd56 3543 f09a 2043 0cde bc43 4f15 2d43
00000010: e303 0844 9bc6 2f43 543d 4443 b764 8a43
00000020: c351 5243 0661 8343 357a 6343 25de 1543
00000030: 03f6 4443 e6ea 7943 1da9 6443 ddb6 4443
00000040: 601b 0743 3c7d db43 6d30 0843 8e04 7343
00000050: b698 be43 e289 2543 b343 1e43 4cde e943
00000060: b461 3243 83a2 2743 a1a7 8a43 cf30 8543
00000070: 3b47 4a43 7c9f 3743 6a48 9043 bedc 1743
181.33907 160.60522 377.73474 173.08324 544.0607 175.7758 196.23956 276.78683
210.31938 262.758 227.47737 149.86775 196.96098 249.91757 228.6606 196.71431
135.10693 438.9784 136.18916 243.01779 381.19305 165.5386 158.26445 467.7367
178.38165 167.63481 277.3096 266.38132 202.27824 183.62299 288.56573 151.86227

residual_blocks.1.conv1.weight f4 [32, 32, 3, 3]
00000000: 195a 3240 1160 5740 dd3d 1e3f a56b fd3f
00000010: 4a50 0140 d296 bd3f 6434 253f fa61 09bf
00000020: e624 3c3e 71c9 37be e60c d73e 2206 d53c
00000030: b44c d1be 9eb4 7f3f f336 903f ed87 3fbf
00000040: 378b 75bf c721 9e3f 0ae9 8c3f 3fa7 c9bf
00000050: 3292 a2bf b361 753d cffa 25c0 f0e3 4abf
00000060: 599c 8abf 4f71 f6bf 569a 0dc0 f0e5 833e
00000070: 1707 263f 2ae1 263f 1b46 ebbe 62b6 04bf
00000080: a381 fb3e 4865 e3be b98c 453f 1e7c d43e
00000090: a96b 623f 30e0 9b3f 36ad a23e 441c ffbd
000000a0: 37da 88bf a535 fbbe ddc3 febe 746c 81bf
000000b0: 32ba d53e 2db2 cc3e 968f e43f 4927 0bc0
000000c0: ebcc b53f 195b dbbf 5d62 af3f de64 e83f
000000d0: 147f 73be 5218 f3bc 623a a6bf 67a4 833b
000000e0: dfe8 af3e f7c4 b3bf 4e30 e7be 20da d33e
000000f0: a301 08bf 54e4 613f ad49 df3e 04b8 70bf
00000100: b1da 09c0 6567 d8bf 71f7 2bbf b90e 6bbf
00000110: 924f 33bd 2b0e 00bf 5f22 cbbf d476 f4bf
00000120: 7b82 1740 f630 fbbe cfdc b1be 5cab 53bf
00000130: ff6a 803f 31c2 0a3f 5c3d 8cbf 7229 033f
00000140: d15b e23d d1cb 2cbd fcdb cc3e 4614 1dbf
00000150: 81dd 223f 9b23 803e 215f 0c3f 1ae4 f83e
00000160: 3583 d8bd 9e36 603e 80c1 8cbf 5aac c83f
00000170: b456 0a3f 1f09 743f 09a3 cfbf c60a af3f
00000180: cd98 0c3f 4ba4 563d 718a 0fbf 9e00 963f
00000190: b746 ff3e 3316 a0bf a399 6abf f0df a3be
000001a0: 109b dabe a0eb 8cbe a8da d5bf f739 f0bf
000001b0: 5b98 c1bf 7687 96be cc3a 573f ec94 223f
000001c0: 7d37 52bf 2bcd aabd 1b24 b13e dbb5 8b3f
000001d0: 99d6 d73f c33a 1940 ed80 57be f370 763e
000001e0: 99ef 4e3e 1ea7 b83f 9bdf a4be 2c0d fdbd
000001f0: 8352 5fbe e07f b83f d397 30bf d00a c9be
00000200: 9838 e63f d80a 85bf 52eb acbf b8d3 9c3f
00000210: 1cc8 c13e f544 f8bd 67ba 1a3f 5f62 b53f
00000220: 748a f1bd 23aa 3cbf 3a5e de3e fc48 db3e
00000230: 7a9a 833e e9bb b0bf 023c 953d d115 853f
00000240: 6167 fabf a7e1 e13f bff8 dc3f 6c18 5d3e
00000250: 4666 d7be 877d 7abe 2246 9d3f ab5b fabe
00000260: b718 2cbe 37e0 a13f a11a 853f 3201 503e
00000270: ed0c 6fbe 993d 9cbf 47ed 02c0 e4c5 fbbf
00000280: 8adb 57bf 3589 47be c0fc 643f eb8c 0140
00000290: 2d93 8f40 9c04 1cbf e2a5 dc3e 7fc7 05bf
000002a0: 6d6b 2f3f d66c c83f 4c93 343f 6074 8ebf
000002b0: 360d a5bf b2dc 76bf 47f0 09bd ff33 fcbf
000002c0: 9ee9 b33f 7058 41be 837d 86bd b7fe b2bf
000002d0: bac6 023e a8af 3a40 f1dc e43e 8187 dd3f
000002e0: 0708 ed3f 20f4 c73f 6c45 9f3f 7084 673f
000002f0: 01aa cc3f bec7 4dbf a7d8 c5be 5e68 71bf
00000300: a843 bb3e af9b ff3e 1bb3 8bbc 81db a33e
00000310: 48f2 eabe c665 4ebf bfe3 f73e 4cb8 463f
00000320: 68a8 a23f 1038 e03d 42a1 483f 22e6 433f
00000330: 5906 4f3e 02d0 573f 22e7 133f ec7f 3f3e
00000340: d4ab c03d bd23 8e3e a786 b23e be8a 553f
00000350: e56d 77bf cef1 863e 3dde 63bd 4717 1c3e
00000360: cb50 13bf 136c 30bd 1aad 65be 416e b9bd
00000370: 0c5d 433f c6ca 9e3d 8109 1c3f 19a6 b13f
00000380: 77f4 243d 893f 38bf 53d7 e1bf b749 5cbf
00000390: 74b2 33bf 1d5f 10bf 8b48 b3bf 615f 3ebf
000003a0: 819d 7fbf 3678 c3bf 9e79 d83e 2911 83bd
000003b0: 64f4 633f fb40 1cbf 19dd aabe 14b5 263f
000003c0: 24ba bfbf b91c 60bf dac8 2abf adf0 bebd
000003d0: 768e 253f 6b6e 6e3b 1828 0e3c 06bf 993f
000003e0: 1c8f 6c3f 0773 b13e bf49 cdbe 510f e8be
000003f0: d705 06c0 1e16 8abd 3008 ac3f c1bd b53c
2.7867491 3.3652384 0.61813146 1.9798476 2.0205255 1.4811652 0.64533067 -0.53665125
0.1837345 -0.17947938 0.42002028 0.0260039 -0.40878832 0.99884975 1.1266769 -0.7481678
-0.9591555 1.2354058 1.1008618 -1.5754164 -1.2700865 0.059907626 -2.5934331 -0.79254055
-1.0828964 -1.9253329 -2.212545 0.25761366 0.6485457 0.65187323 -0.45951924 -0.51840794
0.49122342 -0.4441321 0.7716785 0.41500944 0.88445526 1.2177792 0.31772774 -0.12456563
-1.0691594 -0.49064365 -0.49758807 -1.0111222 0.41743618 0.39979687 1.7856319 -2.1742728
1.4203161 -1.7137176 1.3701893 1.8155782 -0.23778945 -0.029674683 -1.2986567 0.004017401
0.34357354 -1.4044484 -0.4515404 0.41377354 -0.531275 0.88239026 0.43610898 -0.94030786
-2.1539729 -1.6906554 -0.6717444 -0.9181934 -0.043777056 -0.5002162 -1.5869864 -1.9098763
2.367339 -0.49060792 -0.34738776 -0.8268335 1.0032653 0.5420256 -1.0956225 0.51235116
0.11052669 -0.042186562 0.40011585 -0.6135906 0.6361924 0.25027165 0.54832655 0.48611528
-0.10571901 0.21895835 -1.0996552 1.5677598 0.5403855 0.9532642 -1.6221629 1.3675163
0.54920655 0.052402776 -0.5607062 1.1718938 0.4985864 -1.2506775 -0.9164068 -0.32006788
-0.42696428 -0.27523518 -1.6707354 -1.876769 -1.512462 -0.29400223 0.8407409 0.63508487
-0.8211592 -0.08339914 0.3459786 1.0914873 1.6862365 2.3942115 -0.21045275 0.24066524
0.20208587 1.4426 -0.32201847 -0.12356028 -0.2180882 1.4414024 -0.68981665 -0.39266062
1.7986021 -1.0393934 -1.3509314 1.2252111 0.37847984 -0.121225275 0.6044068 1.4170645
-0.11793986 -0.7369711 0.43431264 0.4282912 0.25703794 -1.3807346 0.07286836 1.0397283
-1.9562799 1.7646989 1.7263411 0.21591347 -0.42070216 -0.24461947 1.2287028 -0.48898062
-0.16806303 1.264655 1.0398751 0.20312956 -0.23344775 -1.2206298 -2.0457323 -1.9669766
-0.84319365 -0.19485934 0.89448166 2.024226 4.486716 -0.60944533 0.4309531 -0.5225753
0.68523294 1.5658214 0.7053726 -1.1129265 -1.2894657 -0.96430504 -0.033676412 -1.9703368
1.4055669 -0.18881392 -0.06566908 -1.3983983 0.1277112 2.9169712 0.44699815 1.7306978
1.8518075 1.5621376 1.2443061 0.9043646 1.5989381 -0.8038291 -0.38641855 -0.94299877
0.36575055 0.49923465 -0.017053178 0.32003406 -0.4588797 -0.80624044 0.48415944 0.77624965
1.2707644 0.10948193 0.7837106 0.7652303 0.20217265 0.8430177 0.57774556 0.18701142
0.094077736 0.2776164 0.34868357 0.8341483 -0.9665206 0.26356357 -0.055631865 0.15243255
-0.57545155 -0.043071818 -0.22429314 -0.090542324 0.76313853 0.0775352 0.60952 1.3878814
0.040272202 -0.71971947 -1.7643837 -0.8604998 -0.7019417 -0.5639513 -1.4006513 -0.74364287
-0.99849707 -1.527106 0.42280287 -0.063997574 0.89044785 -0.6103665 -0.3337181 0.65120053
-1.4978681 -0.8754383 -0.66712725 -0.09323249 0.64670503 0.0036381732 0.008676551 1.2011421
0.9240587 0.3465807 -0.40095326 -0.45324185 -2.0941064 -0.067425 1.3439999 0.022185208

residual_blocks.1.bn1.weight f4 [32]
00000000: 8e22 bc3f 2cfc c73f 3c0e c83f 9200 a03f
00000010: 6f15 973f 44f3 bd3f 321a e43f 4102 fe3f
00000020: 4bef b03f 0c78 c13f fd0b 8f3f a7b8 d73f
00000030: 97d1 8a3f ffbb cd3f 45c4 b23f 6e75 9d3f
00000040: 0925 8c3f 00d0 fc3f e273 913f 9d2c e53f
00000050: e60d a63f bf1a ae3f 3e35 bf3f 8ba0 de3f
00000060: 963c b13f 4368 933f 66fd b83f e6e7 af3f
00000070: ff44 d03f 9887 a93f 9cb1 c63f 6dbb cf3f
1.4698045 1.5623832 1.5629344 1.2500174 1.1803416 1.4839864 1.7820494 1.9844438
1.3823026 1.511476 1.1175534 1.6853226 1.0845212 1.6072997 1.3966147 1.2301462
1.0948802 1.9750977 1.136349 1.790424 1.2972991 1.3601912 1.4938123 1.7392744
1.3846614 1.1516193 1.4452331 1.3742645 1.6271056 1.3244505 1.5522952 1.6229073

residual_blocks.1.bn1.bias f4 [32]
00000000: 1168 31bf a836 f23e 7226 87bf 353a 9fbe
00000010: 00e7 b63e 75c3 45be dabc 1e3f 1537 f1bf
00000020: 1489 33bf 97e4 a2bf 7dfd 5d3f ed52 a5bf
00000030: a510 023f 2739 983f ee86 d2be f732 473e
00000040: eabc 0f3e 8f27 06c0 d0e6 c23d a40e c7bc
00000050: f274 09bf 9bfe 22be 88cd 56bf 1aaa 9cbf
00000060: f618 67bf 2782 143c f557 843e 84a8 f6be
00000070: c312 e3be ca6b 9bbe 8d57 0dbf df58 d63e
-0.6929942 0.47307324 -1.0558608 -0.31099096 0.35723114 -0.19312842 0.62006915 -1.8844935
-0.7013104 -1.272601 0.8671492 -1.2915932 0.5080665 1.1892442 -0.41118568 0.19453035
0.14036909 -2.0961645 0.0951668 -0.024298973 -0.5369407 -0.15917437 -0.83907366 -1.2239411
-0.9027246 0.009064234 0.25848356 -0.48175442 -0.44350252 -0.30355674 -0.55211717 0.41864678

residual_blocks.1.bn1.running_mean f4 [32]
00000000: d273 88c0 10d1 68c1 20ed 90c1 ba61 aabf
00000010: 467e 4fc1 abdb a841 31aa 0cbf 1654 71c1
00000020: 8521 dd3f 6aac d8c1 f9f6 f640 a913 ae40
00000030: 8910 be41 e9d4 0342 8eff 3b41 f9e3 0641
00000040: 1efe 0140 5bc6 d8c1 1f29 a5bf d75e 1c41
00000050: 4dd3 5d41 d822 fc40 8e85 3bc1 79e0 99c0
00000060: fe50 cb40 4498 a7c1 2fac 03c2 9954 9340
00000070: 7d02 6bc0 64ad 5640 aad6 d6c0 dcb6 4741
-4.264138 -14.551041 -18.115784 -1.3311074 -12.968328 21.10726 -0.5494719 -15.083029
1.7275854 -27.084187 7.717648 5.4399 23.758074 32.95792 11.749891 8.430657
2.031135 -27.096853 -1.2903174 9.773154 13.864087 7.8792534 -11.720106 -4.8086514
6.3536367 -20.949348 -32.918148 4.604077 -3.6720269 3.354333 -6.713704 12.482143

residual_blocks.1.bn1.running_var f4 [32]
00000000: 1df7 8a43 afa0 9043 cb5c 2443 c7cc 5243
00000010: 9341 9643 cd38 dd43 7898 f243 ea46 a043
00000020: 7a2a 6443 5909 6543 87fe 8843 8286 5c43
00000030: c355 3243 9210 e943 2260 3f43 afda 8943
00000040: da3e 8e43 3d96 7043 ab4a 6b43 d1f1 1f44
00000050: 449d 2943 6244 6043 4a4d 3f43 4808 7e43
00000060: 152c 8343 834b 5843 22e9 c443 e80c 8343
00000070: f865 c743 f53b 5143 d9fc 9c43 2059 c743
277.93057 289.25534 164.36247 210.79991 300.5123 442.44376 485.19116 320.55402
228.16592 229.03651 273.9885 220.52542 178.335 466.12946 191.37552 275.70847
284.49103 240.58687 235.29167 639.7784 169.61432 224.26712 191.30191 254.03235
262.3444 216.29497 393.82135 262.10083 398.79663 209.2342 313.97537 398.6963

residual_blocks.1.conv2.weight f4 [32, 32, 3, 3]
00000000: a12b a8bb f3a1 50bf bd50 4cbe b244 3d3f
00000010: 40cb 85bf 0956 dcbf fbb6 863d 3a8a a4be
00000020: b46d a93f eab6 cbbd 4d05 49be 28fe acbe
00000030: 8255 893f 29f9 093f 5748 543f 889c c7bf
00000040: 4958 eebf 9fe5 01c0 e921 4bbf d1c4 0b3f
00000050: da16 e8bd 72cb a2be 6b96 b53f ccbf c33f
00000060: 8515 98be 4275 113f cfbc f13f 5bbe 303f
00000070: 3680 ccbf cf8d a4bf 487a 4abf 8dbe cf3e
00000080: af78 e9bf 95b6 2b3f 6f29 0b3f a7ad 8abf
00000090: ccb2 92bf 0ba8 133f bbe4 0d3f 69f3 66bf
000000a0: 6ada a7be a993 9b3f 48f5 58bf 00e2 d33f
000000b0: a670 1340 096a 163f 89d0 073e 7432 e3be
000000c0: 34b5 563d d13b c23f f9bc 53be e3be 10be
000000d0: 4425 24c0 8b0e f53e d60a e83d 51d4 e93e
000000e0: 742a 27bf 138d 0d3e eba3 09bf 3b87 4a3f
000000f0: ed12 ca3c 43b0 0b3f 8b49 debe 1db6 3840
00000100: 74eb c33f 4bc5 c8bf 155a f9be 282f 413f
00000110: 4110 bf3f c119 9e3e d844 ed3e feae 0b40
00000120: a65a 213f 826b 293f e470 2dbd dd19 923d
00000130: 5519 4bbf ed26 a93d 9ba5 b5bf 2b37 cdbe
00000140: e107 02be 2bfe 4abe 1d84 49bf f433 1e40
00000150: 1808 b5bf f589 21bf 1b20 c93e 9dc0 e5bf
00000160: a25f 93bf 7660 3ebe ff11 683f 0b1a eabe
00000170: 1ba7 b9be b2f5 033f 567c 84be 6fc8 bf3c
00000180: 8342 9a3f 1740 97bf bdf0 2d3f 7515 34bf
00000190: 6e5b 983f 9195 4140 5518 e43e fdeb f2bf
000001a0: 2a86 843f af9e c2bd 7534 64bd a05c ee3f
000001b0: fc9c e3be 0f0a 4cbf 6f20 32bf 6b8e 01bf
000001c0: 057d d73e 4712 dcbd 3d68 f13d 50da 83bb
000001d0: 7511 c7be e82e 273e e60e ee3e 95f9 af3d
000001e0: f4d7 7a3f f797 f3be adc7 8cbe bc99 89be
000001f0: 0930 e4bf 9c08 e4bf f54a a4be 9f7e 683f
00000200: 2fe2 a1be 6057 30bf 5a77 343f d01c 14bd
00000210: 3a2e f8be fdd2 933f 2bbf 88bf 3e8b b5be
00000220: 0cb1 48bf 7cb2 913f 69d5 a73f 18d0 49bf
00000230: 56ce 19be 0805 823f 1ec0 233f 5cd2 0bbf
00000240: ac5a 033e 0e4e c4be 851e e1bf 4dc5 53be
00000250: 3f9c 2fbf 88ac 613f 3c79 683f 455e b9bf
00000260: d543 4b3f b5c3 e1bf 94a4 033f df22 41c0
00000270: 250f 513f 5e1d 1040 ef51 2440 20b4 11c0
00000280: 62f2 18bf 8154 4240 91f2 4abf 4dbf 34bf
00000290: beb6 343f 55ca b7bf ba7f b4bf f112 eebf
000002a0: 9338 0abf 3541 abbf 8273 c2bf b267 cc3e
000002b0: 53aa 46bf 22a4 d2bf a4a7 da3e a9bc ef3d
000002c0: ad22 833d 15f7 acbf c8d3 3e3e f2cd 81bf
000002d0: 5e7d 773f af19 523e 9839 2bbe b2b5 47bf
000002e0: 5640 2fbf 2fa4 9b3d 666e a03e 9965 1dbf
000002f0: d096 27bf 5c68 363f 037a 25bf d3fd 81bd
00000300: 9932 053e 23f1 623f 4686 d4be 4721 333f
00000310: 9688 b8bf 42d1 633f 76d7 fdbe c1f4 983f
00000320: 500a 0e3e 4869 963f 4469 db3e a149 84bf
00000330: d178 3c3f 450c 9e3e 9f71 a93f 0937 28be
00000340: bf95 86bf 0b33 26be 111b acbf 9459 bd3f
00000350: 397e a6bf 8210 51bf f45a 85bf dd72 8f3e
00000360: fe0d 963e 3995 553f b677 8fbf 0072 48bf
00000370: be8d 893f 1b22 9e3d 75c1 85bf 0d94 8bbd
00000380: cb54 eabe ac94 0ac0 fc0c df3f d3bb 143f
00000390: d359 493c 8810 00bd 185e bb3f bf6c 583e
000003a0: 5bd3 e53f ef33 1240 0123 65bf 861d a4be
000003b0: eb56 e23f 9c6c 8abe dbf1 5a3d 7282 16bd
000003c0: b055 83be 9ece c73e 02dc c43f ec87 c33f
000003d0: 9192 1d3f 5d89 74be eacb cdbe 88c2 a53e
000003e0: bfeb 9a3f 8cc2 8a3e 4245 f7be d1dd 51c0
000003f0: df9e c8be 7575 15be 3e81 e4be 1f24 5ebf
-0.005132154 -0.81497115 -0.19952674 0.73932946 -1.0452652 -1.7213756 0.065778695 -0.32136708
1.3236604 -0.099469975 -0.19630928 -0.33787656 1.072922 0.53895813 0.8292288 -1.5594645
-1.8620692 -2.02964 -0.7934862 0.54597193 -0.113324836 -0.3179584 1.4186529 1.5292907
-0.29703918 0.56819546 1.8885745 0.6904046 -1.5976627 -1.2855777 -0.79092836 0.40575066
-1.8239955 0.67075473 0.543601 -1.0834244 -1.1460814 0.5767829 0.5542714 -0.90215164
-0.32783824 1.2154437 -0.8474927 1.6553345 2.3037505 0.58755547 0.13263144 -0.4437443
0.052418903 1.5174505 -0.20677556 -0.14135318 -2.5647745 0.47862658 0.11330192 0.45669797
-0.65299153 0.13823347 -0.53765744 0.79112595 0.024667228 0.5456583 -0.43415484 2.8861153
1.530623 -1.5685209 -0.4870154 0.7546258 1.4926835 0.30879024 0.46341586 2.1825557
0.63028944 0.6617967 -0.04234399 0.07133839 -0.7933553 0.08259378 -1.4191164 -0.40081152
-0.12698318 -0.1982352 -0.78717214 2.471921 -1.4143095 -0.6310113 0.39282307 -1.7949406
-1.151356 -0.18591484 0.9065246 -0.45722994 -0.36260304 0.51546776 -0.2587611 0.023411004
1.2051548 -1.1816434 0.6794546 -0.7034524 1.1902902 3.0247538 0.44549814 -1.8978268
1.0353444 -0.09502923 -0.05571409 1.8622017 -0.44455707 -0.7970285 -0.6958074 -0.5060794
0.4208757 -0.107456736 0.1178746 -0.0040238276 -0.38880506 0.16326487 0.46495742 0.08592526
0.9798577 -0.47576877 -0.2749609 -0.26875103 -1.7827159 -1.7815127 -0.32088438 0.9081821
-0.31617877 -0.68883324 0.70494616 -0.03616029 -0.48472768 1.1548764 -1.068334 -0.35457796
-0.7839515 1.1382594 1.3112003 -0.7883315 -0.15020117 1.0157785 0.6396502 -0.5461786
0.12827557 -0.383408 -1.7587439 -0.20680733 -0.6859779 0.88153887 0.9080999 -1.4481894
0.7940038 -1.763785 0.51423 -3.0177534 0.81663734 2.2517924 2.5675008 -2.276619
-0.59744847 3.0364077 -0.79276377 -0.706044 0.7059134 -1.4358622 -1.4101479 -1.859953
-0.53992575 -1.3379275 -1.51915 0.39922863 -0.77603644 -1.6456339 0.42706025 0.11705906
0.06403098 -1.3512903 0.18635476 -1.0140975 0.9667567 0.2051761 -0.16721189 -0.7801162
-0.68457544 0.07599675 0.31334227 -0.6148315 -0.65464497 0.7125299 -0.646393 -0.06347241
0.13007583 0.88649195 -0.41508693 0.6997265 -1.4416683 0.8899118 -0.49578446 1.1949693
0.13871121 1.1750879 0.4285375 -1.033497 0.7362185 0.30868736 1.32378 -0.16427244
-1.0514449 -0.16230409 -1.344576 1.4792962 -1.300727 -0.81665814 -1.0418382 0.2801732
0.2930755 0.8343082 -1.1208408 -0.7829895 1.0746381 0.07721349 -1.0449663 -0.06815348
-0.45767817 -2.1653242 1.7425838 0.58099097 0.012289482 -0.031265765 1.463809 0.21135233
1.7955126 2.2844198 -0.89506537 -0.32053775 1.7682775 -0.27035987 0.053453308 -0.036745496
-0.25651312 0.39024824 1.5379641 1.5275855 0.6155177 -0.23880525 -0.40194637 0.32374978
1.2103194 0.27101552 -0.48295027 -3.2791636 -0.3918371 -0.14595588 -0.44629854 -0.86773866

residual_blocks.1.bn2.weight f4 [32]
00000000: b7c0 fa3f 67ba 8e3f 3126 943f 6a13 b63f
00000010: 2d77 833f 920e dc3f 80e6 903f 3ca5 a73f
00000020: 4068 803f ce2c 4a3f a853 d33f 683d 9e3f
00000030: 57e4 b93f a50e 983f b259 bf3f 3f58 a93f
00000040: 8d89 b53f 91ae 9f3f c801 ba3f a4da 973f
00000050: 201a 8a3f 3d61 b93f 606d a13f c8dc ae3f
00000060: 4b49 993f 9eab 903f f3d4 883f 3b0c ba3f
00000070: 2e2e 863f 53ed b93f 797a d53f 9419 e43f
1.9590062 1.1150635 1.1574155 1.4224675 1.0270745 1.7191947 1.1320343 1.30973
1.0031815 0.78974617 1.6509905 1.236249 1.4522809 1.1879469 1.4949248 1.3230056
1.4182602 1.2475148 1.4531794 1.1863599 1.0789223 1.44828 1.2611504 1.3661127
1.1975492 1.1302373 1.0689987 1.4534982 1.0482843 1.4525551 1.6678001 1.7820306

residual_blocks.1.bn2.bias f4 [32]
00000000: b249 99bf b150 31bf 3479 d2be f74b bbbe
00000010: 612a 44bf 9412 eabf 209d 183f 0c28 96bf
00000020: f7c2 9c3e 31a2 d2bf 5ded 56bf 5169 2fbe
00000030: afdc 20bf 011f b4bf eb94 22be f053 48bf
00000040: 5253 a2bc 9326 373d f47a aabe a9cc 65bf
00000050: 8f84 4bbf ae72 67bf b481 acbf 2197 7f3f
00000060: bc82 8ebe e2cb 5dbb 66db adbe f870 afbe
00000070: 5b8d 8bbe 34db cdbf bfe0 9bbf 3ccb f3bf
-1.1975615 -0.6926375 -0.41108096 -0.36581394 -0.76627165 -1.828692 0.59614754 -1.1730971
0.30617496 -1.6455747 -0.8395594 -0.17130019 -0.62836736 -1.4071962 -0.1587712 -0.7825308
-0.01981512 0.04471452 -0.3329693 -0.8976541 -0.79499143 -0.9040936 -1.3477082 0.9983998
-0.27834117 -0.0033843447 -0.3395645 -0.34265876 -0.27256283 -1.608252 -1.2177962 -1.9046397

residual_blocks.1.bn2.running_mean f4 [32]
00000000: 59f4 41c1 386b 0241 42bb 4fc1 ac1c d740
00000010: 0ac8 42bf 9faf d3c0 a81b b53f 9ac9 23bf
00000020: a72a e13f 96e9 e7c0 cc12 a341 c593 0041
00000030: 33ed 88c0 33ad 01c1 84d2 81bf 7779 50c0
00000040: f01d 8540 e173 2541 6a09 c5c0 64cc 15c1
00000050: 2544 c43f 826c 0e3f f2ad f6c0 7945 16c1
00000060: aa66 f040 effb 3a40 f252 5541 46ea af40
00000070: 7a54 8f40 6f74 5a41 cfaf 12c1 ec8b 6cc1
-12.122155 8.151176 -12.983217 6.72225 -0.76086485 -6.615188 1.4149065 -0.63979495
1.7591141 -7.247264 20.384178 8.036077 -4.278955 -8.104785 -1.0142369 -3.2574136
4.1599045 10.340791 -6.157399 -9.3624 1.5333296 0.5563432 -7.7087336 -9.391961
7.512532 2.9216268 13.33275 5.497348 4.479062 13.653426 -9.167922 -14.784161

residual_blocks.1.bn2.running_var f4 [32]
00000000: 42d9 5943 2d07 0643 a6d1 1743 d19f 2743
00000010: d8df 0043 33d0 1c43 6770 5043 fad9 1d43
00000020: 3ff6 2243 bc59 5b43 be2a 6a43 5cb4 3943
00000030: 0ef7 4343 7604 4b43 d70a 6d43 17d1 0943
00000040: 2e39 5543 a471 7543 6a1a 1f43 9536 5943
00000050: 9293 1543 ff32 0243 ebd3 0e43 1fcc 8243
00000060: 5bdd 2d43 75c0 5443 dcfa 5643 e99a 7543
00000070: 2f4c e642 a734 3043 ea1d 3343 6cc3 4643
217.84866 134.02803 151.81894 167.62428 128.87439 156.81328 208.43907 157.85147
162.9619 219.35052 234.16696 185.70453 195.96506 203.01743 237.04234 137.81676
213.22336 245.44391 159.10318 217.21321 149.57645 130.1992 142.8278 261.5947
173.86467 212.75179 214.97992 245.60512 115.148796 176.20567 179.11685 198.76337
