backend_engine/ml/models/session_1764582902/epoch_2_32ch_3resblocks.pth (torch, 299751 bytes, 39 tensors)

conv.weight f4 [32, 20, 3, 3]
-0.22255157 0.86074454 0.05111005 0.08540863 0.89290756 0.0045687663 -0.2045457 0.7403
-0.42843667 0.2449676 -0.49016708 0.48886192 -0.39129004 0.5122453 -0.5934465 -0.012066014
-0.7075735 -0.3342574 -0.25546345 0.65285885 0.44372448 0.10478097 0.6703995 -0.044468343
-0.34127128 0.8137472 -0.20388822 -0.17319356 0.53851956 0.07750776 0.26581416 1.4665775
-1.0223179 -0.065131344 -1.6168679 0.31406274 -0.88904566 0.9516126 0.2056902 -0.11975826
1.7080792 -0.463531 0.23734643 0.24967727 0.052149836 -1.0056436 0.24017625 -0.676504
-0.6370663 -0.5382971 -0.42132235 -0.44726893 0.22573169 0.07757876 0.2616472 -11.064827
0.01004374 0.6523085 -0.8667139 0.6482063 -0.39211568 -0.8062388 -0.5503749 0.034652647
-0.28742978 -0.6178897 2.2777839 -0.7730728 2.21575 -9.297692 -1.8988006 -0.37461
0.7053369 -1.4542065 -0.08240417 1.9382755 -1.0352478 2.0189934 -0.16512758 -4.5994077
0.15469947 -0.16788852 -1.5565746 -0.2902674 2.4331357 -3.754697 2.7195156 0.48977202
1.6738366 -0.9413977 0.49822614 -0.9476333 -0.32346293 2.4203925 -2.5840783 3.1696563
-0.024285734 1.4497727 -1.6927301 0.10100618 -0.9805969 -0.64815646 0.4661022 -1.2969646
-0.19401166 0.14069077 -2.2032628 0.05792877 0.14419302 0.68255395 0.34529886 0.30825806
1.5421125 0.7292457 -0.26049945 1.091163 -0.07326137 0.014374748 -0.2872945 -0.24286659
0.2899432 -0.049546555 -0.2854592 0.18606916 -0.12580132 -0.06624644 0.3091915 -0.062171776
-0.18350539 0.3488267 0.046051774 -0.13654104 0.0070927846 -0.19488634 -0.5935798 0.2041697
0.013709473 0.33926502 0.012011713 -0.23730831 -0.41468555 -0.014444701 -0.121894166 -0.104350604
0.16484557 0.03878326 0.07725682 0.07261885 -0.15789293 -0.13133511 0.11555677 -0.107660346
-0.26809704 -1.7127486 -1.6859478 -0.97807544 -0.7777442 -1.8313633 -0.87338907 -1.451681
-2.4238148 -2.6116893 -10.761277 -9.786955 -10.744917 -5.116892 -3.6654856 -5.321311
-4.6563973 -2.9852822 -4.0677257 -0.7339888 -0.37562048 -1.6182457 0.7182211 2.1209204
-0.10720777 -0.18316567 0.61345214 -1.374133 0.6473723 -0.6213369 -0.5188803 0.7450759
-0.6849102 -1.0136319 -0.43411803 -0.78831255 -1.1771961 0.8974494 0.53590536 -0.1346026
2.0518317 0.7323609 -0.55040276 2.5060675 -1.060194 0.48554856 -1.5863531 -1.7204351
2.0934205 -0.2637097 -1.0282499 0.05531447 -1.59155 -0.49259806 -1.015379 3.0042036
-1.0397687 -0.061352327 -1.0915582 -0.71477437 0.60536844 -0.43200853 0.6289203 3.0673132
-0.5138778 -1.3100656 0.82704204 -1.3747569 -0.57237697 0.57246304 -0.6186417 0.069200665
2.967359 0.2353332 1.4290178 3.028249 1.0948268 4.444165 4.7718086 0.60928035
2.3160737 3.0118303 -0.081050776 1.7580719 -1.323946 -0.29101074 -0.6321056 -0.55485004
1.0956296 -0.46302724 -1.976269 -0.6575869 -0.952045 0.69699097 -0.26575682 1.4990243
-0.053188905 0.47481236 -0.38584372 -1.2756584 10.46216 -0.8762224 -1.5022495 -0.29515457
00000000: 8fe4 63be c159 5c3f c658 513d b8ea ae3d
00000010: 9795 643f 97b5 953b 6e74 51be 4d84 3d3f
00000020: 0d5c dbbe c9d8 7a3e 2ef7 fabe 1c4c fa3e
00000030: 2b57 c8be 8222 033f 1cec 17bf 88b0 45bc
00000040: 8923 35bf c923 abbe 1bcc 82be c221 273f
00000050: db2f e33e 6897 d63d 4d9f 2b3f 7024 36bd
00000060: 1cbb aebe bd51 503f 13c8 50be a759 31be
00000070: 6bdc 093f 63bc 9e3d cb18 883e d0b8 bb3f
00000080: 50db 82bf 9563 85bd 87f5 cebf d5cc a03e
00000090: 7f98 63bf e29c 733f 74a0 523e d243 f5bd
000000a0: 57a2 da3f ef53 edbe f10a 733e 66ab 7f3e
000000b0: 119b 553d eeb8 80bf c3f0 753e 5e2f 2dbf
000000c0: c716 23bf d7cd 09bf 90b7 d7be 6f00 e5be
000000d0: 3526 673e 9de1 9e3d 9ff6 853e 8809 31c1
000000e0: 808e 243c b1fd 263f f6e0 5dbf d9f0 253f
000000f0: 63c3 c8be aa65 4ebf 5fe5 0cbf efef 0d3d
00000100: ff29 93be 052e 1ebf 36c7 1140 19e8 45bf
00000110: d9ce 0d40 59c3 14c1 e60b f3bf e2cc bfbe
00000120: f690 343f 7023 babf 84c3 a8bd 6919 f83f
00000130: 0083 84bf 3037 0140 3417 29be 592e 93c0
00000140: 8a69 1e3e f8ea 2bbe d63d c7bf ee9d 94be
00000150: 7fb8 1b40 f54c 70c0 8b0c 2e40 66c3 fa3e
00000160: 4740 d63f 71ff 70bf 7f17 ff3e 1998 72bf
00000170: ef9c a5be b6e7 1a40 8a61 25c0 a6db 4a40
00000180: e0f2 c6bc 2792 b93f 61ab d8bf 54dc ce3d
00000190: 6608 7bbf 95ed 25bf f3a4 ee3e f002 a6bf
000001a0: feaa 46be 3e11 103e 4202 0dc0 b846 6d3d
000001b0: 56a7 133e dbbb 2e3f 03cb b03e 00d4 9d3e
000001c0: f163 c53f d9af 3a3f 2f60 85be 3bab 8b3f
000001d0: 0f0a 96bd 1084 6b3c 4418 93be 05b2 78be
000001e0: 6f73 943e 54f1 4abd b527 92be ea88 3e3e
000001f0: 10d2 00be 37ac 87bd 594e 9e3e d5a7 7ebd
00000200: d6e8 3bbe 6a99 b23e c9a0 3c3d 6ad1 0bbe
00000210: 976a e83b 4990 47be d9f4 17bf dd11 513e
00000220: b39d 603c 25b4 ad3e c7cc 443c f300 73be
00000230: aa51 d4be 78a9 6cbc a6a3 f9bd c5b5 d5bd
00000240: 47cd 283e 32db 1e3d d338 9e3d 31b9 943d
00000250: afae 21be b67c 06be 07a9 ec3d 077d dcbd
00000260: 0444 89be 593b dbbf 23cd d7bf 2763 7abf
00000270: 3e1a 47bf 1d6a eabf 6d96 5fbf afd0 b9bf
00000280: c81f 1bc0 eb25 27c0 312e 2cc1 5e97 1cc1
00000290: 2eeb 2bc1 94bd a3c0 5197 6ac0 2e48 aac0
000002a0: 3501 95c0 dd0e 3fc0 cf2a 82c0 b1e6 3bbf
000002b0: 5451 c0be ad22 cfbf 57dd 373f 29bd 0740
000002c0: bf8f dbbd c88f 3bbe 330b 1d3f 97e3 afbf
000002d0: 31ba 253f ef0f 1fbf 57d5 04bf 4bbd 3e3f
000002e0: 4656 2fbf b1be 81bf b844 debe dace 49bf
000002f0: 5dae 96bf 3ebf 653f 1831 093f 44d5 09be
00000300: 3651 0340 017c 3b3f 32e7 0cbf 6963 2040
00000310: 70b4 87bf d299 f83e 9e0d cbbf 3837 dcbf
00000320: 9afa 0540 f504 87be b19d 83bf 6d91 623d
00000330: e9b7 cbbf d035 fcbe f0f7 81bf df44 4040
00000340: 2417 85bf 944c 7bbd 2eb8 8bbf 74fb 36bf
00000350: 6df9 1a3f 3930 ddbe ec00 213f dc4e 4440
00000360: 7f8d 03bf 3bb0 a7bf 07b9 533f 09f8 afbf
00000370: 4c87 12bf f08c 123f 4d5f 1ebf 14b9 8d3d
00000380: 36e9 3d40 30fb 703e 0eea b63f d5ce 4140
00000390: 4923 8c3f 9a36 8e40 a8b2 9840 ccf9 1b3f
000003a0: 8d3a 1440 d4c1 4040 f3fd a5bd 8008 e13f
000003b0: 1077 a9bf 5cff 94be acd1 21bf a70a 0ebf
000003c0: 973d 8c3f e811 edbe 62f6 fcbf 9d57 28bf
000003d0: 39b9 73bf 006e 323f 4711 88be 07e0 bf3f
000003e0: 9cdc 59bd 9b1a f33e 4f8d c5be c648 a3bf
000003f0: 0265 2741 1c50 60bf b649 c0bf 801e 97be

bn.weight f4 [32]
1.7938658 0.6369943 1.1361215 1.0503068 1.5319104 0.7018341 0.8594395 0.9685409
0.7776974 1.5713893 1.537052 0.8108227 1.1298807 0.74262834 0.55899304 0.8223764
0.7515249 1.4920964 0.70048684 1.5681434 1.3028538 0.7266919 0.70414984 0.62943786
0.81392276 0.6264406 1.1566285 1.1471142 0.7127948 0.7627389 0.7646347 0.64737755
00000000: 659d e53f 0f12 233f 6e6c 913f 7470 863f
00000010: a415 c43f 66ab 333f 3a04 5c3f 4cf2 773f
00000020: 2d17 473f 4923 c93f 1fbe c43f 1492 4f3f
00000030: ee9f 903f e41c 3e3f 2b1a 0f3f 4287 523f
00000040: f063 403f 04fd be3f 1b53 333f ecb8 c83f
00000050: eac3 a63f 7b08 3a3f 2a43 343f d722 213f
00000060: 3e5d 503f 695e 203f 670c 943f a3d4 923f
00000070: b879 363f db42 433f 1abf 433f 89ba 253f

bn.bias f4 [32]
-1.633214 0.47027662 0.7139704 0.9862752 -0.78474224 0.6658649 0.1484856 -0.62324554
0.2369948 4.15634 -1.1040192 0.6921522 -0.2383118 1.3385102 0.9082677 -0.11124111
0.8384533 -0.34600693 0.6547674 -0.23378426 2.3526695 0.95949227 -0.27585274 0.3623906
0.68026084 1.0581354 0.6978337 -0.71444595 1.9640421 -0.18124539 0.8634262 0.7098932
00000000: 280d d1bf 19c8 f03e c4c6 363f 887c 7c3f
00000010: dee4 48bf 1f76 2a3f 9c0c 183e 058d 1fbf
00000020: c4ae 723e bd00 8540 8050 8dbf e330 313f
00000030: 0208 74be 4d54 ab3f 3b84 683f 61d2 e3bd
00000040: e0a4 563f d227 b1be d69e 273f 2465 6fbe
00000050: 2392 1640 49a1 753f 923c 8dbe 438b b93e
00000060: 9325 2e3f fb70 873f 3ba5 323f eee5 36bf
00000070: bb65 fb3f 6498 39be 8009 5d3f 90bb 353f

bn.running_mean f4 [32]
-0.31198445 -0.40964875 -2.11787 -0.10260283 -7.751999 2.2286181 -0.9275249 -0.19581619
1.2464418 0.007011282 0.235563 -0.89668065 -0.13929717 0.6433081 -0.08356954 0.6841136
-3.3764133 -2.4662154 -0.29490915 1.2678769 0.58032185 -1.3059392 1.5997819 -0.18160766
-1.4393344 0.002608231 0.03548685 0.65920603 -0.64215136 -1.7747844 -0.52605146 1.2671384
00000000: 6dbc 9fbe 7bbd d1be 2f8b 07c0 6f21 d2bd
00000010: 6010 f8c0 aea1 0e40 4672 6dbf 0a84 48be
00000020: 688b 9f3f e5be e53b 6d37 713e dd8c 65bf
00000030: eba3 0ebe d7af 243f 8226 abbd 1222 2f3f
00000040: 2817 58c0 79d6 1dc0 55fe 96be ca49 a23f
00000050: f98f 143f 0429 a7bf a7c5 cc3f 5cf7 39be
00000060: 1c3c b8bf dbee 2a3b a95a 113d bac1 283f
00000070: 0864 24bf 232c e3bf 4fab 06bf 9731 a23f

bn.running_var f4 [32]
20.034836 5.9668083 28.68882 10.845617 50.988396 7.420385 14.30036 10.30411
5.0605845 26.669567 12.111208 9.845278 5.1422787 7.8504543 6.748388 5.1457796
12.873573 26.710426 11.575699 13.327656 20.953152 7.2878957 8.445885 6.175709
13.816387 7.761655 19.439802 13.816603 6.063444 8.700472 6.197235 5.4226074
00000000: 5847 a041 18f0 be40 b482 e541 a687 2d41
00000010: 1ef4 4b42 cb73 ed40 46ce 6441 a2dd 2441
00000020: 4ff0 a140 465b d541 82c7 4141 4286 1d41
00000030: 8c8d a440 ec36 fb40 cbf2 d740 3aaa a440
00000040: 28fa 4d41 f4ae d541 1036 3941 143e 5541
00000050: 0ea0 a741 7136 e940 5822 0741 689f c540
00000060: ec0f 5d41 7a5f f840 b784 9b41 ce10 5d41
00000070: bc07 c240 2235 0b41 c04f c640 0086 ad40

residual_blocks.0.conv1.weight f4 [32, 32, 3, 3]
0.71761984 0.7202161 -0.16777208 -1.4949186 -0.6302722 -1.4657497 -1.1798521 1.1404964
-2.3935876 -0.6365366 0.30375102 -0.5213853 0.31031442 1.2945737 -0.23340891 -3.2567322
1.7701274 -0.3197942 0.4607877 0.43640444 1.6263251 -1.0865982 0.9780554 0.23909858
-0.95223117 1.6403074 1.9829459 2.3986952 -0.3801376 0.86480856 0.01860159 -2.8811648
-1.5068158 -1.3946939 -1.1113795 -0.07992126 -1.0816426 -0.3345692 -1.6620859 -1.5519739
-0.7556732 -1.5178027 -0.3918716 0.0036210776 -0.60121375 0.6561683 0.61501193 -0.23124024
-1.8860563 -0.88684046 0.9305218 -0.9186868 0.23385842 -1.425117 0.4059278 -0.06385733
-0.027524158 0.647191 -1.1219561 -1.2209103 -0.4482087 1.3743185 -1.6039139 -0.8195894
0.1937885 -0.76294225 0.28413814 -0.7058057 -1.9904553 2.5073075 1.5645647 -0.98805064
-0.9469042 0.7781929 -0.9823362 1.8464437 -1.594339 -0.6104165 2.8979475 -1.1727064
-0.15376852 0.36248085 -0.9728256 -0.4712097 0.29762587 -0.10677243 -0.3018737 2.9222429
3.186147 2.800572 -1.0544453 0.4647627 2.0618324 1.0002625 -0.018292377 0.81218606
-0.71935046 0.6976636 1.9757292 0.47786283 0.64428425 0.5916233 -1.3000497 -0.16613527
-1.3424816 1.8348286 2.2336805 -0.27388784 0.61440015 1.687537 0.124602705 -0.7320471
1.7422429 -0.302194 -1.0660459 -2.0108938 0.034395903 -0.36903313 1.1479985 -0.43181175
-1.0418822 0.10439654 0.50866723 4.124105 0.15650573 2.7498794 0.18171975 1.2611574
-1.1048546 0.6966067 1.3367736 -0.77263373 1.4095148 0.32432047 -0.8225815 -0.4573762
1.6909536 0.6081593 0.04611111 2.0592434 0.6598005 1.4560945 0.60153484 0.07452386
-0.51682895 1.6037401 0.43004426 -0.07367033 1.7948346 0.5080068 1.3186178 2.867298
1.2184048 0.39158544 -1.8887124 -0.6358076 -0.023106407 -1.322641 1.1858275 -0.6066419
-0.24579474 -0.16942123 0.3172603 0.41868865 0.23203506 -0.31182355 1.0969553 0.016485179
0.35679552 0.4920665 1.2318715 -1.2345321 -0.43567556 -1.1564118 -0.9211898 -0.59466875
-0.2681403 0.6898584 -0.89896464 -1.2200017 -0.61140496 0.23062259 -0.74926513 -1.5587038
1.334496 -0.586415 -1.7053558 0.0014208313 -0.0389953 1.484553 1.2247951 0.14034441
-1.5513263 -0.82377577 -0.5688479 -3.705 1.5548483 -1.2059814 1.0081682 0.14471346
-0.83838123 -0.35432371 0.20630428 -0.05730043 1.3681877 -0.35620037 1.6236396 -0.6255832
0.9197431 -2.2033038 -1.2248975 -0.4176262 0.36902183 2.934196 -0.1469606 -1.566247
0.28927177 -0.38841796 -1.26181 -0.39153406 2.054177 -0.10530585 1.1742767 0.14767843
2.050108 0.052246336 -0.6130113 1.039228 -2.0541146 -0.78733194 -1.441561 -2.4247768
1.6408149 -0.25095278 0.20590138 0.12915668 1.19598 -0.75790673 -1.126451 -0.9011481
-1.5288426 0.15275401 0.0070497217 -1.1438174 1.0866855 -1.5998483 -0.14653493 -0.2894269
1.7483488 0.63087505 0.5018244 -2.2312088 1.4733607 -1.1010838 1.2310985 -0.5654495
00000000: efb5 373f 1560 383f 72cc 2bbe 7e59 bfbf
00000010: 8559 21bf b09d bbbf 6505 97bf c9fb 913f
00000020: 8a30 19c0 10f4 22bf 4185 9b3e 8279 05bf
00000030: 88e1 9e3e 97b4 a53f bf02 6fbe 4d6e 50c0
00000040: 8993 e23f 11bc a3be 5eec eb3e 6770 df3e
00000050: 6c2b d03f a615 8bbf d761 7a3f 42d6 743e
00000060: 6cc5 73bf 98f5 d13f 2cd1 fd3f 3984 1940
00000070: 65a1 c2be 1864 5d3f 5d62 983c 0165 38c0
00000080: 57df c0bf 5485 b2bf af41 8ebf c2ad a3bd
00000090: 4473 8abf a74c abbe 3bbf d4bf 15a7 c6bf
000000a0: cd73 41bf 5c47 c2bf 65a3 c8be 9a4f 6d3b
000000b0: 25e9 19bf a5fa 273f 6c71 1d3f 3eca 6cbe
000000c0: 4b6a f1bf fa07 63bf ad36 6e3f 0f2f 6bbf
000000d0: 9578 6f3e 3c6a b6bf c5d5 cf3e a2c7 82bd
000000e0: 587a e1bc 4fae 253f 429c 8fbf ca46 9cbf
000000f0: 9c7b e5be abe9 af3f 0d4d cdbf 9cd0 51bf
00000100: 7e70 463e 2f50 43bf 8e7a 913e afaf 34bf
00000110: 3dc7 febf ba77 2040 a843 c83f e3f0 7cbf
00000120: 5068 72bf a637 473f 637a 7bbf 4458 ec3f
00000130: 4d13 ccbf 4144 1cbf f977 3940 3e1b 96bf
00000140: 7f75 1dbe 1797 b93e 190b 79bf 6642 f1be
00000150: 6b62 983e 81ab dabd 318f 9abe 0706 3b40
00000160: d5e9 4b40 923c 3340 10f8 86bf 60f5 ed3e
00000170: 10f5 0340 9a08 803f e5d9 95bc 6deb 4f3f
00000180: 5a27 38bf 159a 323f b2e4 fc3f 70aa f43e
00000190: d0ef 243f a074 173f 0768 a6bf 5d1f 2abe
000001a0: 70d6 abbf aadb ea3f 9ff4 0e40 073b 8cbe
000001b0: 5449 1d3f 3601 d83f b42f ff3d 7067 3bbf
000001c0: d101 df3f 2cb9 9abe 3174 88bf 7cb2 00c0
000001d0: b8e2 0c3d e9f1 bcbe 9df1 923f 6e16 ddbe
000001e0: 655c 85bf dacd d53d 0438 023f abf8 8340
000001f0: 0a43 203e 06fe 2f40 be14 3a3e 9b6d a13f
00000200: e06b 8dbf d154 323f 661b ab3f 53cb 45bf
00000210: fb6a b43f 550d a63e b494 52bf 372d eabe
00000220: 2b71 d83f 54b0 1b3f 01df 3c3d a5ca 0340
00000230: b0e8 283f 4e61 ba3f 30fe 193f f79f 983d
00000240: e74e 04bf 5b47 cd3f c32e dc3e 78e0 96bd
00000250: 24bd e53f bc0c 023f 78c8 a83f cf81 3740
00000260: b0f4 9b3f e37d c83e 54c1 f1bf 49c4 22bf
00000270: a649 bdbc 4d4c a9bf 32c9 973f e24c 1bbf
00000280: 9eb1 7bbe c27c 2dbe f16f a23e 5c5e d63e
00000290: 999a 6d3e 56a7 9fbe 0869 8c3f ed0b 873c
000002a0: e7ad b63e 24f0 fb3e f7ad 9d3f 2605 9ebf
000002b0: de10 dfbe 4d05 94bf 18d3 6bbf 363c 18bf
000002c0: af49 89be 8f9a 303f 8c22 66bf 0429 9cbf
000002d0: 0985 1cbf 5428 6c3e d7cf 3fbf 9b83 c7bf
000002e0: c4d0 aa3f 4b1f 16bf 1949 dabf 303b ba3a
000002f0: 89b9 1fbd d505 be3f 16c6 9c3f 72b6 0f3e
00000300: dc91 c6bf f8e2 52bf 04a0 11bf b81e 6dc0
00000310: 4505 c73f 995d 9abf a80b 813f c42f 143e
00000320: 27a0 56bf eb69 b5be 6e41 533e dbb3 6abd
00000330: c620 af3f e55f b6be 6cd3 cf3f 3826 20bf
00000340: 4974 6b3f ee02 0dc0 71c9 9cbf 1ad3 d5be
00000350: 6ef0 bc3e dec9 3b40 d77c 16be c87a c8bf
00000360: 6e1b 943e b8de c6be fd82 a1bf 2777 c8be
00000370: a377 0340 98aa d7bd b34e 963f 0439 173e
00000380: f834 0340 4100 563d 4fee 1cbf 6c05 853f
00000390: 9d76 03c0 968e 49bf 1285 b8bf 8b2f 1bc0
000003a0: 3906 d23f e27c 80be d0d7 523e a641 043e
000003b0: df15 993f 2d06 42bf 8c2f 90bf a4b1 66bf
000003c0: 1db1 c3bf 8c6b 1c3e 5a01 e73b 9c68 92bf
000003d0: 8318 8b3f d4c7 ccbf 410d 16be c32f 94be
000003e0: e5c9 df3f 0781 213f 9077 003f 20cc 0ec0
000003f0: 1597 bc3f 50f0 8cbf a394 9d3f 4cc1 10bf

residual_blocks.0.bn1.weight f4 [32]
1.6451277 1.6149619 1.047922 1.9898351 1.4773712 1.3355912 1.5237012 1.0823387
2.5658145 3.2205207 2.0731015 0.9782326 2.0551443 1.1814597 1.5387799 2.242346
1.4228014 0.9905588 1.151262 2.3058782 0.9112527 1.1511048 1.4411575 2.0291219
1.6839435 1.6748868 1.7549045 0.99954927 2.07084 1.4813416 0.9967024 2.0007699
00000000: 8b93 d23f 12b7 ce3f 4f22 863f ebb2 fe3f
00000010: 801a bd3f a7f4 aa3f a408 c33f 138a 8a3f
00000020: 4e36 2440 031d 4e40 b2ad 0440 746d 7a3f
00000030: 7c87 0340 123a 973f bdf6 c43f 9982 0f40
00000040: 5b1e b63f 4395 7d3f 8e5c 933f 8293 1340
00000050: db47 693f 6757 933f d977 b83f 22dd 0140
00000060: 768b d73f b162 d63f b6a0 e03f 76e2 7f3f
00000070: a488 0440 9a9c bd3f e327 7f3f 9d0c 0040

residual_blocks.0.bn1.bias f4 [32]
1.2573577 1.1642427 0.7572541 -1.4428042 -0.16675262 0.108658284 -1.0246269 0.14627564
-1.5489734 -2.9281135 -0.43346715 0.29651812 -0.36271727 -0.69924283 0.060174637 -1.0736232
-0.5241915 0.21479443 0.7706167 -0.42755765 -0.252733 -0.16967122 -0.13579908 0.51801383
0.084958695 -0.80020326 -0.45545107 0.18874587 -0.23057553 -0.16564128 1.2683947 -1.6621342
00000000: 19f1 a03f e805 953f 68db 413f cfad b8bf
00000010: 33c1 2abe 3c88 de3d f926 83bf 48c9 153e
00000020: c344 c6bf 3666 3bc0 68ef ddbe 39d1 973e
00000030: 14b6 b9be 9401 33bf ae79 763d 7c6c 89bf
00000040: 6a31 06bf 12f3 5b3e 2347 453f d6e8 dabe
00000050: 3866 81be 4bbe 2dbe ea0e 0bbe 8e9c 043f
00000060: d3fe ad3d 1fda 4cbf e230 e9be 9946 413e
00000070: fe1b 6cbe de9d 29be c25a a23f d0c0 d4bf

residual_blocks.0.bn1.running_mean f4 [32]
35.313484 17.473228 25.207079 -21.318666 12.471976 -9.048384 -4.3899217 3.260727
-19.567598 -6.123737 -17.139751 -7.5856285 -59.180992 14.584889 4.5294447 1.5277431
9.264573 -27.73976 2.629226 -45.61344 -10.772255 8.865694 -8.589475 40.71189
0.90413874 -39.323647 53.157673 7.6391125 -40.15856 -2.1405826 24.007984 -25.739616
00000000: 0241 0d42 2cc9 8b41 19a8 c941 a18c aac1
00000010: 378d 4741 2ec6 10c1 3d7a 8cc0 c0af 5040
00000020: 718a 9cc1 a7f5 c3c0 361e 89c1 78bd f2c0
00000030: 56b9 6cc2 b55b 6941 36f1 9040 168d c33f
00000040: b13b 1441 07eb ddc1 3d45 2840 2a74 36c2
00000050: 285b 2cc1 e2d9 0d41 7d6e 09c1 fad8 2242
00000060: a375 673f 6a4b 1dc2 75a1 5442 9c73 f440
00000070: 5ea2 20c2 4eff 08c0 5a10 c041 bcea cdc1

residual_blocks.0.bn1.running_var f4 [32]
584.0006 407.1976 267.37283 287.78363 368.50714 294.69003 322.25845 238.66966
379.43976 223.91888 318.1671 270.9348 398.92996 249.12701 639.4277 375.69736
300.42493 225.01001 535.343 770.1795 157.18736 187.94644 347.43027 666.8927
269.4307 314.5486 855.18353 235.16034 714.26117 241.73575 312.9687 272.19174
00000000: 0a00 1244 4b99 cb43 b9af 8543 4ee4 8f43
00000010: ea40 b843 5358 9343 1521 a143 6fab 6e43
00000020: 4ab8 bd43 3ceb 5f43 6415 9f43 a877 8743
00000030: 0977 c743 8420 7943 5fdb 1f44 43d9 bb43
00000040: 6436 9643 9002 6143 f4d5 0544 7d8b 4044
00000050: f72f 1d43 4af2 3b43 13b7 ad43 22b9 2644
00000060: 21b7 8643 3946 9d43 bfcb 5544 0c29 6b43
00000070: b790 3244 5abc 7143 fe7b 9c43 8b18 8843

residual_blocks.0.conv2.weight f4 [32, 32, 3, 3]
-0.7511298 -1.4217192 -1.5788261 -0.5005286 0.3941446 -1.5218383 0.42964798 0.8549354
0.035709467 0.005225085 -1.3966662 0.0013163087 1.6238936 0.4056347 -1.3447201 0.12605396
-0.5054591 0.12267563 1.0377512 -1.2485662 1.0767365 -0.45792314 1.2426201 -0.42696488
-0.61378264 1.2288336 -0.6759899 -0.16872028 -1.4022588 -0.9735946 1.0951891 1.9163946
0.93155205 -0.6721447 -2.297702 0.37838292 -0.24390848 -0.26517567 -1.1472343 0.6774699
-0.9196501 -1.9764398 1.4542359 0.11809197 1.5115997 -0.8527311 0.8153107 -0.46690166
-0.77555823 -0.1816877 0.24505919 0.73185337 1.06106 2.114834 -0.04493029 -2.262691
0.24352783 -0.43795788 0.25677317 0.18556654 -0.10376293 0.00925925 0.27853984 0.4643157
0.754288 0.35267237 -0.5623889 0.53819126 0.5277825 0.3847056 -0.105144806 -0.042999655
0.2335134 -1.1209387 0.06919673 -0.088829085 -0.89281297 0.36001068 -0.20287547 -0.9747094
-0.4168935 -1.5204059 -2.36612 -0.2662778 -8.120219 -8.672842 -11.160265 0.22121996
-7.434204 -0.4120514 -1.2299974 1.1279411 0.040350594 -1.4425151 0.43071198 0.26621908
-0.8543602 1.4273806 -1.1797078 -0.13307287 0.05457715 -0.20057958 -0.7840646 -0.1446106
-0.34655485 -0.65047264 -2.4860942 0.019774823 1.0387517 0.9625733 0.48325783 1.812475
1.145713 -0.19180453 1.0174934 -0.29307932 -0.04332684 -0.2084218 -1.3718301 -0.5999971
-0.7007037 0.069868475 0.25001708 0.08559962 -0.3050512 -0.5390829 0.026232364 -1.622912
-0.079963416 -0.70938426 -0.22741231 -1.3379151 -0.26278725 -1.2682593 -0.43468738 0.2778542
-1.2863185 0.47130853 0.092067756 -1.3853197 0.4386959 -0.2900091 0.19158976 -0.38289618
0.19713344 -0.007144069 0.30186206 0.54077315 0.3047595 -0.93377656 -0.78401595 0.5388011
-0.029885044 0.0940661 0.1543839 0.95960057 -0.13544732 2.06228 -0.27266237 -0.74523115
1.3956525 0.56558496 0.38720414 -0.027841436 2.4745193 -1.3661857 -0.6585084 -1.0946718
-0.4190599 0.6366156 0.10168224 0.055193122 -0.2459144 -0.13331284 -1.1351461 -0.6072129
-0.6783841 -0.7789722 -0.058700416 -1.575505 -1.0578964 1.4505442 0.5104421 -1.1053975
-0.5108268 2.130072 0.9771286 -2.252403 0.40378562 -1.001291 0.16210929 0.7341144
-0.41218558 1.6290218 -0.4736164 0.0778504 -0.6440112 2.074234 0.2051357 -0.35933614
0.48903918 0.43482953 1.0595535 0.4013011 0.1923045 1.613013 1.09298 0.8839338
0.42853564 0.112369835 -0.51248133 0.047078572 1.0444757 -0.12025459 0.5919815 -0.30950695
-0.24236903 -0.4401258 -0.5182467 -1.8022177 0.56138587 0.64141583 -0.12348798 1.1886456
0.2595209 -0.9498048 -0.81907874 0.025118776 -1.3387526 1.3827782 -0.15332308 -0.4092234
-0.15451016 -0.79161406 -1.028248 -1.042564 -0.20549917 0.60997057 1.262542 0.11449498
-0.5908898 -0.20286174 -1.0710306 -0.29474524 1.6874294 0.026702503 -1.3055844 -0.07364631
-0.2678923 -0.4824532 -0.9732315 0.18726234 0.3267256 -1.6590493 0.6990609 -0.095091656
00000000: 0b4a 40bf e5fa b5bf f916 cabf a422 00bf
00000010: 52cd c93e 99cb c2bf d2fa db3e 0cdd 5a3f
00000020: 1744 123d 3137 ab3b f5c5 b2bf fe87 ac3a
00000030: bfdb cf3f 5aaf cf3e ca1f acbf 4a14 013e
00000040: c465 01bf 5c3d fb3d 08d5 843f 04d1 9fbf
00000050: 80d2 893f e774 eabe 2d0e 9f3f 249b dabe
00000060: dc20 1dbf 6b4a 9d3f ad0d 2dbf 02c5 2cbe
00000070: 377d b3bf 7f3d 79bf 282f 8c3f 6b4c f53f
00000080: 327a 6e3f ad11 2cbf 8d0d 13c0 68bb c13e
00000090: 25c3 79be 1bc5 87be 93d8 92bf ab6e 2d3f
000000a0: 306e 6bbf fbfb fcbf 6724 ba3f 34da f13d
000000b0: 197c c13f 964c 5abf 34b8 503f bc0d efbe
000000c0: fc8a 46bf 570c 3abe ccf0 7a3e be5a 3b3f
000000d0: d0d0 873f 7159 0740 d308 38bd eecf 10c0
000000e0: 5c5f 793e 043c e0be c677 833e 2805 3e3e
000000f0: a981 d4bd 1cb4 173c c69c 8e3e caba ed3e
00000100: 0519 413f 7991 b43e b8f8 0fbf e7c6 093f
00000110: c11c 073f 22f8 c43e 2956 d7bd 6820 30bd
00000120: 231e 6f3e eb7a 8fbf 04b7 8d3d 06ec b5bd
00000130: 648f 64bf 5253 b83e 96be 4fbe 8e86 79bf
00000140: 1173 d5be a99c c2bf 836e 17c0 9055 88be
00000150: 6bec 01c1 f6c3 0ac1 7290 32c1 7c87 623e
00000160: 00e5 edc0 67f8 d2be 8e70 9dbf 6060 903f
00000170: aa46 253d 56a4 b8bf 4886 dc3e de4d 883e
00000180: 5ab7 5abf 68b4 b63f aa00 97bf 4144 08be
00000190: 4a8c 5f3d bc64 4dbe 75b8 48bf cd14 14be
000001a0: a36f b1be 6085 26bf 2b1c 1fc0 cffe a13c
000001b0: d1f5 843f 346b 763f 926d f73e 2eff e73f
000001c0: b9a6 923f 6868 44be 393d 823f 7e0e 96be
000001d0: 7c77 31bd 866c 55be 2198 afbf 6999 19bf
000001e0: 5161 33bf 3417 8f3d 3d02 803e db4e af3d
000001f0: ac2f 9cbe 5601 0abf 41e5 d63c 95bb cfbf
00000200: dcc3 a3bd 359a 35bf c6de 68be cd40 abbf
00000210: 0d8c 86be 5256 a2bf 588f debe e842 8e3e
00000220: 16a6 a4bf 5a4f f13e 058e bc3d 2852 b1bf
00000230: c09c e03e 137c 94be 1b30 443e f80a c4be
00000240: 59dd 493e cb18 eabb aa8d 9a3e 1c70 0a3f
00000250: 7009 9c3e fb0b 6fbf 45b5 48bf deee 093f
00000260: 7bd1 f4bc baa5 c03d d016 1e3e 62a8 753f
00000270: b4b2 0abe 65fc 0340 679a 8bbe 78c7 3ebf
00000280: bea4 b23f 2dca 103f 9f3f c63e b913 e4bc
00000290: 865e 1e40 2cdf aebf 0294 28bf 351e 8cbf
000002a0: 058f d6be 3df9 223f c73e d03d 2f12 623d
000002b0: fcd0 7bbe 2983 08be 784c 91bf 4e72 1bbf
000002c0: 95aa 2dbf b96a 47bf d96f 70bd 26aa c9bf
000002d0: 2669 87bf 6fab b93f 55ac 023f aa7d 8dbf
000002e0: 8cc5 02bf 1a53 0840 1a25 7a3f 5f27 10c0
000002f0: fdbc ce3e 4e2a 80bf faff 253e ecee 3b3f
00000300: fd09 d3be c983 d03f d97d f2be 0870 9f3d
00000310: ebdd 24bf 40c0 0440 180f 523e e8fa b7be
00000320: 5863 fa3e faa1 de3e 739f 873f 5677 cd3e
00000330: 79eb 443e 3677 ce3f c5e6 8b3f 7c49 623f
00000340: 0669 db3e 2822 e63d fa31 03bf 76d5 403d
00000350: 61b1 853f 0a48 f6bd 198c 173f b277 9ebe
00000360: 962f 78be 2b58 e1be d1ab 04bf 12af e6bf
00000370: fcb6 0f3f d433 243f 44e7 fcbd 8a25 983f
00000380: ecdf 843e 6826 73bf 25af 51bf e4c5 cd3c
00000390: 3f5c abbf e0fe b03f ba00 1dbe bb85 d1be
000003a0: e937 1ebe 38a7 4abf a19d 83bf bd72 85bf
000003b0: 606e 52be 0827 1c3f fa9a a13f 587c ea3d
000003c0: 8e44 17bf fdba 4fbe 8817 89bf d9e8 96be
000003d0: b0fd d73f 35bf da3c 641d a7bf e0d3 96bd
000003e0: 2e29 89be 1b04 f7be b325 79bf b3c1 3f3e
000003f0: 9448 a73e ba5b d4bf a8f5 323f 6abf c2bd

residual_blocks.0.bn2.weight f4 [32]
2.068954 1.266722 1.655793 1.2085718 2.0559251 1.1796687 1.0717653 1.4837756
1.367607 1.003367 1.5848912 0.95511156 1.1501145 1.3852751 1.0996088 1.133295
0.92467123 1.0167556 1.0134693 1.708458 0.92983633 1.1429123 1.037867 1.327329
1.1351161 1.1030213 1.0510364 1.904811 1.1856011 1.5187432 1.1879612 1.2774913
00000000: be69 0440 f223 a23f 06f1 d33f 7bb2 9a3f
00000010: 4794 0340 62ff 963f 9b2f 893f 5cec bd3f
00000020: bf0d af3f 546e 803f b7dd ca3f 3182 743f
00000030: f436 933f b250 b13f fbbf 8c3f d00f 913f
00000040: 41b7 6c3f 0c25 823f 5db9 813f c0ae da3f
00000050: c109 6e3f f34a 923f d3d8 843f ebe5 a93f
00000060: 7c4b 913f cd2f 8d3f 5c88 863f d9d0 f33f
00000070: c7c1 973f 2d66 c23f 1d0f 983f d684 a33f

residual_blocks.0.bn2.bias f4 [32]
-1.6787796 -0.8313054 -0.551839 -1.0249952 -0.047796164 -0.45929682 0.58179057 -0.041696563
1.2875472 -1.1842712 -1.343118 -0.29423523 -0.5500286 -0.19624007 0.14104882 -0.084567465
0.17366335 0.21182093 -0.31013387 -0.8685917 -1.8335141 -0.14533757 0.06438462 1.6729227
0.09365749 -0.49967846 -0.59215784 -0.56516546 -0.019599617 -0.97466284 -0.27044898 -0.87100905
00000000: 40e2 d6bf 6ed0 54bf 5245 0dbf 0b33 83bf
00000010: e9c5 43bd f428 ebbe 3af0 143f 04ca 2abd
00000020: 59ce a43f 3396 97bf 4aeb abbf 00a6 96be
00000030: adce 0cbf 28f3 48be 1a6f 103e b531 adbd
00000040: ced4 313e 96e7 583e dec9 9ebe 075c 5ebf
00000050: 97b0 eabf 5fd3 14be 15dc 833d 5522 d63f
00000060: 80cf bf3d dbd5 ffbe a897 17bf afae 10bf
00000070: 608f a0bc 8183 79bf 4a78 8abe 73fa 5ebf

residual_blocks.0.bn2.running_mean f4 [32]
-26.731255 -13.983056 -33.044365 -19.053217 -23.55899 1.0217489 0.41511828 -12.523446
-1.36822 -1.2464842 -16.140465 7.06007 -10.985382 -6.9266067 19.21757 -8.130996
-19.471375 -13.519831 -14.066808 -26.952925 -25.419512 -6.2181053 11.985777 26.139748
-11.759999 -5.3586597 -11.767815 -10.476729 -13.331263 -8.97966 -18.055038 3.0138001
00000000: 9cd9 d5c1 99ba 5fc1 6e2d 04c2 fd6c 98c1
00000010: d078 bcc1 abc8 823f 628a d43e 0960 48c1
00000020: d521 afbf cb8c 9fbf ac1f 81c1 18ec e140
00000030: 20c4 2fc1 c3a6 ddc0 95bd 9941 8f18 02c1
00000040: 60c5 9bc1 3a51 58c1 a511 61c1 979f d7c1
00000050: 295b cbc1 b8fa c6c0 bec5 3f41 341e d141
00000060: f528 3cc1 247a abc0 f848 3cc1 afa0 27c1
00000070: da4c 55c1 b0ac 0fc1 b870 90c1 1ae2 4040

residual_blocks.0.bn2.running_var f4 [32]
390.09665 305.87775 711.18787 373.3438 1198.0281 351.509 362.13165 539.1525
389.30447 493.3285 440.04517 310.94485 301.08182 484.81363 390.73688 375.28195
298.00082 882.4124 294.4449 522.79285 622.0448 333.61462 292.77368 906.9668
343.8927 284.91125 439.5296 632.50183 450.88113 343.70267 485.3907 283.03665
00000000: 5f0c c343 5af0 9843 06cc 3144 02ac ba43
00000010: e6c0 9544 27c1 af43 da10 b543 c3c9 0644
00000020: f9a6 c243 0caa f643 c805 dc43 f178 9b43
00000030: 798a 9643 2568 f243 525e c343 17a4 bb43
00000040: 1b00 9543 659a 5c44 f238 9343 beb2 0244
00000050: de82 1b44 acce a643 0863 9243 e0bd 6244
00000060: 44f2 ab43 a474 8e43 cac3 db43 1e20 1e44
00000070: c970 e143 f1d9 ab43 02b2 f243 b184 8d43

residual_blocks.1.conv1.weight f4 [32, 32, 3, 3]
3.561578 4.4838753 1.8678144 3.2074127 2.0258806 1.8679668 0.31157336 -0.5250549
0.6514644 -0.79973155 -0.43264976 -0.0748169 0.10228021 1.3843458 0.7952783 -0.7213774
-1.0324601 1.0054952 1.782448 -1.6648437 -2.0070899 -0.067074805 -3.1052642 -0.6698655
-0.51317644 -2.6838098 -2.36402 -0.52661973 1.0675545 0.81237525 -0.02147356 -0.6474047
0.42145744 -0.6603422 0.4374181 0.5176208 2.176611 1.2278553 0.270814 -0.15165073
-0.93796486 -1.12322 -0.5197146 -0.9445383 0.42105594 0.34778064 2.1093903 -2.0978107
1.66811 -2.306774 1.1301227 2.5278366 -0.4960275 -0.2712799 -2.2473166 0.7151755
0.6438111 -1.7114284 -1.0160599 0.26131004 -0.30132878 1.4815588 0.022033049 -1.153425
-2.5350742 -1.834643 -0.71308047 -0.94742215 -0.39955637 -0.9170651 -1.3683652 -2.3130596
2.8810403 -0.60863924 -0.3241925 -0.577283 0.8107214 0.63464767 -1.7556962 0.35360956
-0.0034479136 -0.36728635 0.4687066 -0.3949326 0.76656586 0.64389044 0.7935016 0.47967488
-0.31769717 0.29433477 -1.1632057 1.0457004 1.078157 1.2300934 -2.6120288 1.9141388
0.049085557 -0.50484484 -0.48744553 2.3413842 0.5397396 -0.9864987 -0.9121411 -0.8730975
-0.97486573 -0.094416656 -2.6376858 -2.1257572 -1.795198 -0.22541818 0.757317 0.051265758
-0.34309176 0.108389415 0.48143503 1.8877963 1.9522383 2.9703786 -0.41752273 0.19060141
0.43614966 2.0505717 -0.3015557 -0.4724304 -0.31309116 1.2856125 -0.81715673 -0.6747574
2.0868032 -1.6814669 -2.037213 1.5226238 0.9983174 -0.20974785 0.5509988 1.3280786
-0.2113727 -0.6466941 0.621567 -0.061006688 0.36886764 -1.9040318 0.29219323 1.2298547
-3.0263324 1.5535038 1.9451593 -0.08789518 -0.77227175 0.3978124 0.8126428 -0.48280352
-0.7042244 1.4461515 1.2059741 0.450428 -0.16342954 -1.5792768 -2.5246484 -2.4275165
-0.98278433 -0.73423636 0.17454539 2.0904522 4.8762636 -1.076365 1.0278174 -0.8705274
0.979883 1.1484865 0.96694654 -1.7977854 -1.6050154 -1.1676857 -0.098016046 -2.6404665
1.844404 0.21023263 -0.37030405 -1.6860901 -0.75711405 4.0891685 0.35185996 2.149957
2.615544 1.3922575 1.5813899 1.6598604 2.2682717 -1.1033245 -1.0906795 -0.6379225
0.47370136 1.0162681 0.5693305 0.7378293 -0.23053998 -0.94380444 0.3730656 0.6172445
1.4619449 0.39451456 1.1769516 1.0220606 0.49381736 0.9807304 -0.18632466 0.24424635
0.26633623 0.32203296 0.31071517 1.073073 -1.2588195 0.602284 0.105117634 -0.22115308
-0.72422636 0.8186791 -0.4298261 -0.19425143 0.85004985 0.5036959 0.74234927 1.9867628
0.5306255 -0.656736 -2.6608183 -0.087516576 -0.5512211 -0.57686013 -1.5622962 -1.093077
-1.8659254 -1.4829984 0.5180801 -0.4599303 1.4372617 -0.62592506 -0.26661545 0.5785275
-1.4925638 -1.6472559 -0.19912149 -0.43860692 1.3782542 -0.50137836 0.5572777 1.8984443
0.5421031 0.12626739 -0.78049356 -0.9160767 -1.4710729 0.38078347 1.4752454 0.093771964
00000000: e5f0 6340 e87b 8f40 8b14 ef3f 4046 4d40
00000010: 07a8 0140 8919 ef3f 8b86 9f3e ff69 06bf
00000020: 5fc6 263f 35bb 4cbf 4584 ddbe 9a39 99bd
00000030: 4978 d13d 3e32 b13f 5c97 4b3f 30ac 38bf
00000040: a727 84bf 11b4 803f 4227 e43f 9919 d5bf
00000050: 2974 00c0 845e 89bd a6bc 46c0 4e7c 2bbf
00000060: 885f 03bf 8ac3 2bc0 1b4c 17c0 8dd0 06bf
00000070: a0a5 883f d3f7 4f3f 52e9 afbc 50bc 25bf
00000080: 45c9 d73e 300c 29bf 44f5 df3e cc82 043f
00000090: 984d 0b40 5d2a 9d3f 22a8 8a3e 544a 1bbe
000000a0: 771e 70bf acc5 8fbf 040c 05bf 43cd 71bf
000000b0: a594 d73e 4e10 b23e 4000 0740 8842 06c0
000000c0: a184 d53f 2fa2 13c0 dca7 903f 13c8 2140
000000d0: 51f7 fdbe 33e5 8abe 09d4 0fc0 be15 373f
000000e0: ced0 243f 1610 dbbf 400e 82bf 6eca 853e
000000f0: c447 9abe b8a3 bd3f a77e b43c 6ea3 93bf
00000100: a83e 22c0 95d5 eabf 718c 36bf 428a 72bf
00000110: a792 ccbe c7c4 6abf 9726 afbf 2b09 14c0
00000120: f762 3840 c8cf 1bbf 8ffc a5be d2c8 13bf
00000130: 708b 4f3f 4578 223f a7ba e0bf 500c b53e
00000140: 64f6 61bb f50c bcbe 50fa ef3e 9b34 cabe
00000150: a93d 443f 01d6 243f ec22 4b3f f297 f53e
00000160: 34a9 a2be 0cb3 963e ede3 94bf 83d9 853f
00000170: 0c01 8a3f b373 9d3f 7b2b 27c0 8002 f53f
00000180: f00d 493d 833d 01bf 7692 f9be 3dd9 1540
00000190: 602c 0a3f 2e8b 7cbf 1482 69bf 5183 5fbf
000001a0: cd90 79bf 855d c1bd d8cf 28c0 680c 08c0
000001b0: 0cc9 e5bf 06d4 66be 87df 413f 0bfc 513d
000001c0: b9a9 afbe 45fb dd3d a77e f63e 4fa3 f13f
000001d0: f2e2 f93f af1a 3e40 8ac5 d5be 042d 433e
000001e0: 024f df3e 913c 0340 8265 9abe 66e2 f1be
000001f0: 7c4d a0be f38e a43f 2f31 51bf e7bc 2cbf
00000200: 2f8e 0540 4f3a d7bf b361 02c0 56e5 c23f
00000210: bb91 7f3f 24c8 56be 420e 0d3f 7bfe a93f
00000220: 1672 58be bf8d 25bf 041f 1f3f 26e2 79bd
00000230: 38dc bc3e 50b7 f3bf 5a9a 953e e16b 9d3f
00000240: 6eaf 41c0 36d9 c63f fbfa f83f 6302 b4bd
00000250: 9ab3 45bf 11ae cb3e 5c09 503f 0632 f7be
00000260: 0d48 34bf 7e1b b93f 5c5d 9a3f 809e e63e
00000270: 135a 27be be25 cabf d793 21c0 6e5c 1bc0
00000280: c197 7bbf eaf6 3bbf 07bc 323e f8c9 0540
00000290: 5a0a 9c40 54c6 89bf 858f 833f e2da 5ebf
000002a0: 9dd9 7a3f 9b01 933f cf89 773f d51d e6bf
000002b0: 2571 cdbf ba76 95bf a3bc c8bd 67fd 28c0
000002c0: 6e15 ec3f 3947 573e 7e98 bdbe cdd1 d7bf
000002d0: 3ad2 41bf 78da 8240 fd26 b43e e598 0940
000002e0: 1365 2740 7e35 b23f fc6a ca3f 4e76 d43f
000002f0: 5d2b 1140 bd39 8dbf 639b 8bbf e44e 23bf
00000300: fc88 f23e 1315 823f a5bf 113f 62e2 3c3f
00000310: ac12 6cbe 2b9d 71bf 7402 bf3e bc03 1e3f
00000320: 0321 bb3f d0fd c93e 5aa6 963f e2d2 823f
00000330: a1d5 fc3e 2611 7b3f e4cb 3ebe b71b 7a3e
00000340: 395d 883e 81e1 a43e 0f16 9f3e 755a 893f
00000350: ff20 a1bf 492f 1a3f ea47 d73d f475 62be
00000360: e666 39bf f494 513f 2b12 dcbe d9e9 46be
00000370: de9c 593f 37f2 003f 9a0a 3e3f 3e4e fe3f
00000380: 13d7 073f da1f 28bf d94a 2ac0 e43b b3bd
00000390: d31c 0dbf 1bad 13bf 52f9 c7bf f2e9 8bbf
000003a0: a5d6 eebf e4d2 bdbf e6a0 043f fc7b ebbe
000003b0: 31f8 b73f a03c 20bf d281 88be 611a 143f
000003c0: 550c bfbf 48d9 d2bf 81e6 4bbe 1691 e0be
000003d0: a26a b03f 555a 00bf c0a9 0e3f 3900 f33f
000003e0: 45c7 0a3f 3d4c 013e 6dce 47bf 0184 6abf
000003f0: 1e4c bcbf 0df6 c23e d7d4 bc3f 840b c03d

residual_blocks.1.bn1.weight f4 [32]
1.6743858 1.7012118 1.7481675 1.6106182 1.3843408 1.6126689 2.0042646 2.264595
1.5452145 1.7062727 1.2886677 1.8105636 1.3001018 1.8716757 1.5372615 1.3020582
1.2265068 2.4885437 1.3078338 2.227506 1.4688623 1.4114398 1.6494129 2.014495
1.6348642 1.1553981 1.678478 1.4863124 1.8945639 1.5063666 1.8320415 1.9090594
00000000: 4652 d63f 4fc1 d93f f4c3 df3f bd28 ce3f
00000010: 1432 b13f ef6b ce3f df45 0040 20ef 1040
00000020: 97c9 c53f 2567 da3f 10f3 a43f 8cc0 e73f
00000030: bc69 a63f 1293 ef3f fcc4 c43f d8a9 a63f
00000040: 2dfe 9c3f 4d44 1f40 1967 a73f 758f 0e40
00000050: ae03 bc3f 0faa b43f f61f d33f 7ced 0040
00000060: 3b43 d13f 16e4 933f 5ed8 d63f 7c3f be3f
00000070: 1281 f23f 9fd0 c03f 5680 ea3f 0f5c f43f

residual_blocks.1.bn1.bias f4 [32]
-0.73245907 0.72046816 -1.2330747 -0.49194545 0.3812848 0.07747696 0.7030471 -2.3489082
-0.5967968 -1.500559 1.0830823 -1.4367981 0.6943803 1.4642435 -0.32858703 0.2709812
0.45247334 -2.3519416 0.23302603 0.052191943 -0.5275036 -0.31197464 -0.8040396 -1.3762665
-0.8782625 0.0077451295 0.39975455 -0.58966964 -0.65261436 -0.31591406 -0.564108 0.4586807
00000000: 7082 3bbf 9a70 383f 64d5 9dbf 46e0 fbbe
00000010: c337 c33e 3eac 9e3d e5fa 333f 8354 16c0
00000020: adc7 18bf 5112 c0bf 71a2 8a3f 00e9 b7bf
00000030: e8c2 313f 556c bb3f 8f3c a8be 0cbe 8a3e
00000040: 96aa e73e 3686 16c0 609e 6e3e 38c7 553d
00000050: 7a0a 07bf 24bb 9fbe 8ad5 4dbf 8029 b0bf
00000060: d0d5 60bf dbca fd3b a1ac cc3e 97f4 16bf
00000070: bc11 27bf 7dbf a1be 6269 10bf 32d8 ea3e

residual_blocks.1.bn1.running_mean f4 [32]
-5.39717 -20.03769 -25.736145 7.640949 -15.76603 30.791908 -4.878748 -19.610306
4.528635 -34.320457 12.371506 -3.6391492 38.94427 49.58255 18.499325 10.592563
-2.706624 -35.684673 2.8605967 21.12873 16.413895 13.471596 -22.035051 -4.5896525
1.475936 -22.027023 -48.279003 3.4805012 -0.6911056 -5.482483 -12.20966 15.419018
00000000: 9eb5 acc0 304d a0c1 a0e3 cdc1 a782 f440
00000010: a941 7cc1 d455 f641 b41e 9cc0 e8e1 9cc1
00000020: 94ea 9040 2648 09c2 b0f1 4541 d2e7 68c0
00000030: efc6 1b42 8854 4642 9efe 9341 237b 2941
00000040: 5439 2dc0 1bbd 0ec2 0414 3740 a407 a941
00000050: a84f 8341 a88b 5741 c947 b0c1 6fde 92c0
00000060: 79eb bc3f 5837 b0c1 b31d 41c2 88c0 5e40
00000070: 4cec 30bf 8070 afc0 c45a 43c1 4cb4 7641

residual_blocks.1.bn1.running_var f4 [32]
505.23407 533.09454 273.22986 378.46402 547.15857 788.5231 909.1451 512.7391
406.16495 417.13812 517.963 389.52274 330.24744 880.93005 380.94168 429.2033
472.59076 476.1964 473.65158 1275.2874 309.79306 424.80157 346.35257 509.5187
382.58633 319.8107 762.2475 513.29346 830.62756 413.9943 568.71185 800.4651
00000000: f69d fc43 0d46 0544 6c9d 8843 653b bd43
00000010: 26ca 0844 7a21 4544 4949 6344 4d2f 0044
00000020: 1d15 cb43 ae91 d043 a27d 0144 e9c2 c243
00000030: ac1f a543 863b 5c44 8978 be43 069a d643
00000040: 9e4b ec43 2419 ee43 67d3 ec43 3269 9f44
00000050: 83e5 9a43 9a66 d443 212d ad43 65c2 fe43
00000060: 0d4b bf43 c5e7 9f43 d78f 3e44 c852 0044
00000070: 2aa8 4f44 45ff ce43 8f2d 0e44 c41d 4844

residual_blocks.1.conv2.weight f4 [32, 32, 3, 3]
-0.5083078 -0.85654646 0.4838281 1.1811585 -0.9764262 -1.9085997 0.6632624 0.09168587
1.6436353 0.07965182 -0.25362682 -1.2201217 2.0540602 1.1202319 1.0525534 -2.1755495
-2.077548 -2.5064585 -0.6777533 0.52653944 -0.6516105 0.08298271 1.3114319 1.6550019
-1.0667726 -0.0056842095 1.6590947 0.44885886 -2.016687 -0.9730083 0.066517815 0.68835336
-3.192905 1.0835234 0.7226847 -1.3365599 -1.4402857 0.1400771 0.8801338 -1.1108341
-0.33688644 2.5737062 -1.1838224 1.4542544 2.8116574 1.4774221 0.5317818 0.12344924
-0.22755516 2.559875 -0.48946244 -0.7080766 -3.3154788 1.3998471 0.50411004 -0.024554854
-0.42722934 0.9624136 -0.5904016 0.9895459 0.4000614 -0.2310674 -0.84810686 1.9214668
2.19763 -0.80782884 -0.70450383 0.7573593 0.7621867 0.6225129 0.6584653 2.601474
0.30074582 0.53167176 0.3785883 -0.7407463 -0.98296005 0.64593446 -0.8027261 -0.27537078
0.5956954 1.5901741 -0.4139312 3.0845778 -2.34192 -0.67212886 0.3850666 -2.5086694
-1.9469882 0.74065495 0.9480854 0.0019006369 -0.7428807 0.99018085 0.6086767 -0.17950104
1.4244889 -1.4100736 0.1616715 -0.6838087 2.0387342 2.6013947 -0.07037532 -2.3711169
1.2161471 -0.62420285 0.6762107 2.0430856 -0.55674416 -0.7287782 -0.37287608 -0.49863762
1.4099835 -0.5789563 1.0156351 0.27231482 0.033872847 -0.060367774 -0.055233743 0.51032406
0.7772104 -0.88179404 0.069151625 -0.70661414 -1.7804593 -1.478136 0.3545134 0.6580224
0.66039056 -1.1444732 -0.25553775 1.7824242 -1.0084599 1.353557 -0.22677276 -0.89178765
-1.8380846 1.3820467 1.0485007 -1.1767447 -0.24025865 1.6490426 0.51686174 -0.46056587
0.1993389 -0.4613575 -1.7269047 -0.4794364 -1.9185662 1.8822348 0.77216065 -1.119847
0.82867235 -3.0744648 -0.06292467 -4.0618563 0.37814802 2.4015431 3.0804596 -2.1870782
-0.08371776 3.090489 -0.094318 -0.83378106 0.8784472 -1.932279 -1.4403335 -2.9560335
-0.00026351085 -2.3956974 -1.9277039 0.11346071 -0.46893114 -1.7419336 0.27298373 0.73580813
-0.82850736 -1.3285751 1.3554981 -0.9297549 0.004497806 0.13873513 0.28504425 -0.65406656
-1.3220423 1.1823696 -0.24565929 -1.6676815 0.6475753 0.47845086 -1.0284353 0.10403432
-0.82650983 0.0119187115 -0.7586809 0.8231372 -1.6315963 2.1276977 -0.6063532 0.5554766
0.32040516 2.1290395 0.09916826 -0.43546417 1.5120187 0.7707495 2.293894 0.36609232
-1.1690342 0.96216214 -1.256938 0.8056378 -1.0519376 0.079674594 -1.0024436 0.11279537
-0.983464 0.7678371 0.06719659 -0.44648075 1.4672499 -1.1996492 -1.1849631 -0.2561851
0.25620064 -1.6034038 2.3040426 0.24274676 0.5997292 0.9934008 1.7866898 0.28756317
1.537084 2.8692794 -0.92696613 -0.4329386 2.0151496 0.059142597 0.34221378 -0.4714885
-1.0681276 0.71463406 1.229373 1.6868552 0.2388247 1.0114223 -0.39689362 -0.30560187
2.02713 0.75143635 -1.3137313 -2.8952878 -1.6531812 -0.51674384 -1.0224769 -0.5159384
00000000: 7620 02bf a146 5bbf 51b8 f73e 3430 973f
00000010: 11f7 79bf ff4c f4bf 91cb 293f cdc5 bb3d
00000020: a462 d23f 7e20 a33d 60db 81be f32c 9cbf
00000030: b975 0340 c263 8f3f 12ba 863f 343c 0bc0
00000040: 8cf6 04c0 d169 20c0 3e81 2dbf 4acb 063f
00000050: f2cf 26bf d7f2 a93d 00dd a73f 1ad7 d33f
00000060: 018c 88bf 9b42 babb 375d d43f d4d0 e53e
00000070: 6611 01c0 1217 79bf 7e3a 883d ed37 303f
00000080: 8e58 4cc0 e5b0 8a3f dd01 393f 6514 abbf
00000090: 485b b8bf 5f70 0f3e 7350 613f d02f 8ebf
000000a0: 617c acbe 9ab7 2440 7e87 97bf 0225 ba3f
000000b0: 32f2 3340 2b1c bd3f da22 083f f5d2 fc3d
000000c0: 3804 69be fed4 2340 d29a fabe 8244 35bf
000000d0: ce30 54c0 312e b33f 5b0d 013f 4327 c9bc
000000e0: cebd dabe bd60 763f 8f24 17bf e152 7d3f
000000f0: d9d4 cc3e ef9c 6cbe 881d 59bf a0f2 f53f
00000100: f8a5 0c40 dfcd 4ebf 5d5a 34bf 4de2 413f
00000110: ab1e 433f 015d 1f3f 2f91 283f 8d7e 2640
00000120: 5bfb 993e a41b 083f 53d6 c13e 8da1 3dbf
00000130: 45a3 7bbf f65b 253f 757f 4dbf 66fd 8cbe
00000140: 7e7f 183f d38a cb3f caee d3be b969 4540
00000150: 04e2 15c0 a310 2cbf 7327 c53e 0a8e 20c0
00000160: e936 f9bf 909b 3d3f bab5 723f cb1e f93a
00000170: 6e2d 3ebf 7e7c 7d3f 3cd2 1b3f 1fcf 37be
00000180: a755 b63f 4b7d b4bf 378d 253e 160e 2fbf
00000190: 9f7a 0240 407d 2640 f020 90bd 61c0 17c0
000001a0: b5aa 9b3f c2cb 1fbf 251c 2d3f eac1 0240
000001b0: c986 0ebf 3591 3abf 9de9 bebe 6e4d ffbe
000001c0: 577a b43f 7b36 14bf 5500 823f d96c 8b3e
000001d0: 41be 0a3d 3344 77bd c73c 62bd 99a4 023f
000001e0: 43f7 463f 41bd 61bf 5e9f 8d3d aae4 34bf
000001f0: 17e6 e3bf 8f33 bdbf c882 b53e 2874 283f
00000200: 5b0f 293f 197e 92bf d8d5 82be 7a26 e43f
00000210: 3715 81bf 5b41 ad3f 1e37 68be 324c 64bf
00000220: 5b46 ebbf e8e6 b03f 4535 863f 929f 96bf
00000230: 5d06 76be d413 d33f 0d51 043f 4acf ebbe
00000240: 7f1f 4c3e 0d37 ecbe 370b ddbf b078 f5be
00000250: 9493 f5bf 12ed f03f 52ac 453f 2657 8fbf
00000260: df23 543f 08c4 44c0 a6de 80bd bafa 81c0
00000270: 9e9c c13e e2b2 1940 4026 4540 17f9 0bc0
00000280: 3874 abbd 92ca 4540 cc29 c1bd ad72 55bf
00000290: eae1 603f eb54 f7bf d95c b8bf a72f 3dc0
000002a0: d427 8ab9 1b53 19c0 00bf f6bf 175e e83d
000002b0: be17 f0be aef7 debf 86c4 8b3e ec5d 3c3f
000002c0: 0f19 54bf c00e aabf f680 ad3f 6b04 6ebf
000002d0: 5562 933b 9510 0e3e 52f1 913e e870 27bf
000002e0: af38 a9bf e357 973f 1c8e 7bbe 9676 d5bf
000002f0: 7fc7 253f 83f7 f43e c5a3 83bf f20f d53d
00000300: 2696 53bf b346 433c e938 42bf 1fb9 523f
00000310: 26d8 d0bf 332c 0840 f739 1bbf b733 0e3f
00000320: 250c a43e 2f42 0840 bb18 cb3d 29f5 debe
00000330: d489 c13f d74f 453f 29cf 1240 7470 bb3e
00000340: eaa2 95bf 4250 763f 58e3 a0bf 473e 4e3f
00000350: e4a5 86bf 6f2c a33d 1250 80bf 4201 e73d
00000360: 4cc4 7bbf f990 443f 5e9e 893d 2099 e4be
00000370: d8ce bb3f 1b8e 99bf dfac 97bf b22a 83be
00000380: bb2c 833e 563c cdbf 6f75 1340 9b92 783e
00000390: da87 193f 844f 7e3f 40b2 e43f 7b3b 933e
000003a0: 2bbf c43f 46a2 3740 a74d 6dbf 21aa ddbe
000003b0: 36f8 0040 823f 723d a536 af3e f166 f1be
000003c0: 68b8 88bf 42f2 363f 185c 9d3f dfea d73f
000003d0: 768e 743e 4976 813f a435 cbbe d977 9cbe
000003e0: 7fbc 0140 225e 403f 5928 a8bf 654c 39c0
000003f0: 719b d3bf 5349 04bf 86e0 82bf 8a14 04bf

residual_blocks.1.bn2.weight f4 [32]
2.1869137 1.2892177 1.4663023 1.5803747 1.0565974 1.830054 1.2620196 1.4710246
1.1746844 0.9139476 1.9995118 1.2021269 1.6852185 1.3145753 1.9006939 1.4279591
1.52161 1.3936367 1.5110879 1.3070612 1.1632557 1.5767887 1.4121357 1.5005175
1.4627967 1.2046386 1.1901366 1.6121219 1.2604916 1.6709098 1.7405922 2.1271343
00000000: 65f6 0b40 1605 a53f cbaf bb3f b849 ca3f
00000010: 953e 873f 363f ea3f dc89 a13f 894a bc3f
00000020: 0f5c 963f 78f8 693f 01f0 ff3f 4bdf 993f
00000030: 3db5 d73f 0144 a83f f049 f33f 5dc7 b63f
00000040: 1ec4 c23f b062 b23f 546b c13f c84d a73f
00000050: 90e5 943f 36d4 c93f ddc0 b43f f510 c03f
00000060: ec3c bb3f 9931 9a3f 6556 983f 035a ce3f
00000070: ca57 a13f 5fe0 d53f bacb de3f f822 0840

residual_blocks.1.bn2.bias f4 [32]
-1.2597944 -0.630511 -0.37216923 -0.42283353 -0.99788606 -2.2133207 0.7585106 -1.3639636
0.80003095 -1.8551838 -1.0261699 -0.1772553 -0.6677638 -1.5733402 -0.19760528 -1.01076
0.10361241 0.14373326 -0.29222038 -1.0506277 -0.8397351 -0.85696965 -1.5705612 1.1819769
-0.35652098 -0.13388534 -0.50442296 -0.3336646 -0.5694511 -2.1270084 -1.0055163 -2.1445277
00000000: f140 a1bf 2b69 21bf f78c bebe a37d d8be
00000010: 7675 7fbf 0ca7 0dc0 c02d 423f 5c96 aebf
00000020: d4ce 4c3f aa76 edbf 8959 83bf 6a82 35be
00000030: 92f2 2abf 3663 c9bf 0a59 4abe 9560 81bf
00000040: be32 d43d d02e 133e e99d 95be f87a 86bf
00000050: e1f8 56bf 5d62 5bbf 2608 c9bf 054b 973f
00000060: eb89 b6be 3d19 09be dd21 01bf 16d6 aabe
00000070: 8cc7 11bf e820 08c0 c2b4 80bf f13f 09c0

residual_blocks.1.bn2.running_mean f4 [32]
-13.021641 8.459766 -7.953885 10.093156 4.4800057 -4.378155 7.2746997 0.0847017
2.610875 -6.1597357 26.850147 18.657043 -3.7054198 -10.082889 -3.195973 -5.2038336
7.863894 15.267791 -7.9458823 -9.893181 5.9267187 0.3160752 -13.698284 -12.699745
8.277044 -1.3315818 16.81436 12.500425 5.6698937 13.208817 -15.120484 -21.248625
00000000: a458 50c1 345b 0741 3a86 fec0 917d 2141
00000010: 355c 8f40 d919 8cc0 57ca e840 1678 ad3d
00000020: 9318 2740 8e1c c5c0 1acd d641 a041 9541
00000030: 9925 6dc0 8353 21c1 d28a 4cc0 ce85 a6c0
00000040: 05a5 fb40 df48 7441 ab44 fec0 784a 1ec1
00000050: aea7 bd40 9cd4 a13e 2c2c 5bc1 2832 4bc1
00000060: c66e 0441 4671 aabf cf83 8641 be01 4841
00000070: c56f b540 5057 5341 81ed 71c1 2ffd a9c1

residual_blocks.1.bn2.running_var f4 [32]
357.30374 266.14124 343.31647 296.2899 310.30423 346.22943 401.6142 253.2571
330.94907 443.70218 482.3803 342.35767 352.51862 383.32584 484.42276 301.35526
387.73672 458.81943 272.96185 403.91364 282.0116 245.88965 286.41525 520.6287
330.6952 346.48767 387.4532 426.38885 233.52682 322.41434 330.65576 341.64676
00000000: e1a6 b243 1412 8543 82a8 ab43 1b25 9443
00000010: f126 9b43 5e1d ad43 9ece c843 d141 7d43
00000020: 7b79 a543 e1d9 dd43 ae30 f143 c82d ab43
00000030: 6242 b043 b5a9 bf43 1d36 f243 79ad 9643
00000040: 4dde c143 e368 e543 1e7b 8843 f2f4 c943
00000050: 7c01 8d43 c0e3 7543 2735 8f43 3d28 0244
00000060: fc58 a543 6c3e ad43 02ba c143 c631 d543
00000070: de86 6943 0935 a143 f053 a543 c9d2 aa43
