backend_engine/ml/models/session_1764532867/epoch_1_32ch_3resblocks.pth (torch, 299751 bytes, 39 tensors)

conv.weight f4 [32, 20, 3, 3]
000000 81 10 fa 3c ca ee 35 3f 0a ed 35 3e 6e 6c ba bd
       0.030525448 0.7106749 0.17766204 -0.091027126
000010 c8 17 26 3f 76 af 70 bc 10 b2 3f bf f8 e0 2f 3f
       0.6488004 -0.014690271 -0.74881077 0.6870265
000020 e6 a2 3c bf fa 84 3f bd 96 b6 35 3f eb bf 67 3f
       -0.73686063 -0.046757676 0.7098173 0.9052722
000030 1f 72 8a bf cc da 88 bd cf cb fd be 0c 98 01 3e
       -1.0816077 -0.06682357 -0.49569556 0.12655658
000040 1b 1d 4f bc 45 0b 65 3e d0 53 d2 3d 25 56 91 3f
       -0.012641217 0.2236758 0.10269892 1.1354414
000050 25 3d 8a 3e 67 5a b1 bd 1e ce f4 3e 51 b5 37 be
       0.26999775 -0.08659821 0.47813505 -0.1794026
000060 45 4b 3b bf 96 a9 14 3f 28 c6 5b b8 5e c4 1e 3e
       -0.7316173 0.5807127 -5.2398216e-05 0.15504596
000070 9a 1d 03 bf 6a 04 cb 3d 2d 4d e1 3f d1 80 f8 3e
       -0.51217043 0.09912951 1.7601677 0.4853578
000080 d7 55 4d be 4f 30 d1 3e 58 df 0c c0 1a e7 7e 3e
       -0.20052277 0.4085717 -2.2011318 0.24892846
000090 30 e6 49 be 4b 98 85 3f a6 f1 08 bd ea a5 8a 3e
       -0.19716716 1.0437101 -0.03343358 0.27079707
0000a0 a4 c2 d0 3e 0e 90 91 be 4f ba 17 be 64 f8 ac 3e
       0.407735 -0.28430218 -0.14817165 0.33783257
0000b0 cb eb 08 bc 19 22 80 bf f7 81 50 3e a5 69 6a be
       -0.008356999 -1.0010406 0.20362078 -0.22891863
0000c0 db e4 67 bd b6 6a 71 be 1a 57 e7 be 40 a9 cd be
       -0.056614738 -0.23575863 -0.4518364 -0.4016819
0000d0 94 62 db 3d 83 df c5 be f1 09 10 be f5 2e ca c0
       0.10712162 -0.38647088 -0.14066292 -6.318232
0000e0 76 2f 8b be f5 08 8e 3e 69 27 19 bf 21 7c 3f 3e
       -0.27184647 0.2774121 -0.5982576 0.18699695
0000f0 2f 3a 38 be ad 50 06 bf 8a ab f6 bd 0e f0 f9 bd
       -0.17990945 -0.5246685 -0.12044437 -0.1220399
000100 ef 24 da 3e 1c af 36 bf 23 14 fd 3f 5b 8a 63 bf
       0.42606303 -0.71360946 1.977177 -0.8888299
000110 ec 47 9d 3f 83 d2 89 c0 94 90 6f bf d0 93 82 be
       1.2287574 -4.306947 -0.93579984 -0.25503397
000120 bf 1b 38 3f bf bf 4d bf 1e 59 48 be f4 03 98 3f
       0.7191734 -0.80370706 -0.19565246 1.1876206
000130 7b 3a 8f bd dc 09 9c 3f 01 ca 06 be 63 80 d7 bf
       -0.06993576 1.2190509 -0.13162996 -1.6836056
000140 1c 1e f2 3d f8 d2 09 3e d3 72 bc bf 6f c9 e8 be
       0.11822149 0.13459384 -1.4722542 -0.45466182
000150 4e f7 e1 3f e5 4f b6 bf 0d 0a fb 3f a9 85 d7 3d
       1.7653596 -1.4243132 1.9612442 0.105235405
000160 bc 13 21 3f 76 5d b5 bd 77 da 34 3f 78 d4 87 3d
       0.6292074 -0.08855717 0.7064585 0.06632322
000170 70 0d 2f be c3 89 9d 3f 35 74 8b bf 19 6f 05 40
       -0.1709497 1.2307667 -1.0894839 2.0849059
000180 da 9a 55 be c1 d9 fa 3e 6b e6 85 3e 51 2d 8f be
       -0.20859852 0.48994258 0.26152357 -0.2796426
000190 04 43 35 bf fb 7f ff be e8 a2 e9 3d 9b 05 7a bf
       -0.7080538 -0.4990233 0.11408025 -0.97664803
0001a0 0f 0f 41 be 5b fb 29 3e 44 04 0e c0 f0 a6 2e 3e
       -0.188534 0.16599791 -2.2190104 0.17055869
0001b0 38 aa ff 3d 0d 80 91 3e 62 22 a0 3e e7 27 d8 bd
       0.124836385 0.28418007 0.31276232 -0.10554486
0001c0 d9 b7 1d bd 25 f3 63 3e 03 1a a1 3d 22 09 7e 3e
       -0.03850541 0.22260721 0.078662895 0.24808171
0001d0 8b e7 a6 3d df 27 7f 3d 84 d4 5c bd 13 5b ba be
       0.08149632 0.062293883 -0.05391361 -0.3639761
0001e0 6d 18 cd 3e 0c d5 7b 3e 18 67 88 be 3f 7d 06 bb
       0.40057698 0.2459299 -0.26641154 -0.002052143
0001f0 16 10 87 be db 8c 28 bf b5 ab 9a 3e 35 60 24 3e
       -0.2637946 -0.6583993 0.30209127 0.16052325
000200 8b 93 ab be 30 3d eb 3e 2b cf bd 3e b4 88 d5 bd
       -0.33511004 0.4594512 0.3707212 -0.10426465
000210 bb 09 ac bc 29 28 d0 bd b9 f8 45 bf 0c 4d 78 bc
       -0.021000734 -0.1016391 -0.77332646 -0.015155088
000220 c7 5c 63 bd 48 e7 00 3e d3 dd 3f 3e 26 d5 ed 3d
       -0.0555084 0.12588227 0.18736963 0.116129205
000230 4a ab e4 bd 23 2e 23 be ba ed 62 be 84 1f 86 be
       -0.11165483 -0.15935569 -0.22160998 -0.2619592
000240 50 76 e5 bc 0a 47 69 ba ad 8f 8a bd 6f b7 5f 3e
       -0.028010517 -0.000889883 -0.06765685 0.21847318
000250 31 a2 0e 3e b1 bb dd 3d d6 bd a2 bb 3c 56 35 be
       0.13929059 0.10826815 -0.004966478 -0.17708677
000260 64 c4 b7 be 82 94 2e bf a4 c9 aa bf 50 9f 5d bf
       -0.35892022 -0.68195355 -1.3342786 -0.86571217
000270 22 2f 43 bf 15 a5 a2 3c 77 73 7e bf b0 78 c9 bf
       -0.76243794 0.019854108 -0.99394935 -1.5739956
000280 f1 48 99 bf f5 9b 59 bf 5c 56 dd c0 81 5f c7 c0
       -1.1975385 -0.85003597 -6.916792 -6.230408
000290 19 16 ea c0 0f a3 97 c0 5c 1a 71 c0 57 8f a0 c0
       -7.3151975 -4.7386546 -3.7672338 -5.0174975
0002a0 9d 8e 80 c0 19 ef 33 c0 65 43 77 c0 d7 74 da be
       -4.017409 -2.8114684 -3.8634884 -0.42667267
0002b0 62 bc 9a 3d 33 2c 14 bf 1b b0 84 bb e8 2d 89 3f
       0.075554624 -0.5787994 -0.0040493137 1.0717134
0002c0 28 6d 0e bd f2 50 a1 be 31 1e 00 3e 0d 90 5e bf
       -0.03477207 -0.3150707 0.12511517 -0.86938554
0002d0 a7 29 63 3f 76 7d 9b be 7e a8 33 3e fd 08 7e 3e
       0.8873543 -0.30369157 0.17544743 0.24808116
0002e0 74 1f 2c bf 89 09 d4 be c5 fb bd be e4 ef 7f be
       -0.67235494 -0.41413525 -0.37106147 -0.24993855
0002f0 81 8f 7d be bf d7 65 3f 1a 6e b1 3d b6 f9 7c be
       -0.24761774 0.8978233 0.08663578 -0.24704632
000300 ec 33 35 3f 8a 58 96 3f d7 9b d3 bf 58 e3 d9 3e
       0.7078235 1.174577 -1.6531934 0.42556262
000310 50 cd 8f bf 6e 2a 1a 3f 3f bc 53 bf d8 aa bf be
       -1.1234531 0.6022099 -0.82709116 -0.3743503
000320 6c 70 99 3f 3d c9 86 3e ad 48 28 bd 71 d3 2a be
       1.1987433 0.26325408 -0.041084934 -0.16682221
000330 41 62 63 3d 55 5d 8d be 56 79 4e be 76 61 b2 3e
       0.055513624 -0.2761027 -0.20163473 0.34839982
000340 45 db 22 bf 6d e7 c8 3e 73 20 c2 be 78 90 39 bf
       -0.6361583 0.39239064 -0.37915382 -0.72486067
000350 e8 5a d1 3e 22 c3 13 bf c6 ca fa 3d a5 f6 f1 3f
       0.40889668 -0.57719624 0.12245707 1.8903395
000360 fc 7a cf be ef dc 0e bf 4f 29 db 3e 90 0a 49 bf
       -0.40523517 -0.5580587 0.42804953 -0.7853174
000370 b2 9c 00 bf a1 f5 3c 3f e0 96 13 be 4b 0c b7 be
       -0.502391 0.738123 -0.14413023 -0.35751566
000380 3f 27 9d 3f 26 ab c8 be c2 20 47 3e de 90 7d 3f
       1.2277602 -0.39193076 0.1944609 0.99049175
000390 7e 3d fd 3e c1 5a f4 3f de ef fc 3f 52 9c 3e 3d
       0.49460977 1.9090196 1.9760702 0.046535797
0003a0 a4 73 b5 3f e2 33 45 3f 85 0a c1 be 60 6e 9a 3f
       1.4175916 0.7703229 -0.37703338 1.2064934
0003b0 c8 c9 74 bf 4f 24 b6 be 49 cb 8b 3e 18 13 a0 be
       -0.95620394 -0.35574576 0.27303532 -0.31264567
0003c0 e4 b2 b5 3e ef 24 cc be e7 6b 34 c0 89 c7 00 bf
       0.35488045 -0.39871928 -2.8190858 -0.50304466
0003d0 3b d2 2f be 97 ee 83 be 52 3c 61 3f fa d1 1c 3f
       -0.1717004 -0.25767967 0.87982666 0.612579
0003e0 93 ee 04 3f bb d8 8a 3e f0 8b b6 be 94 37 4c bf
       0.51926535 0.27118477 -0.3565364 -0.79772305
0003f0 13 38 a9 40 9e 40 22 bf b5 5a 6a bf 30 82 15 bf
       5.288095 -0.6337985 -0.9154466 -0.58401775

bn.weight f4 [32]
000000 68 d6 8d 3f 28 50 30 3f 9d 5b 8d 3f 32 ce 57 3f
       1.1081057 0.6887231 1.1043583 0.84299004
000010 d9 36 8d 3f 1b 5a 26 3f 8b de 39 3f 38 77 45 3f
       1.1032363 0.6498124 0.726052 0.7713504
000020 58 3e 2e 3f 4f 23 97 3f 84 19 89 3f 43 86 38 3f
       0.6806388 1.180765 1.0710912 0.7207987
000030 cf 6d 84 3f 61 0e 1c 3f c4 00 f4 3e 0e 30 32 3f
       1.0346011 0.6095944 0.47656834 0.69604576
000040 0a 91 10 3f cc 90 99 3f 78 d2 29 3f 8b 4d 9f 3f
       0.5647131 1.1997313 0.66336775 1.2445539
000050 a2 bd 8d 3f e1 f3 33 3f 2d 67 3a 3f 20 65 03 3f
       1.1073496 0.70294005 0.72813684 0.5132618
000060 87 ef 35 3f 96 76 1c 3f ca 8c 67 3f 7d fc 58 3f
       0.71068615 0.6111845 0.904492 0.84760267
000070 15 6c 21 3f 3d 7f 34 3f 5a 73 2b 3f 64 02 12 3f
       0.63055545 0.7050665 0.6697289 0.570349

bn.bias f4 [32]
000000 34 f5 3c bf 0b c6 c7 3e 51 3f 0e 3f 76 16 33 3f
       -0.7381165 0.39018282 0.55565363 0.6995615
000010 4f a7 18 bf dc b1 e2 3e 15 2f 0a 3e dd 4d e2 be
       -0.5963029 0.4427632 0.13494523 -0.4420003
000020 e5 62 45 3d 58 63 18 40 0c 28 35 bf 18 99 0d 3f
       0.048190016 2.3810635 -0.7076423 0.5531173
000030 12 14 8b be 28 43 8f 3f 98 0e ea 3e 9b 7d 24 be
       -0.2716375 1.119237 0.4571426 -0.1606354
000040 e9 57 25 3f c6 a3 aa be 96 20 04 3f 4e 15 31 bd
       0.64587265 -0.33328074 0.5161222 -0.04323321
000050 b7 ab d7 3f a0 8c 2c 3f bc d8 e4 be bd 29 d7 3d
       1.6849278 0.67402077 -0.44696605 0.10506008
000060 30 7f 03 3f 3e 2d 39 3f ce 8f 01 3f f3 c8 1f bf
       0.5136595 0.7233466 0.50610054 -0.62416
000070 d5 53 c6 3f ec 8f 24 be 79 bf 23 3f 36 55 a8 3e
       1.5494334 -0.16070527 0.6396404 0.3287751

bn.running_mean f4 [32]
000000 17 e6 96 bf be 61 85 be cb 72 86 bf d6 ec 3f be
       -1.1788968 -0.26051134 -1.0503782 -0.1874269
000010 95 c0 90 c0 1f 2a 95 3f 0c 9f 2a bf a7 d1 0d bf
       -4.5235085 1.1653479 -0.66648936 -0.5539803
000020 be bc fb 3e 69 6f 47 be 48 af be be 95 ff e2 be
       0.49167436 -0.19476093 -0.37243104 -0.4433562
000030 34 c6 03 be 41 d8 0c be c5 8a 63 3e 33 48 03 3f
       -0.12868577 -0.1375437 0.22220905 0.5128204
000040 3b 66 df bf fa a0 de bf 0d 1a e0 be 23 51 2d 3f
       -1.7453073 -1.7392876 -0.43769875 0.6770193
000050 39 33 00 3e 4e 70 87 bf 60 2e a6 3f b7 3c af be
       0.1251954 -1.0581148 1.2982903 -0.3422601
000060 8f 22 08 bf 7f 9e 57 be 8f c8 09 3e 33 ec 2b 3f
       -0.5317773 -0.21056555 0.13455413 0.67157286
000070 cb 32 16 bf e1 1f 98 bf 0a 40 26 be 4e 12 9e 3f
       -0.58671254 -1.1884729 -0.16235366 1.2349336

bn.running_var f4 [32]
000000 37 42 e9 40 f0 d7 14 40 e2 35 0d 41 1b 3b 37 40
       7.289333 2.3256798 8.825655 2.8629825
000010 09 7d 87 41 12 91 2d 40 25 21 86 40 c1 58 65 40
       16.936052 2.7119794 4.191546 3.583542
000020 d7 20 cd 3f 17 fc ea 40 a4 fd 6e 40 0b 7e 3a 40
       1.6025647 7.3432727 3.734231 2.913943
000030 55 41 ea 3f 83 e9 21 40 68 f5 0e 40 b7 d8 cf 3f
       1.8301188 2.5298774 2.2337284 1.6238011
000040 5d b4 66 40 48 08 1f 41 3b eb a5 40 fc f4 8c 40
       3.6047585 9.939522 5.1849647 4.4049053
000050 90 58 c0 40 35 8f 2a 40 18 db 6c 40 38 93 02 40
       6.010811 2.6649907 3.7008724 2.0402355
000060 ed 32 88 40 14 db 2c 40 9e fe a7 40 8b 93 5e 40
       4.2562165 2.7008715 5.249831 3.4777553
000070 c6 bb 11 40 de 9b 47 40 1c f2 fe 3f 6b 90 f0 3f
       2.2770858 3.1188884 1.9917636 1.8794073

residual_blocks.0.conv1.weight f4 [32, 32, 3, 3]
000000 3d c9 c4 be a3 a6 0e 3f c2 73 5a bf a9 e0 35 bf
       -0.38434783 0.5572302 -0.8533288 -0.7104593
000010 60 01 71 bf 81 26 85 bf 0d e7 0b 3d d0 46 6d be
       -0.94142723 -1.0402375 0.034155894 -0.23171544
000020 db 64 d0 bf 41 bf 2e be fd 30 7a be aa 63 82 be
       -1.6280779 -0.17065145 -0.2443275 -0.25466663
000030 ba ae e4 be ee 03 9e 3e 50 0a 24 bd 5b f0 e0 bf
       -0.44664556 0.30862373 -0.040048897 -1.7573351
000040 ef c6 82 3f e2 23 f5 be 65 7c 83 3f b2 e9 27 3f
       1.021696 -0.4787894 1.0272337 0.65590966
000050 27 c9 4a 3f bd 05 d9 be 82 72 17 3e a8 61 0d 3f
       0.79213184 -0.4238719 0.14789775 0.55227137
000060 c1 08 16 be 28 70 3e 3f cb 86 1f 3f ff ff 9a 3f
       -0.14651777 0.74389887 0.6231505 1.2109374
000070 fd 12 ae be e2 20 09 3f fa e4 8b 3e 12 2d a9 bf
       -0.33998862 0.535658 0.27323133 -1.3216879
000080 38 07 8c bf a7 d1 54 bf 96 30 36 bf 7f 27 51 3e
       -1.0939703 -0.83132404 -0.71167886 0.20425223
000090 93 e5 3e bf 2a cf 9a be 58 56 6a bf 85 76 db bf
       -0.7456905 -0.3023618 -0.91538 -1.7145544
0000a0 a3 64 f7 be ee a4 38 bf 07 0a 87 be 5b 27 54 be
       -0.48318967 -0.7212666 -0.26374838 -0.20718138
0000b0 72 2e 18 bf 2c af 53 be 30 41 06 3f 3c 34 40 bf
       -0.5944587 -0.20672292 0.5244322 -0.75079703
0000c0 f4 89 89 bf e1 6b 09 bf 72 49 c4 3e a6 48 a0 bd
       -1.0745225 -0.53680235 0.38337284 -0.078263566
0000d0 b7 ec 0f bf 8b 84 aa bf 53 ea 54 3f c3 4e 04 bf
       -0.56220573 -1.3321699 0.8317005 -0.5168268
0000e0 d9 8d d5 be 16 69 c9 bd 8a c9 10 bf 07 a4 0e bf
       -0.41709784 -0.09834497 -0.56557524 -0.55719036
0000f0 ee 83 74 3e 2f 9e f7 3c 1c 46 e5 be 39 12 3d 3e
       0.23878452 0.030226795 -0.44780052 0.18463983
000100 09 57 76 be 13 9d 7f bf c1 57 8a 3e b7 57 82 bf
       -0.24056639 -0.9984905 0.27020076 -1.0183018
000110 96 d1 a2 bf 85 cd e7 3e 1f 7b 51 3f fb e8 fa be
       -1.272021 0.45273986 0.8182849 -0.49005875
000120 6e de b8 be 47 c1 18 bf 87 52 6b bf c9 d7 d6 3e
       -0.361072 -0.5966992 -0.919228 0.41961506
000130 3a 7d 1c bf 74 9a c1 be 41 b8 e6 3f 5b e6 20 bf
       -0.6112858 -0.3781315 1.802498 -0.62851495
000140 dc ac d4 3d f9 8a 9d 3e fc da 3c bf 40 35 e5 bd
       0.10384533 0.3077009 -0.73771644 -0.11191797
000150 d4 28 22 3f 18 3e 88 be 2b 93 d6 be 75 74 10 40
       0.6334355 -0.26609874 -0.41909155 2.257108
000160 3a 01 a2 3f 8b 12 a5 3f de 37 48 bf 80 af 18 3f
       1.2656624 1.2896284 -0.78210247 0.5964279
000170 65 ca 81 3f f2 3f 1d be 43 01 12 3f 3d dd 24 3f
       1.0139891 -0.15356424 0.57033175 0.6440008
000180 28 d1 41 bf 87 14 04 3e 61 13 2c 3f 4e b5 ef 3e
       -0.7570977 0.12898456 0.6721707 0.46818012
000190 94 53 e9 3e e7 cb 6c be bb 09 78 bf 4e 80 12 3f
       0.45571578 -0.23124658 -0.9688985 0.5722703
0001a0 30 84 1d bf 3a 15 f4 3e f0 f8 d4 3f 13 cc 44 3d
       -0.6152983 0.47672445 1.663847 0.048046183
0001b0 49 3a 80 3f 78 15 b1 3e 67 29 84 3e 4e c7 8f 3e
       1.0017787 0.34586692 0.25812837 0.28081745
0001c0 b8 7c 29 3f 43 a6 42 3b 1a f8 f5 bd 76 08 9c be
       0.6620593 0.002970115 -0.12010212 -0.30475205
0001d0 84 db ee 3e 56 75 53 3e b9 2a 1c 3f 97 52 4a 3e
       0.46651852 0.20650229 0.6100269 0.19758068
0001e0 9a fb b6 be 7b 3b b1 3d 44 b8 57 be 9e 9e 26 40
       -0.35738832 0.08653923 -0.21066386 2.6034312
0001f0 2b ed 2d 3e 6b 56 ad 3f 09 03 5b 3f 8a b4 af be
       0.16985004 1.3541998 0.85551506 -0.34317428
000200 75 6d cb 3e b1 85 a4 be da 89 95 3e c5 88 91 3e
       0.39731947 -0.32133248 0.29206735 0.2842466
000210 7c 61 f6 3e 93 6f f2 3d 1c af 89 bf 62 48 67 3e
       0.4812125 0.11837687 -1.0756564 0.22586206
000220 2c 58 a0 3f f2 59 56 3f 9f de 6c 3e 85 c4 2a 3f
       1.2526908 0.83730996 0.23131798 0.66706115
000230 2e c4 65 be 03 f6 4c 3f e9 e4 4e 3f 6b 4b c3 be
       -0.22438118 0.80062884 0.8081804 -0.38143477
000240 27 6e 35 3e aa 3f d4 3f 21 16 ef bd 73 b7 96 3d
       0.17717801 1.6581929 -0.11674143 0.07359209
000250 11 be 18 3f ee 22 a8 be c1 53 06 3f 9b 1c ae 3f
       0.5966502 -0.3283915 0.5247155 1.360248
000260 6c 15 7b 3e b1 bb 01 be b2 70 60 bf fe d3 5d bf
       0.2451989 -0.12669255 -0.8767196 -0.866516
000270 e0 49 28 3e d2 cb 88 be ca 4d 8a 3e 2b 04 42 be
       0.16434431 -0.26718003 0.27012473 -0.18946902
000280 71 91 3e be af 55 bb be 0a ba e7 bc 0f db 2c 3e
       -0.18610169 -0.3658881 -0.028286953 0.16880439
000290 c6 89 bd 3e f2 91 b3 3e c5 95 8c 3f c6 db af 3d
       0.37019175 0.35072285 1.0983206 0.0858684
0002a0 28 c7 03 be 07 d6 2a 3f 98 df 45 3f 8c b1 93 bf
       -0.12868941 0.6673283 0.772943 -1.1538558
0002b0 91 34 45 bd fe 9a 0c bf d0 27 a4 bd 81 1b b9 be
       -0.048145834 -0.54924 -0.08015406 -0.36153796
0002c0 43 2a 41 bd 83 a1 a0 3f 7a b4 19 bf 7c 3c 23 bf
       -0.047159445 1.254929 -0.6004101 -0.63764167
0002d0 6f 11 2b bf 6d 11 70 bb 71 95 ee be c6 f0 9a bf
       -0.66823477 -0.003663148 -0.4659839 -1.2104728
0002e0 ab 36 14 3e ad 68 c5 bd 8d cb 6d bf c8 c9 e7 bd
       0.14473979 -0.09639106 -0.9288872 -0.113177836
0002f0 1a 43 66 be 11 ba 29 3f 86 5b 70 3f 58 06 25 3f
       -0.22486535 0.6629954 0.93889654 0.64462805
000300 60 eb 09 bf 26 01 c3 be 24 e3 9b 3c 6b 33 f2 bf
       -0.5387478 -0.38086814 0.019029208 -1.8921942
000310 13 38 2c 3f cc 38 57 bf ad ec 41 3f 31 b9 06 be
       0.6727306 -0.8407104 0.75751764 -0.13156582
000320 ed 18 10 be ac 78 91 bd 0d c4 04 bf 14 18 b8 be
       -0.14072008 -0.071030945 -0.5186165 -0.3595587
000330 b5 23 90 3f 3b 6d bc bc fd ab a4 3f 19 e5 21 3e
       1.1260897 -0.023001304 1.2864987 0.1581005
000340 97 0d cf 3e ab 3f 82 bf 21 04 b4 bd f5 fa d0 3e
       0.40440056 -1.017568 -0.0878985 0.40816465
000350 1b 9e 1a 3d 22 b2 87 3f e5 fe c9 3e 42 c4 c2 bd
       0.037748437 1.0601237 0.39452282 -0.095100895
000360 61 2a 4e 3e 77 7c 76 bc fe ff b8 be 29 ad f1 be
       0.20133354 -0.015044323 -0.36132807 -0.47202423
000370 f3 63 f2 3e 32 8f 1e 3d fd f9 67 3f 56 83 b9 3e
       0.4734188 0.03871078 0.90615827 0.36233014
000380 7d 9b aa 3f a3 08 69 3d ed 0a 49 3d 7a 8a a8 bc
       1.3328701 0.056893002 0.049082685 -0.020573843
000390 47 ea ac bf 26 41 cd be be e0 67 bf 28 2a 72 bf
       -1.3508996 -0.40088767 -0.90577304 -0.94595575
0003a0 85 38 74 3f ee bf da 3e 14 a3 7b 3f c6 ff 1c 3f
       0.9539874 0.42724556 0.9829571 0.6132778
0003b0 18 7f d1 3e d0 1f 72 be 6b bd 55 bf 17 74 28 bf
       0.40917277 -0.23644948 -0.83492154 -0.6580214
0003c0 0e 96 88 bf 7c 32 2c be 4c 83 36 3d 67 ac 59 bf
       -1.0670793 -0.16816133 0.04455881 -0.8502869
0003d0 99 5d c1 3d 6c 29 f9 be ec 6c 79 bd 7f c3 6c 3d
       0.094416805 -0.48664415 -0.06089489 0.057803627
0003e0 d6 ca 06 3f 0f 91 5b be 36 88 79 bd 2c 2c 92 bf
       0.52653253 -0.21442054 -0.060920916 -1.141973
0003f0 f1 ee 4e 3f 98 37 80 be dd ae ce 3e 41 25 91 3e
       0.80833346 -0.25042415 0.40367785 0.28348735

residual_blocks.0.bn1.weight f4 [32]
000000 9d ac 96 3f 4e 43 94 3f b2 e8 5f 3f 95 79 b5 3f
       1.1771427 1.158304 0.8746444 1.4177729
000010 b3 21 80 3f bf d9 8a 3f 70 6a a1 3f 1f 4a 63 3f
       1.0010284 1.0847701 1.2610607 0.88784975
000020 e3 90 df 3f 04 b8 e9 3f 39 5a cc 3f ff 33 61 3f
       1.7466091 1.8259282 1.5965034 0.87969965
000030 63 81 ba 3f 5b 4e 6b 3f 45 a1 a9 3f 4b f8 d2 3f
       1.4570736 0.91916436 1.325234 1.6482023
000040 54 17 85 3f e6 27 7a 3f 22 3a 75 3f 56 e5 e1 3f
       1.0397744 0.9771713 0.9579183 1.7648113
000050 ee aa 4d 3f f7 79 80 3f 58 1a 9d 3f 8b 45 ac 3f
       0.80338943 1.0037221 1.2273664 1.3458723
000060 3f a0 a2 3f d5 d3 a8 3f 7e 98 93 3f 1f c8 5b 3f
       1.2705153 1.3189646 1.1530912 0.85852236
000070 67 71 bc 3f 1f 30 af 3f d0 a4 4b 3f 35 cd a0 3f
       1.4722108 1.368656 0.7954836 1.2562624

residual_blocks.0.bn1.bias f4 [32]
000000 d2 dc 40 3f 66 cd 47 3f 1d ba 9d 3e d0 54 89 bf
       0.75336945 0.7804779 0.30806056 -1.0729008
000010 5d 76 1c be 9c 44 23 3d 06 ed 08 bf f2 23 89 3d
       -0.15279527 0.039860353 -0.5348667 0.06696309
000020 5f e7 94 bf cc 6f cf bf c5 e9 ad be 1c f7 64 3e
       -1.1633109 -1.6205993 -0.33967414 0.2235989
000030 fe d2 90 be 5f 11 11 bf d6 fb 40 3e 69 dc 55 bf
       -0.28285974 -0.5666713 0.18846068 -0.83539444
000040 4d 0b b9 be 03 e2 e7 bd e1 15 c9 3e 27 e3 da be
       -0.36141434 -0.11322405 0.39274505 -0.42751428
000050 1b 66 8e be cf e4 91 be 86 7d 66 3c 99 93 9c 3e
       -0.27812275 -0.2849488 0.014068013 0.30581358
000060 04 11 4e 3c 22 6e 09 bf 4c 93 4f be df 68 96 3d
       0.012577299 -0.53683674 -0.20271033 0.07344221
000070 18 de 67 be cb 7a 56 be 09 96 2e 3f 49 74 99 bf
       -0.22643316 -0.2094528 0.68197685 -1.1988612

residual_blocks.0.bn1.running_mean f4 [32]
000000 df 5a 38 41 56 db bb 40 65 a0 30 41 18 b4 fe c0
       11.522185 5.8705244 11.039159 -7.959484
000010 0b b6 2a 3f de fb 2a c1 18 59 9d bf 2a 8a 10 c0
       0.66684026 -10.686491 -1.2292814 -2.2584329
000020 6d 76 46 c1 70 50 72 c0 5a 4e 3a c1 77 de 9b c0
       -12.403913 -3.7861595 -11.644129 -4.8709064
000030 64 d9 bb c1 7d 48 3e 40 e5 8d a9 c0 54 2c 7b c0
       -23.481148 2.9731743 -5.298571 -3.9245806
000040 95 ad 56 41 f2 18 4d c1 a0 11 87 40 92 10 ab c1
       13.417378 -12.81859 4.2209015 -21.383091
000050 44 6a 13 c0 5e d6 92 3f 4e 33 e3 c0 64 ea 9c 40
       -2.303361 1.147167 -7.100013 4.903612
000060 e9 c3 82 bf 27 77 67 c1 c5 16 87 41 27 e3 50 3e
       -1.0216037 -14.46659 16.886118 0.20399152
000070 5e aa 7d c1 8a 8e f3 c0 f8 9e 13 41 d5 4c 05 c1
       -15.854094 -7.61115 9.226311 -8.331258

residual_blocks.0.bn1.running_var f4 [32]
000000 b8 e7 e0 42 64 8e a4 42 53 e6 62 42 43 e4 a8 42
       112.452576 82.27811 56.724926 84.44582
000010 b0 2d ad 42 a6 ca a9 42 98 85 9f 42 83 05 63 42
       86.58923 84.8958 79.760925 56.755383
000020 80 ec ae 42 05 ae 4c 42 3b cc af 42 66 a7 74 42
       87.461914 51.16994 87.89889 61.163475
000030 41 eb a7 42 c8 4b 62 42 a6 43 33 43 1f 1f 95 42
       83.95948 56.574005 179.26425 74.56078
000040 33 23 7e 42 30 48 59 42 ee 4d 2b 43 fa 2b 34 43
       63.534374 54.320496 171.30441 180.17178
000050 e2 d4 39 42 ae 57 3b 42 60 4b b3 42 47 34 02 43
       46.457893 46.835625 89.64722 130.20421
000060 6c ab 4f 42 42 18 9b 42 4d c4 03 43 da ba 6d 42
       51.917404 77.54738 131.7668 59.432472
000070 2c f9 16 43 93 e6 98 42 38 7a 88 42 48 f1 5b 42
       150.97333 76.45034 68.23871 54.985626

residual_blocks.0.conv2.weight f4 [32, 32, 3, 3]
000000 66 8b aa be 62 db 26 bf d1 2e df bf 73 41 e1 bd
       -0.33309478 -0.651785 -1.7436162 -0.109988116
000010 d5 e8 43 3e e6 9e 9b bf b2 34 32 3e 1e 52 e0 3d
       0.19131787 -1.2157867 0.17402914 0.109531626
000020 ab 3c 07 bf a0 90 05 3f e4 ef 9c be 24 c4 4d bf
       -0.52826947 0.52173805 -0.30651772 -0.8037741
000030 11 5a f2 3e 57 67 56 3e a2 3e da be 4a 33 75 3e
       0.4733434 0.20937859 -0.4262591 0.23945346
000040 f7 4b 78 3e 97 99 3c bd 1c 32 bf 3e b2 a3 21 bf
       0.24247728 -0.046044912 0.37342918 -0.63140404
000050 bf b3 78 be cd ec c6 be b6 5b 31 3f ef b0 da 3d
       -0.24287318 -0.3885254 0.69280565 0.10678279
000060 6f 24 f2 be e9 36 8e 3d ef d5 87 be 5a f8 63 3f
       -0.47293422 0.06944067 -0.26530406 0.8905083
000070 d7 95 6c bf 94 1c 52 3e 44 09 cd 3e 04 f1 9e 3f
       -0.9241614 0.20518714 0.40046132 1.2417302
000080 4d 0c b5 3f 55 00 0d be 31 81 e1 3e 74 11 64 bf
       1.4144379 -0.13769658 0.44043878 -0.8908913
000090 16 a0 08 bf 11 c6 f1 bd 86 6e 69 bf a1 f2 b3 3e
       -0.5336927 -0.11805356 -0.9118427 0.3514605
0000a0 39 7c 98 3e aa 22 29 3e c4 85 ad 3e 03 ab 16 3f
       0.29782274 0.1651713 0.33891118 0.58854693
0000b0 99 f3 6b 3e 1b c3 8b be dd f4 cc 3e b8 8a ad be
       0.23042144 -0.2729729 0.40030566 -0.33894897
0000c0 d6 d7 fb bd 07 bd 77 be 10 ca 2b 3e ac be 82 be
       -0.12297027 -0.24193202 0.167763 -0.25536096
0000d0 f0 d3 75 3f 4e 42 92 3f 22 f8 f2 3e fd 3a ea bf
       0.96026516 1.1426485 0.47454935 -1.8299252
0000e0 73 ad bb be d8 dc 0f bf 06 96 49 3f b5 84 2a 3e
       -0.3665577 -0.56196356 0.7874454 0.16652186
0000f0 b9 40 31 be a5 e2 44 3f 98 9d 68 3e 02 be 22 3f
       -0.17309846 0.7690833 0.22716367 0.6357118
000100 c6 7c 2e 3f 8e 73 c7 3d 97 b4 81 3d c6 71 d5 3e
       0.6815914 0.09738837 0.06333273 0.41688365
000110 f7 b6 4f 3f 46 d7 fa 3e 7c 64 4e 3f 4f b2 82 3e
       0.8113856 0.48992366 0.80622077 0.25526664
000120 3d be 71 be f5 32 8e bf 07 11 20 bb 1b 45 13 be
       -0.23607726 -1.1109301 -0.0024424212 -0.1438183
000130 d0 d1 f3 be ad 80 b7 3e c6 d6 c1 be 3a 46 0e bf
       -0.47621012 0.3584036 -0.37859172 -0.5557591
000140 1c 2a 2f bf ac e3 e4 bf 9b 23 f3 bf 3a bf da bf
       -0.6842363 -1.788198 -1.8995241 -1.7089608
000150 8b 1f 17 c0 7a 80 96 c0 2d b9 95 c0 37 2b 96 bf
       -2.3613002 -4.703183 -4.6788545 -1.1731938
000160 9c 02 6d c0 54 48 b4 bf f0 08 5b bf ec 31 03 3f
       -3.7032843 -1.4084573 -0.8556051 0.5124805
000170 40 5e 7f bf 65 37 71 be 2e fa 9a 3e d6 fc 13 3f
       -0.9975319 -0.23556288 0.30268997 0.5780767
000180 bf f3 0f bf 33 a0 33 3e 3a e9 e3 be fe fd 05 be
       -0.562313 0.1754158 -0.44513875 -0.13085172
000190 9c 34 87 be 1f c7 05 be 19 02 fb be 11 e1 44 3c
       -0.26407325 -0.1306424 -0.49025038 0.012016551
0001a0 ec 24 b1 be fd ed 69 bf d7 31 d1 bf 3a 98 89 3e
       -0.34598482 -0.91378766 -1.6343335 0.26873952
0001b0 94 eb 05 3e 03 85 2c 3e 69 cd 0b 3e 02 e4 2e 3f
       0.13078147 0.16847615 0.13652577 0.6831666
0001c0 52 79 63 3f 1c bd c6 3e b3 1d 71 bd a6 e5 c2 3e
       0.88856995 0.38816154 -0.058866214 0.38065833
0001d0 fd c1 3b 3c 05 0a 0a 3e b7 bc 34 bf 5f cd 75 be
       0.011459825 0.13480385 -0.70600456 -0.24004124
0001e0 a1 5f a2 bc 26 c5 19 be 71 35 29 3f 59 75 ec be
       -0.01982099 -0.15016612 0.6609717 -0.4618328
0001f0 94 12 cc bd 89 0c 19 bf b5 30 d8 3c 18 42 91 bf
       -0.09964481 -0.5978475 0.026390413 -1.1348295
000200 fe 3d 62 3e 8f 3f 85 bd 72 65 27 bf b3 02 e2 be
       0.2209396 -0.065062635 -0.6538917 -0.44142684
000210 46 0d 03 bf 69 4b 61 bf fc a5 65 bf c0 b1 e5 be
       -0.5119213 -0.8800569 -0.897064 -0.44862175
000220 c8 f6 27 bf 65 4e d5 3d 0b 8a 16 be c2 df 34 bf
       -0.65610933 0.10415343 -0.14701097 -0.7065393
000230 75 78 a3 bd 57 30 9c be dc dc 82 3e c6 f4 dc be
       -0.0798196 -0.3050563 0.25559127 -0.43155497
000240 67 ed 9c be 73 e3 0c bf 72 2a 9b 3f bb 3f 42 3e
       -0.30649874 -0.5503456 1.2122328 0.18969624
000250 83 e1 d2 be e4 c9 f0 be c3 81 e9 3d ee 26 73 bf
       -0.41187677 -0.4702903 0.11401703 -0.94981277
000260 7d ee 22 be bc d9 5d bf ba f2 b4 3e 00 3b 45 bd
       -0.15911289 -0.8666036 0.35341436 -0.04815197
000270 95 0d 9c 3c 5c e3 d1 3f d9 19 a0 be e6 14 0b bd
       0.019049445 1.639751 -0.3126972 -0.033955477
000280 65 7e be 3f 14 05 3b 3f fb f4 42 3f 3a b8 d7 3e
       1.4882323 0.73054624 0.7615506 0.4213274
000290 b4 d8 89 3f 9b 05 85 be 4a 5a 6f be dd bf ee 3d
       1.0769258 -0.2598084 -0.23374286 0.11657689
0002a0 96 21 8a be 05 4e dc be a7 42 57 be f1 d9 cf 3c
       -0.2697875 -0.43028274 -0.2102152 0.025372477
0002b0 71 e0 27 be a3 e5 4d 3f 0e ec 6e bf 3b e5 cb bd
       -0.16394211 0.8042852 -0.9332894 -0.099558316
0002c0 c5 2b 04 3f d9 b7 cf bf e8 ba 43 bf 9b 3a 51 bf
       0.51629287 -1.6227981 -0.7645707 -0.8173005
0002d0 35 d8 b6 be 20 1a f5 3e 42 41 97 3e 91 bf 1a be
       -0.35711828 0.47871494 0.29541975 -0.1511214
0002e0 ed e6 db be 60 d8 a2 3f 8e e7 1d 3f ea be 24 bd
       -0.4294962 1.2722282 0.6168145 -0.040221132
0002f0 d3 96 32 3f 19 50 92 be 20 53 76 3e 69 31 0c 3f
       0.6976139 -0.28576735 0.24055147 0.54762894
000300 33 ec 27 bf 38 a2 43 3e 66 70 04 3d 2e c6 0c bf
       -0.65594786 0.1910485 0.032333754 -0.549899
000310 8c 05 d2 3d 19 c7 a7 3e 00 e1 9c bd f5 6c e1 be
       0.10254964 0.32769087 -0.07660103 -0.4402844
000320 cd 21 8f 3e 19 53 ac 3e 6f a4 1e 3f 52 1a 18 3e
       0.27955475 0.33657148 0.61969656 0.1485379
000330 eb 44 93 3d 05 a2 99 3f 1e d1 8a 3f 5a 3e c5 3c
       0.071908794 1.200257 1.0845068 0.024077583
000340 06 b6 d3 3e 45 94 10 be 9a 32 d5 3d 26 82 45 3d
       0.4134981 -0.1411906 0.10410042 0.048219822
000350 8c 28 34 3f cd 71 05 3f 54 be 52 3e ac d8 da bc
       0.7037437 0.5212677 0.20580417 -0.026714645
000360 2f ff 86 bd ee 7c b7 3c a6 db 7a 3c 0a 52 70 bf
       -0.06591641 0.022398438 0.015311157 -0.9387518
000370 a4 88 a8 be 77 c3 9e 3e ae 46 7b be 20 1e 05 3f
       -0.3291675 0.31008503 -0.24538681 0.5199909
000380 08 a3 46 3f 28 0f 15 bf c7 32 90 bf dd 31 a3 3d
       0.77592516 -0.5822625 -1.1265496 0.07968495
000390 dc f6 64 bf 60 30 69 bf eb ba 08 bf af ed 1b be
       -0.8943918 -0.9108944 -0.53410214 -0.15227388
0003a0 ff 75 08 bf 74 ee cb bd 60 4d cc be e3 80 74 3e
       -0.5330505 -0.09957591 -0.39902782 0.23877291
0003b0 d7 53 46 bf 8b 74 32 3f 02 19 e4 3e 26 95 b7 be
       -0.7747168 0.6970908 0.4455033 -0.3585598
0003c0 49 d1 5a be b6 cf e3 be 1c 1a 27 bf f4 a2 1a 3d
       -0.21368898 -0.44494408 -0.65274215 0.03775306
0003d0 05 92 20 3f 3b 68 c6 be fb 00 f9 ba 8e ff 37 bd
       0.6272281 -0.38751397 -0.0018997485 -0.04492145
0003e0 0f 61 8b 3c d5 b5 36 bf 9d 0f 1c bf da 33 28 3c
       0.017014055 -0.71371204 -0.60961324 0.010266269
0003f0 cd 07 ec 3e 5b 46 fd be 20 d8 f1 be 49 e7 d0 be
       0.46099702 -0.4946774 -0.47235203 -0.40801457

residual_blocks.0.bn2.weight f4 [32]
000000 b6 53 a5 3f a7 c8 5e 3f 3b 0e 9d 3f 63 13 7d 3f
       1.2916172 0.8702492 1.2269968 0.98857707
000010 4e 20 d6 3f 12 83 83 3f 77 0c 49 3f a8 be 8a 3f
       1.6728609 1.0274374 0.78534645 1.0839434
000020 04 1d 85 3f 9e d8 5b 3f 75 54 a6 3f 76 1d 2f 3f
       1.039948 0.85877407 1.2994524 0.6840433
000030 61 8d 6d 3f 84 5e 83 3f 21 74 81 3f 7a e3 61 3f
       0.9279385 1.0263219 1.0113565 0.88237727
000040 98 a0 48 3f 30 1d 38 3f 73 84 66 3f 13 01 66 3f
       0.78370047 0.71919537 0.9004585 0.8984539
000050 e8 e0 33 3f 8e ac 56 3f 49 8b 65 3f 3a f1 86 3f
       0.70265055 0.8385705 0.8966566 1.0542367
000060 ee f0 70 3f 6d 9d 67 3f 7f cc 4c 3f c9 2c bd 3f
       0.9411763 0.9047459 0.79999536 1.4779292
000070 b3 82 3f 3f c3 07 85 3f 60 4a 73 3f d8 f9 86 3f
       0.74808806 1.0392994 0.9503536 1.0544996

residual_blocks.0.bn2.bias f4 [32]
000000 d1 b8 7b bf 21 17 db be c2 d6 e7 be e1 5c 30 bf
       -0.9832888 -0.42791083 -0.45281035 -0.6889172
000010 19 f7 ef bd df 3d 15 bf 72 7a 79 3e e8 03 90 bd
       -0.11717052 -0.5829753 0.24363115 -0.07031995
000020 cc 32 4a 3f 03 e1 40 be b3 79 a8 bf 21 51 db be
       0.7898376 -0.18835835 -1.316214 -0.42835334
000030 c6 91 f4 be c0 85 e7 be 60 83 c2 3d 02 97 80 be
       -0.47767466 -0.4521923 0.09497714 -0.2511521
000040 26 ce b7 3a e0 c7 67 3e 0e 8f aa be 0d d6 fa be
       0.0014023229 0.2263484 -0.33312267 -0.48991433
000050 14 5a b5 bf 38 e7 39 be 76 65 f6 bd 58 73 9b 3f
       -1.4168115 -0.18154609 -0.12031071 1.2144575
000060 e2 ce 81 3a 9c 2d e7 be c8 22 c7 be 74 21 e8 be
       0.0009903575 -0.45151985 -0.38893723 -0.45338023
000070 f1 78 53 be 5d 0a 10 bf 9f ac f3 be 62 f5 16 bf
       -0.20651604 -0.56265813 -0.47592637 -0.58968174

residual_blocks.0.bn2.running_mean f4 [32]
000000 8e 4a 1b c1 63 02 10 c0 11 66 22 c1 a8 30 91 c0
       -9.705702 -2.2501457 -10.149919 -4.5371895
000010 4d bb 35 c1 9d b0 3c be d2 95 47 c0 1c 27 94 c0
       -11.358228 -0.18426748 -3.1185193 -4.629774
000020 9e cb 29 40 f4 81 1b 3f d5 5f b2 c0 e6 08 6e c0
       2.6530528 0.6074517 -5.5741982 -3.719293
000030 3f 15 da c0 2d 27 8d 3f c2 6b 03 41 de 70 29 c0
       -6.8150935 1.102758 8.213808 -2.6475139
000040 73 5a b6 c0 93 b1 e1 c0 bd 1b 77 c0 4b 67 40 c1
       -5.698541 -7.0529265 -3.861068 -12.025218
000050 d3 01 1d c1 86 02 3d 3f dc 52 00 41 64 36 e0 40
       -9.812945 0.73831975 8.020229 7.0066395
000060 32 43 f8 bf 8a fa fb bf 5f 25 91 bf de 22 98 c0
       -1.9395506 -1.9685833 -1.133953 -4.7542562
000070 72 01 2e c0 15 35 06 c0 c5 a2 83 c0 12 22 5c be
       -2.7188382 -2.0969899 -4.1136193 -0.21497372

residual_blocks.0.bn2.running_var f4 [32]
000000 b4 99 30 42 ff f8 5d 42 f4 71 18 43 a2 39 7e 42
       44.1501 55.49316 152.44513 63.556282
000010 eb 67 32 43 f4 06 aa 42 42 7d 91 42 11 8b d3 42
       178.40593 85.01358 72.744644 105.771614
000020 d8 b4 99 42 17 6a b9 42 96 61 a0 42 54 e3 4e 42
       76.85321 92.70721 80.1906 51.722
000030 2e 13 89 42 0a 80 de 42 75 e8 c7 42 d2 9e 8e 42
       68.53746 111.25008 99.95402 71.310196
000040 d4 77 84 42 0d 5d 1a 43 7c bc 8f 42 08 e1 a4 42
       66.23404 154.36348 71.86813 82.439514
000050 19 01 f6 42 3d 5e 74 42 1b 3a 73 42 18 de 35 43
       123.002144 61.09203 60.806744 181.86755
000060 b0 0f 84 42 c0 c4 61 42 7b bd af 42 6d 58 d2 42
       66.03064 56.44214 87.87008 105.17271
000070 d0 5f 96 42 e1 40 81 42 ec 81 05 43 07 16 74 42
       75.18713 64.62672 133.5075 61.02151

residual_blocks.1.conv1.weight f4 [32, 32, 3, 3]
000000 99 4a 91 3f 8a 65 ea 3f 0c d1 bc 3d f2 c5 87 3f
       1.135089 1.8312237 0.0921956 1.0607283
000010 2b 7c aa 3f e7 6d 3c 3f b1 a0 87 3f ae eb 90 bd
       1.3319143 0.736052 1.0595914 -0.07076202
000020 a8 eb 42 be bf 2b 26 be b9 52 53 3f e9 8a 16 bf
       -0.19035208 -0.16227625 0.825481 -0.5880571
000030 b9 94 52 bf 97 3e 0a 3f 07 e3 24 3f b0 11 0c bf
       -0.8225818 0.54001755 0.64408916 -0.5471449
000040 12 03 3c bf a1 c2 47 3f fc 1b 52 3f bf 50 69 bf
       -0.73442185 0.78031355 0.8207395 -0.91138834
000050 dc 3d 17 bf 62 d9 6c be 40 13 49 bf 2d 78 89 3d
       -0.59078765 -0.231298 -0.78545 0.06712375
000060 39 c6 91 bf 3f ca 3c bf c8 5b de bf 11 9f 1b be
       -1.1388618 -0.73746103 -1.737176 -0.15197398
000070 c0 ef 7b 3e 1f 50 97 3e 8b 31 22 bf 62 eb 6b bd
       0.24603176 0.29553315 -0.63356847 -0.057597525
000080 0b 90 50 3e 16 68 1d bf 8d 7c b4 3e 21 37 25 3e
       0.20367448 -0.6148695 0.35251275 0.16134311
000090 30 e9 5d 3f b8 00 6e 3f bd fb 71 3e a2 49 88 3d
       0.8668394 0.92969847 0.23631187 0.06654669
0000a0 df 84 91 bf 65 4f a7 be 33 cc 68 bf 20 45 9d bf
       -1.1368674 -0.3267776 -0.90936583 -1.228672
0000b0 8e ac c6 bd c0 08 2a bc d2 aa 9e 3f 2f 51 09 c0
       -0.09700881 -0.010378063 1.239588 -2.14558
0000c0 36 74 91 3f 2b 71 8f bf f3 22 9a 3f 46 e6 20 3f
       1.136359 -1.1206411 1.2041916 0.6285137
0000d0 80 60 a6 3c 48 d8 f8 be e7 43 20 bf 29 a9 e4 bd
       0.020309687 -0.4860251 -0.6260361 -0.11165077
0000e0 55 80 9d be cb a7 91 bf 0e 5d 3e bf 41 d0 1d 3f
       -0.30761972 -1.1379331 -0.7436074 0.61645895
0000f0 e1 db 98 be ad 8d ae 3e 82 10 17 3f 69 c1 9c bf
       -0.29855254 0.34092465 0.59009564 -1.2246524
000100 f3 17 9b bf c8 a6 75 bf 4e 51 5b be 73 08 90 3e
       -1.2116684 -0.95957613 -0.21417734 0.28131446
000110 92 14 a9 3d 15 2d f6 be 9c 69 5e bf 6f 77 97 bf
       0.082558766 -0.4808127 -0.868799 -1.1833323
000120 9f d6 d6 3f 99 e1 cd be 72 8b 83 be bf 73 00 bf
       1.6784247 -0.4021118 -0.25692326 -0.50176615
000130 5f bb 97 3e 15 87 a6 3e 26 68 e2 be 8a c9 a8 3e
       0.2963514 0.32524934 -0.44220084 0.32966262
000140 9b a1 a5 3e 9a 7d 0a 3d 86 c4 ea 3d 0d a2 26 bf
       0.32349858 0.03381119 0.11463265 -0.6509102
000150 1d 4b 3f 3e 97 79 8f be 29 46 e7 3e 24 38 6a 3b
       0.18680997 -0.28022453 0.45170715 0.0035739029
000160 fe be 51 be d3 85 5d 3e c5 b1 47 bf 75 ca 9f 3f
       -0.20483014 0.21633081 -0.7800563 1.248366
000170 a6 ff f3 bd 0a 8e 7f be 60 87 8b bf 00 48 22 3f
       -0.119139954 -0.24956527 -1.0900688 0.63391113
000180 fa e3 93 3f 5b b0 f3 3e d2 95 39 bf 1c a3 50 3f
       1.1553948 0.47595486 -0.7249423 0.81498885
000190 0b 71 32 3f 62 91 a1 be 93 1a a3 be 20 aa 84 bd
       0.6970374 -0.3155623 -0.31856212 -0.06477761
0001a0 7c 74 27 bf a4 85 0e bf aa 0a 56 bf 3d 7a b4 bf
       -0.65412116 -0.5567267 -0.8361002 -1.4099804
0001b0 95 a6 9c bf 5a cc 05 bf 41 76 3a bc 71 46 47 3f
       -1.2238337 -0.5226494 -0.011380733 0.7784186
0001c0 6f 27 87 be 6c ea 31 bd d9 d8 22 3e ec 88 db 3e
       -0.26397273 -0.043436453 0.15903033 0.428779
0001d0 02 3e 53 3f d2 18 b2 3f c2 59 ad be 13 d2 14 3f
       0.8251649 1.3913825 -0.33857542 0.5813305
0001e0 b8 9f f5 3e 75 dd 9e 3e b5 41 e6 be f3 57 3a 3e
       0.47973418 0.31028333 -0.44972005 0.18197612
0001f0 31 51 63 3d 50 4b 88 3f c1 9a 1d be d7 d0 60 be
       0.055497352 1.0647984 -0.15391065 -0.21954666
000200 5d 4f 7c 3f ed 51 ea be 10 a5 a8 bf 00 31 fc 3e
       0.985586 -0.4576563 -1.3175373 0.49256134
000210 76 18 8e 3e 35 5c 06 bf 71 e6 05 3f 47 0a c2 3f
       0.27753037 -0.52484447 0.5230475 1.5159386
000220 72 f5 a8 3d 73 6a 48 bf a5 69 97 3e 51 db d0 3e
       0.0824994 -0.7828743 0.29572788 0.40792325
000230 6c ce 29 3e 2c 59 9d be bd 8d ad bd b8 79 83 3f
       0.1658265 -0.30732095 -0.084743 1.0271521
000240 a3 f1 9e bf ba 54 98 3f 2e b0 06 40 42 d8 4f 3f
       -1.2417492 1.1900856 2.1045032 0.8118936
000250 69 cb 99 be ca b4 a5 be d4 9b 8f 3e 1f f2 bb be
       -0.30038002 -0.32364494 0.28048575 -0.3670816
000260 14 c4 43 bd 81 b6 65 3f e1 2e 52 3f ba c1 30 3c
       -0.047794417 0.89731604 0.8210278 0.0107883755
000270 83 ee 14 bf d4 ab 1d bf fe 3b b8 bf f6 d1 a0 bf
       -0.5817644 -0.61590314 -1.4393308 -1.2564075
000280 d3 ab 8b bf 2b d2 8a bd 2f 72 41 3f a4 9a b4 3f
       -1.0911812 -0.067783676 0.75564855 1.4109693
000290 3a fb 4b 40 1a 2f 34 be e5 9b b4 3e 44 b4 c5 bd
       3.1872087 -0.17596093 0.35275188 -0.096535236
0002a0 6a 4d d8 3e af e7 ec 3f 61 e1 f4 3e f9 1a 77 bf
       0.42246562 1.8508204 0.478282 -0.9652553
0002b0 5c ac 64 bf 0a 31 f4 be fd f4 5d bd 03 83 f3 be
       -0.893255 -0.47693664 -0.054188717 -0.47560892
0002c0 14 ef 48 3f f3 2f a0 be 1a 0e be bd e6 98 5f bf
       0.78489804 -0.31286582 -0.092800334 -0.8734268
0002d0 4e da a2 3e f6 bd d6 3f 1d 26 1a 3f a6 a2 97 3f
       0.31807178 1.6776721 0.60214406 1.1846511
0002e0 15 b2 a0 3f 11 cb 0a 3f 3e 6b 7d 3f 51 43 a2 be
       1.2554346 0.54216105 0.98991764 -0.31691983
0002f0 4e a6 3c 3f 9b 5b 59 bf f4 28 41 bf 7e 6c 00 be
       0.7369126 -0.84905404 -0.75453115 -0.12541386
000300 01 3f 92 3e f4 c7 fa 3d 9c 5b b9 be 4b 43 48 be
       0.28563693 0.12245169 -0.36202705 -0.1955692
000310 f4 20 34 be 77 93 37 be 04 16 a8 3d ff c8 25 3f
       -0.17590696 -0.17927347 0.08207324 0.6475982
000320 ab f1 8b 3f 93 2e 92 3e c7 0a fb 3e f8 3b 43 3e
       1.0933126 0.28551158 0.4903166 0.19065845
000330 67 b1 84 3e 0a 5c 86 3e c2 b5 96 3e 3c 6a a8 bc
       0.25916597 0.26242095 0.29435545 -0.020558469
000340 fe 8d 1a 3e 0f b0 00 3e cd 81 73 3e a6 d9 c6 3d
       0.15093228 0.12567161 0.23779984 0.09709482
000350 c4 de d8 be 29 37 83 3d 87 d8 41 be a0 f6 9d bd
       -0.42357457 0.06407005 -0.18930255 -0.077130556
000360 e5 7d 34 bf 63 49 8e be a2 67 6c be c5 3b eb bb
       -0.705046 -0.27790365 -0.23086408 -0.007178756
000370 ad 56 29 3f 5a 8e ad 3e a1 fa 35 3f 4b 15 a0 3f
       0.6614788 0.33897668 0.71085554 1.2506498
000380 ea 5c 48 3f 38 89 08 bf 58 07 2b bf aa 13 36 bf
       0.78266776 -0.5333438 -0.6680808 -0.71123755
000390 c0 17 a6 be d7 4b c7 bd 15 49 39 bf a7 6e d2 bd
       -0.32439995 -0.09731262 -0.7237714 -0.102750115
0003a0 7f cf eb be 79 e3 7e bf 44 5c 42 3f f8 96 8a be
       -0.46056744 -0.99565846 0.75922036 -0.27068305
0003b0 60 ad 2c 3f 3f d0 88 bf 74 c4 a4 3e 9e 97 93 bc
       0.6745205 -1.0688552 0.32181132 -0.018016633
0003c0 8f e1 80 bf 41 93 0a bf ec 1f 27 bf 45 9c 1b 3e
       -1.0068835 -0.5413094 -0.65283084 0.15196331
0003d0 1d 7a 41 3f 52 ad d2 3e 11 39 a8 3c b6 b4 04 3f
       0.75576955 0.41147858 0.020535024 0.51838243
0003e0 53 e3 1d 3f 73 06 a5 3e 49 02 d8 be d9 26 d5 be
       0.61674994 0.32231483 -0.42189243 -0.416312
0003f0 5d f3 97 bf f4 b4 d7 3d 62 01 e4 3e 4a 0b 28 3e
       -1.1871144 0.10532561 0.44532305 0.16410556

residual_blocks.1.bn1.weight f4 [32]
000000 d1 2e 98 3f ef 40 a8 3f 97 ff aa 3f f2 da 9d 3f
       1.1889287 1.3144816 1.335925 1.2332442
000010 7b b3 6b 3f c7 e1 9e 3f 52 36 c0 3f 49 9d e3 3f
       0.9207074 1.2412652 1.5016577 1.7782375
000020 51 c7 90 3f f9 ce a5 3f 56 17 5f 3f ad d8 b2 3f
       1.1310827 1.2953788 0.8714498 1.3972374
000030 cb 7c 73 3f 52 44 a7 3f 36 04 a4 3f 95 58 7a 3f
       0.95112294 1.3067725 1.2813785 0.97791415
000040 99 c1 79 3f 86 fa c4 3f 84 f2 65 3f d9 b7 b9 3f
       0.9756103 1.5388954 0.89823174 1.4509231
000050 d6 d7 81 3f 9e 64 90 3f 69 43 a0 3f f6 36 ae 3f
       1.0143993 1.1280706 1.2520572 1.3610523
000060 0c bc 91 3f 12 32 79 3f bf 6e ae 3f d2 e3 a1 3f
       1.1385512 0.97342026 1.3627547 1.264765
000070 be 92 ab 3f b8 4e ab 3f 46 10 9d 3f 8b ba a1 3f
       1.3404157 1.3383398 1.2270591 1.2635053

residual_blocks.1.bn1.bias f4 [32]
000000 56 ca 01 bf 73 f1 91 3e c4 72 86 bf 81 f2 bb be
       -0.50699365 0.28504524 -1.0503774 -0.36708453
000010 70 2a 6a 3e d9 9a d0 bd f8 91 a4 3e a6 7d cd bf
       0.22867751 -0.10185785 0.32142615 -1.605397
000020 27 b0 17 bf 05 b2 8d bf eb 16 1e 3f 34 99 7d bf
       -0.5925316 -1.1069952 0.6175372 -0.99061894
000030 57 4d 33 3e 78 01 10 3f 65 5f 02 bf 06 1b 2d 3c
       0.17509972 0.5625224 -0.5092681 0.010565525
000040 6c 08 29 be d8 49 ac bf 05 a0 e6 bd 54 aa 8e bd
       -0.16507119 -1.3460035 -0.1126099 -0.06966081
000050 4d 1f ab be fb 62 7c bd e1 a9 27 bf 3d 8f 82 bf
       -0.33422318 -0.061617833 -0.6549359 -1.0199963
000060 16 32 4f bf c5 23 3b bd 54 f8 9c 3e 04 d7 ee be
       -0.809358 -0.04568841 0.3065821 -0.4664842
000070 9c c0 51 be 8d 05 e8 be 4c 75 02 bf 8e 41 87 3e
       -0.20483631 -0.45316735 -0.5096023 0.26417202

residual_blocks.1.bn1.running_mean f4 [32]
000000 72 b6 6f c0 2a 44 74 c0 9c 37 1a c1 03 44 62 c0
       -3.7455106 -3.8166604 -9.6385765 -3.535401
000010 74 f8 aa c0 ed f9 9c 40 7e 33 67 be 38 72 40 c0
       -5.3428288 4.9055085 -0.22578236 -3.0069714
000020 97 f6 59 40 c5 2e 00 c1 45 a7 32 40 b3 9e 4d 40
       3.4056756 -8.011418 2.7914593 3.2128112
000030 cc c8 39 41 f8 8c 4f 41 65 19 79 40 b7 69 08 41
       11.611523 12.971916 3.892175 8.525809
000040 2f aa 25 c0 9d 03 41 c1 68 a5 95 3f 16 61 05 41
       -2.5885122 -12.063382 1.1691103 8.336203
000050 8b 74 0f 41 e1 1d e5 bf 65 bd f3 c0 67 e9 c5 c0
       8.965953 -1.7899743 -7.6168694 -6.1847415
000060 e5 a6 38 3f 28 f8 f7 c0 2a 81 bc c1 3f 4a f9 bf
       0.7212966 -7.7490425 -23.563068 -1.9475783
000070 e4 33 25 c0 46 2d c1 3f 2a 40 80 c0 dd 31 21 40
       -2.5812922 1.5091941 -4.0078325 2.5186684

residual_blocks.1.bn1.running_var f4 [32]
000000 76 15 ba 42 a9 85 e5 42 99 04 8c 42 94 47 c5 42
       93.041916 114.761055 70.00898 98.6398
000010 18 5c cd 42 af bb 11 43 81 d7 4d 43 50 03 df 42
       102.67987 145.73314 205.84181 111.50647
000020 b9 ca a9 42 3c ab 99 42 23 19 e2 42 3a ed b0 42
       84.89594 76.83444 113.049095 88.46333
000030 06 60 92 42 7e d7 1a 43 0b bb 85 42 4d ba 09 43
       73.187546 154.84177 66.86532 137.72774
000040 d7 66 c9 42 d5 1b 99 42 db df 9f 42 91 14 66 43
       100.70086 76.55436 79.93722 230.08034
000050 3e be 9b 42 bb 73 f6 42 e8 0f 95 42 d1 c2 bd 42
       77.87157 123.226036 74.53107 94.8805
000060 c4 8d b8 42 92 1c 98 42 01 f8 30 43 63 52 cf 42
       92.276886 76.0558 176.96877 103.66091
000070 f1 6f 04 43 7e 1b bc 42 b8 2d 04 43 83 62 ed 42
       132.43727 94.053696 132.17859 118.692406

residual_blocks.1.conv2.weight f4 [32, 32, 3, 3]
000000 cc a6 86 3f 46 3e 13 bf d4 28 12 3e ad ba b3 bc
       1.0519652 -0.57516897 0.14273387 -0.0219396
000010 2b ba bd be da 8d a1 be 15 02 8a 3e 87 db ec be
       -0.37056097 -0.31553537 0.26954713 -0.46261236
000020 ce 30 61 3f 21 7f 20 3e 78 36 5f 3e 2f 55 6e be
       0.87965095 0.15673496 0.21798122 -0.23274682
000030 6e 4c 0d 3f 6e d1 85 3e 1e af e4 3e f0 63 a0 bf
       0.5519475 0.26136345 0.44664854 -1.2530499
000040 e0 73 80 bf d3 41 4a bf 4a 35 14 be 8c 94 f8 bd
       -1.0035362 -0.7900669 -0.14473453 -0.12137708
000050 10 da 2d 3e 95 8d 64 bf c0 16 0b 3e 38 8d 9f 3f
       0.16977715 -0.8927854 0.13582897 1.2464972
000060 32 5d cf bc ec 35 75 bf 8e 98 ac 3f cb 9b d2 3e
       -0.025312994 -0.95785403 1.3484056 0.41134486
000070 5a cf 32 bf de e5 c1 bf d6 52 45 3d 2a 6c 41 3e
       -0.69847643 -1.5148275 0.0481747 0.18888918
000080 0b b1 05 c0 d9 f4 89 3f 4b 97 72 3e 63 a3 3f bf
       -2.0889308 1.0777847 0.23690526 -0.74858683
000090 12 ac 13 bf 42 c3 0f be ab 81 db 3d d0 e9 ce 3d
       -0.57684433 -0.14039329 0.107180916 0.1010319
0000a0 f9 0d 74 be 09 0f a3 3f d9 a8 12 bf ce 68 0f 3f
       -0.23833455 1.2738963 -0.5728889 0.56019294
0000b0 3b 8e a2 3f bd 1c 0a 3e 76 9d 96 be aa bf 88 be
       1.2699655 0.13487525 -0.29417008 -0.26708728
0000c0 32 39 52 bc 66 e0 c0 3f 11 18 36 bf 6b 12 2b 3d
       -0.012831019 1.5068481 -0.7113047 0.04176561
0000d0 fc 7e 52 bf 57 91 96 3f 9b 48 ba 3d 9d d2 ee 3e
       -0.8222501 1.1763104 0.0909588 0.4664506
0000e0 da 8c ae be 76 2c 52 bd 12 f9 36 be 7d cd 0b 3f
       -0.34091836 -0.051311933 -0.1786845 0.54610425
0000f0 41 c6 01 3e ac c3 24 3f 47 4e b3 bd 49 b4 7e 3f
       0.12673284 0.6436107 -0.087551646 0.99493843
000100 b7 5c 73 3f d5 88 e2 bc c8 e4 45 bf 1e 5f 61 3f
       0.95063347 -0.027653137 -0.7730222 0.8803576
000110 59 2d b8 3f 5e e1 c0 be 53 69 22 3f 29 cd 3b 3f
       1.4388839 -0.37671942 0.6344196 0.73359925
000120 f1 a3 2d be b2 e4 8f 3e 16 11 3e 3e 24 2e 87 3e
       -0.1695707 0.28104168 0.18561205 0.2640239
000130 d8 f4 93 bf d4 11 cf be e5 ae 4d be b6 7e fc be
       -1.1559095 -0.4044329 -0.20086248 -0.49315423
000140 3f 23 c8 be 9a 9d 3d bf e4 bf da be 10 f5 5f 3f
       -0.3908939 -0.74068606 -0.42724526 0.8748331
000150 4b 84 b3 bf 13 5d 8e be eb f4 06 3f c9 88 82 be
       -1.4024748 -0.27805385 0.52717465 -0.25494984
000160 91 d7 1a bf 2b 85 77 3f 36 70 07 3f c0 93 b1 be
       -0.6048518 0.96687573 0.52905595 -0.34683037
000170 15 6a c9 be 6a 8a 0d 3b 1e 34 9e be 9b 6b 2a bd
       -0.39338747 0.0021597394 -0.30899137 -0.041606527
000180 ed 26 b2 3e 69 65 3d bf a7 9c ca bc 9d ba 84 be
       0.34795323 -0.73982865 -0.0247329 -0.25923625
000190 b2 54 1a 3f a8 dd 03 40 bc 6c c7 be 17 4d d9 bf
       0.60285485 2.0604038 -0.38950145 -1.6976651
0001a0 1c 64 17 3f 7d 24 4f 3e 85 ab 23 be 2a b1 d2 3f
       0.5913713 0.20228763 -0.15983398 1.6460316
0001b0 a3 a5 f5 bd 15 c0 df be 13 08 ad bd 65 ba 27 be
       -0.11994483 -0.43701234 -0.08448806 -0.16379698
0001c0 bd 31 ab 3e f3 c1 f3 3e 81 d3 97 be 70 05 e0 be
       0.33436385 0.4760891 -0.29653552 -0.43754148
0001d0 b8 38 b1 be 15 4d 80 3e 48 b7 55 3e d7 d4 01 3e
       -0.34613585 0.2505881 0.20870697 0.12678848
0001e0 3b 36 29 3f 8b 8c 93 bd df 6f 1a bf 01 2b bd 3d
       0.66098374 -0.07204541 -0.6032695 0.09236718
0001f0 fb 18 66 bf 2d 32 c9 bf ad 6d b9 3f 05 6a af 3b
       -0.8988187 -1.5718437 1.4486595 0.0053532147
000200 90 4b 1a 3e 02 98 da bc 29 bf 88 bd e7 33 17 3f
       0.15067887 -0.026683811 -0.06677086 0.5906357
000210 b5 a2 9d bf 08 72 1f 3f 4d c5 65 bf 45 c3 1a bf
       -1.2315279 0.6228337 -0.8975418 -0.6045421
000220 00 e5 b3 be ca 26 26 3e 83 f8 2a 3f 44 4b 29 3f
       -0.3513565 0.16225734 0.6678545 0.6613047
000230 24 5c e1 be 07 cd 73 3f c0 2d c5 3e 90 b0 fe be
       -0.4401561 0.9523472 0.38511467 -0.49744081
000240 40 c1 05 3f f9 e2 8b 3e 07 51 35 bf 1e b7 c0 bb
       0.52248 0.27321604 -0.7082676 -0.0058812043
000250 8b 03 2a 3e 21 21 a8 3f 30 a8 76 3e 42 cb f8 be
       0.16602914 1.313511 0.24087596 -0.48592573
000260 26 4a 6e 3f c8 0e 33 bf ba d6 92 3f c2 69 0c c0
       0.9308189 -0.6994443 1.1471779 -2.193955
000270 cc e4 20 3f 19 57 6b 3f 9f a9 f6 3f de 97 9a bf
       0.62849116 0.91929775 1.9270514 -1.2077596
000280 59 d8 b1 be c4 ed 21 40 e0 f1 71 bf 45 fe b0 bd
       -0.34735373 2.530137 -0.94509697 -0.08642248
000290 76 e8 80 3f fc ea 78 bf 43 3d d2 be 30 92 27 bf
       1.0070941 -0.9723356 -0.41062364 -0.6545744
0002a0 10 f7 1b be cc d8 87 bf e2 ab 1d bf e4 59 09 3f
       -0.15230966 -1.0613036 -0.615904 0.5365279
0002b0 30 f4 d7 3d d7 63 b5 bf 7d b7 4d 3f a1 b3 6b 3f
       0.10544622 -1.4171094 0.80358106 0.92070967
0002c0 45 2a 67 bd c7 e6 0c bf 6e b6 97 3e f6 96 02 bf
       -0.056436796 -0.5503964 0.2963137 -0.510116
0002d0 b5 cb 88 3e 3b 5f 16 3f b6 41 18 bf c3 55 8f bf
       0.26717916 0.5873906 -0.59475267 -1.1198047
0002e0 18 86 cc bd 40 1a e6 bd 91 7b a0 bd d2 8c 40 bd
       -0.09986514 -0.112354755 -0.078360684 -0.047009297
0002f0 28 f3 b2 3e 8c df 5a 3f cf 63 f3 be f0 f8 dd bd
       0.34951138 0.85497355 -0.47537085 -0.10838497
000300 f7 67 5f 3f b3 ad 24 3f bb 98 e5 be 19 a8 a2 bd
       0.8726801 0.64327544 -0.44843087 -0.07942218
000310 3c 3c 3a bf 20 b4 79 3e fc 3d af bf 5e 98 91 3e
       -0.7274816 0.24385118 -1.3690791 0.2843656
000320 5f ad 97 3e c2 f0 d3 be a1 a0 0f be 2d 77 06 3f
       0.2962446 -0.4139462 -0.14026119 0.525256
000330 8f 05 b1 3e d8 3c 1d 3f 0e 59 c6 3f 1a a6 eb be
       0.34574553 0.61420965 1.5495927 -0.46025163
000340 27 7d 99 bf 54 47 ec be 9f a7 6b bf aa 2a 65 3f
       -1.1991318 -0.4614817 -0.92052644 0.89518225
000350 e6 81 c7 be 0b 5c 09 bf 4a 0f e5 be c8 50 fb 3d
       -0.38966292 -0.5365607 -0.44738227 0.12271267
000360 cd 23 71 3e 2a d6 77 bf 8c 83 6b bf 28 e2 41 be
       0.23548813 -0.96811163 -0.919976 -0.18933928
000370 e5 14 d3 3e f2 90 86 be c2 d6 68 bf c8 52 75 bf
       0.4122688 -0.2628246 -0.90952694 -0.9582944
000380 56 cd 9b bf 7c 06 c9 bf 21 ea fa 3e a3 bd 18 3f
       -1.2172039 -1.5705104 0.4900675 0.5966436
000390 6a 1b 41 3e 0e 16 8f 3e c2 c4 17 3f f5 a5 1d 3f
       0.18858114 0.27946514 0.59284604 0.61581355
0003a0 fe f2 82 3f c9 42 e7 3f 2b ef 8a be 6f 1b a9 be
       1.0230405 1.8067256 -0.27135596 -0.33028743
0003b0 c6 85 7f 3f b1 9c 5a 3d 46 df 17 3f ac 8c 9b 3e
       0.998135 0.05337209 0.59325063 0.30380762
0003c0 2a bc 4b 3f 6a 75 06 3f a0 5a e7 3f e0 f8 8c 3f
       0.7958399 0.5252291 1.8074532 1.1013451
0003d0 64 f2 1f 3e 22 e7 1c 3f fd 40 92 3d e7 e3 52 3f
       0.15619808 0.6129018 0.07141302 0.82379
0003e0 a2 cf a2 3d 58 e9 1e 3f cf 7e 8e 3f a3 5b ba bf
       0.07949759 0.62074804 1.1132449 -1.4559215
0003f0 67 9f 69 3f b5 45 07 bf 78 7e 81 bf 5d 67 50 bf
       0.91258854 -0.5284074 -1.011672 -0.8140772

residual_blocks.1.bn2.weight f4 [32]
000000 44 43 c5 3f 53 68 8d 3f 4e fd 80 3f 8c e9 ae 3f
       1.5411153 1.1047462 1.0077302 1.3665023
000010 79 7c 3b 3f 01 ec b8 3f 67 68 75 3f 19 f6 71 3f
       0.73236805 1.4447023 0.9586243 0.9451614
000020 02 db 6f 3f 67 e9 2f 3f 7f 69 b4 3f 6d 41 8f 3f
       0.93693554 0.6871552 1.4094695 1.1191841
000030 bb 4d a6 3f bf a8 73 3f d6 15 9f 3f f7 ae 8d 3f
       1.2992471 0.9517936 1.2428539 1.106902
000040 d8 1e ac 3f 2e a2 90 3f b3 d8 a1 3f 25 68 83 3f
       1.3446913 1.1299493 1.2644256 1.0266157
000050 55 6e 87 3f fe 37 a8 3f 38 8b 8b 3f 0b 3c 9b 3f
       1.0580546 1.3142087 1.0901861 1.2127699
000060 e1 e5 78 3f ad db 5f 3f ff eb 4f 3f e6 ad a5 3f
       0.9722577 0.87444574 0.81219476 1.2943695
000070 b9 f4 6a 3f 7f 0b 6c 3f a4 b9 bd 3f 22 02 bd 3f
       0.9177967 0.9220504 1.4822278 1.4766276

residual_blocks.1.bn2.bias f4 [32]
000000 3d 8c 6c bf 40 82 3a bf 04 98 6e be ca ba 40 bf
       -0.92401487 -0.72854996 -0.23300177 -0.7528502
000010 74 0f e5 be 09 81 9b bf b7 eb 2e bd d2 c3 5b bf
       -0.44738352 -1.2148753 -0.042705264 -0.85845673
000020 fc f1 84 3e e6 a2 b3 bf 00 78 df be b2 5d 6c be
       0.2596587 -1.4034088 -0.4364624 -0.23082617
000030 62 8d 28 bf 35 5d a5 bf 0f 3c 32 bd c0 d2 df be
       -0.65840733 -1.291907 -0.043514308 -0.43715477
000040 0e 27 a6 3d 5e 4e 1e 3e 9d 1c a5 be bc dd 69 bf
       0.08112918 0.15459582 -0.32248393 -0.91353965
000050 e0 62 54 bf 84 e1 83 bf 9e 1d a0 bf 9d e2 56 3f
       -0.8296337 -1.0303197 -1.2509038 0.83939534
000060 d6 44 ca be a7 53 4c bd 12 3b bb be 5e e2 a7 be
       -0.39505643 -0.049884465 -0.36568505 -0.32789892
000070 a6 a0 bc 3d 3e fd 8b bf 61 44 29 bf 6c 90 bb bf
       0.09210329 -1.0936658 -0.6611996 -1.4653449

residual_blocks.1.bn2.running_mean f4 [32]
000000 03 9f e1 3f eb 79 cf 3e 1e cc c4 c0 1c ec 1d 40
       1.7626652 0.40522704 -6.1499166 2.467536
000010 e9 e8 32 c0 a6 d7 34 bf 03 38 59 bf de 30 80 40
       -2.7954657 -0.70641553 -0.8485109 4.005965
000020 13 2f c4 3e 41 6c 46 c0 d6 a2 26 41 9c c9 94 40
       0.38317165 -3.1003573 10.414755 4.6496105
000030 36 fd c4 be c4 2b f1 c0 93 2e 26 bf 4f 82 3d 3f
       -0.38474435 -7.5365925 -0.64914817 0.7402696
000040 94 5f 76 3f e9 1c fe 40 5a d8 e8 bf fa 7b e0 c0
       0.9623959 7.941029 -1.8191025 -7.015134
000050 c1 86 88 c0 b3 4e ca bf 57 2d 1b 40 17 81 25 c0
       -4.2664495 -1.5805267 2.4246423 -2.586004
000060 28 35 ac 3f 17 a6 fc 3d ab 9b c5 40 d7 d9 1b bf
       1.3453722 0.123363666 6.1752524 -0.6087927
000070 53 79 3e 40 4c 76 f5 40 e6 d3 bf c0 3f 61 ed c0
       2.976155 7.6706905 -5.9946165 -7.418121
