backend_engine/ml/models/session_1764625687/epoch_2_64ch_3resblocks.pth (torch, 990759 bytes, 39 tensors)

conv.weight f4 [64, 20, 3, 3]
000000 9b c0 a8 bf 72 e0 57 3e af 6b 08 bf bc 30 a7 bf
       -1.3183779 0.21081713 -0.5328931 -1.3061748
000010 aa e5 ae c0 26 16 e4 be 5c 8e 38 c0 d3 63 3c c0
       -5.465535 -0.44548148 -2.883689 -2.9435928
000020 c9 df 73 bf 88 0d b1 bf 72 0d ba c0 40 70 03 c1
       -0.95263344 -1.3832254 -5.8141413 -8.214905
000030 cd 0d 60 c1 77 97 a1 bf d1 46 2b c1 0d dc 7a 3f
       -14.003369 -1.2624348 -10.704789 0.9799202
000040 7e 43 4b c1 76 5a c9 be df 66 2d c0 4b bf 0f 40
       -12.703978 -0.3932683 -2.7094038 2.2460506
000050 8b 26 4b c0 54 49 62 bf 60 3b 25 c1 5c f7 91 be
       -3.1742275 -0.8839314 -10.326996 -0.28509033
000060 66 03 fd bf 9f 9b 1e c0 f7 af f9 c0 b6 7a 99 bc
       -1.9766662 -2.4782484 -7.80273 -0.018735271
000070 d4 be 1a c1 18 a4 ca 3f 04 82 86 3f 2c a6 d9 be
       -9.671589 1.5831327 1.0508428 -0.42509592
000080 aa 8a 6e c0 2f 82 8f c0 3a 73 b2 c0 e4 42 97 c0
       -3.7272134 -4.4846416 -5.5765657 -4.7269154
000090 87 da 9c 3f 04 08 cf be ff 62 d6 3e 2f 78 fd 3f
       1.2254189 -0.40435803 0.41872403 1.9802302
0000a0 5a cc 81 c0 d7 19 34 c0 b8 da 4f be f2 8a 90 c0
       -4.0561953 -2.8140771 -0.20298278 -4.516961
0000b0 17 a3 82 c0 49 6f 5a 3f fe f0 87 40 e3 92 92 40
       -4.0824084 0.8532606 4.248168 4.5804305
0000c0 9e dd ba 3f 43 60 af 40 d8 ea a3 3f a3 9f 64 3f
       1.4598882 5.4805007 1.2806044 0.89306086
0000d0 44 45 4d 3f 94 ac 5d 40 3a 94 08 40 da e6 ed be
       0.80183816 3.4636583 2.134047 -0.46465188
0000e0 d9 9f 4b 3f ef fa 82 3f af d9 43 bf e6 02 65 bf
       0.79540783 1.0232829 -0.76504034 -0.8945755
0000f0 ee b7 7d 3e 0f eb 60 3f 44 f1 66 3e cd 81 87 c0
       0.24777195 0.8785867 0.22552973 -4.234595
000100 70 d6 74 bf bf cc 03 3e 90 06 07 3f af b2 60 3f
       -0.95639706 0.12871073 0.5274439 0.8777265
000110 5f 3d b8 3f 6e 8e 74 bd 2b 7c 86 3f 08 0a 2f 40
       1.4393729 -0.059706144 1.0506643 2.7349873
000120 58 ea 11 40 02 ab 60 3f ca 55 8f 3f db f9 ad 3f
       2.2799282 0.8776094 1.1198056 1.3591875
000130 74 b7 e7 3f e0 8e a5 3f c3 d7 e9 3f ae d4 d9 3f
       1.810286 1.2934227 1.826897 1.701803
000140 04 20 85 40 f3 cd a9 40 ff f7 87 40 b0 a2 b7 40
       4.160158 5.3063903 4.249023 5.7386093
000150 8e 0f 17 3f 2c 83 0e 40 40 57 83 40 ba 9d 96 3f
       0.5900811 2.226756 4.1044006 1.1766884
000160 18 f1 76 40 99 84 1a 40 7f 41 96 40 6d 9d 96 bf
       3.8584652 2.414343 4.695495 -1.1766793
000170 38 fa a2 40 36 95 a2 3f bb f3 0f 40 83 7b e6 3f
       5.0930443 1.2701786 2.2492511 1.8006443
000180 7b d2 18 40 ce 37 b9 3f 0d af 9c 40 be a6 94 40
       2.3878467 1.4470155 4.8963685 4.6453543
000190 76 bb ba c0 0a 62 e0 40 07 ca 29 c0 6f fb 89 c0
       -5.8353834 7.0119677 -2.6529558 -4.3119426
0001a0 15 63 7b c0 cc c8 2c c0 13 5e 1f c0 1c 15 07 40
       -3.9279225 -2.6997557 -2.4901168 2.1106634
0001b0 2f 6f 96 3c 83 f1 26 3e c4 0d 59 bc 4f 58 99 bd
       0.018363563 0.16303067 -0.013247911 -0.07487547
0001c0 11 d0 a1 bb 5c c7 2a 3c a7 32 95 be 52 68 11 be
       -0.0049381335 0.010423508 -0.29140207 -0.14199951
0001d0 66 b0 8d be a7 59 bf 3d 52 88 31 bd ad 60 04 be
       -0.27673644 0.09343272 -0.043342896 -0.12927504
0001e0 ff 81 36 be eb 20 8f be fb 2a ac be 4b bc fc 3e
       -0.17823027 -0.27954802 -0.33626541 0.49362406
0001f0 49 1c 95 3e 4e 94 d0 3e 8c 5d a6 bd fe 8d d4 bd
       0.29123142 0.40738147 -0.081233114 -0.10378645
000200 78 08 09 bf 2b df bc be 29 2b a6 be 59 65 23 bf
       -0.5352855 -0.36889014 -0.32454804 -0.6382652
000210 26 63 83 3e 94 cc 0f 3e e2 9b 98 bd 81 ac 75 3e
       0.25661582 0.14042884 -0.07451607 0.23991586
000220 b0 47 52 bc 27 59 16 be 25 df bf bd 70 b8 4a be
       -0.012834474 -0.14682446 -0.09368733 -0.1979692
000230 04 a5 7d be 8b 19 9b 3e b9 fe 81 3d 70 1b 62 3d
       -0.2476998 0.30292925 0.063474126 0.055201948
000240 de 11 9c 3e 55 12 e0 3c 8b 6c 6b be 5e 9b 95 bd
       0.30482382 0.027352491 -0.22990625 -0.073050246
000250 14 b1 d1 bd 9f 5a aa be da f3 de 3d a1 35 ab 3c
       -0.10238853 -0.33272263 0.10886355 0.020899596
000260 44 a1 80 be 01 fb 08 3f b1 60 ce 3f 39 7a c3 3f
       -0.25123036 0.53508 1.6123258 1.5271674
000270 76 69 0d 40 13 67 2a 3e 00 dd 8c 3e 79 39 b8 3e
       2.2095618 0.16640882 0.2751236 0.35981348
000280 6b 87 38 3f 38 1e 2f 3e ea be b8 3e 31 0e e1 3c
       0.7208163 0.17101371 0.36083156 0.027472587
000290 5c 0d 00 3e cf 2f 18 3f 2a bb da 3e 7b d8 a2 3e
       0.12505096 0.5944795 0.4272092 0.31805786
0002a0 c4 48 d0 3e 84 a7 7e 3e 4d 64 c1 3d b6 47 c9 be
       0.40680516 0.2486859 0.09442959 -0.39312524
0002b0 e6 a0 84 3e a7 ae 6e bf be 55 c3 3d 1c dc 80 3f
       0.25904006 -0.9323525 0.095378384 1.0067172
0002c0 38 1b 60 be 58 d1 00 be 15 83 76 3f c9 11 c1 be
       -0.21885383 -0.12579858 0.96293765 -0.37708881
0002d0 9a c5 68 3e 56 ec 6f 40 d9 1a 1c c0 85 b3 32 be
       0.22731629 3.7487998 -2.4391387 -0.17451294
0002e0 a5 f6 a1 3f 85 18 91 c0 6d 44 22 c0 50 7b b0 3f
       1.2653395 -4.534243 -2.5354264 1.3787632
0002f0 3a f6 be 40 82 4d 5c bf da 59 b5 be 6b 7f c2 be
       5.967557 -0.8605577 -0.35420114 -0.37987837
000300 a5 ea 14 c0 ab af 13 be 64 f0 e2 3f 3c 43 82 bf
       -2.3268216 -0.14422481 1.7729611 -1.0176768
000310 59 4f 24 40 23 6e f8 3f 91 21 0f bd d9 08 8e bf
       2.567343 1.9408611 -0.03494412 -1.109645
000320 47 ee 06 c0 5b 2e 81 be f0 fb 52 be 29 c4 33 3e
       -2.1082933 -0.2523068 -0.20603919 0.17555298
000330 9d d4 8d bf 69 e7 5b 3e 9f 92 39 bd 38 cd 1a 40
       -1.108051 0.21474995 -0.045305844 2.4187756
000340 4d e3 ef bf 88 6e 29 c0 42 ee ee bf 18 0e b2 3f
       -1.8741242 -2.6473713 -1.866646 1.3910551
000350 f7 d6 78 c0 bb 16 55 3f 0d 82 fe 3e 23 3d 8c bf
       -3.8881204 0.8323781 0.49708596 -1.0956157
000360 35 bf 0a be ac 0d 97 be 61 2c 29 bf 00 40 d0 3f
       -0.13549502 -0.29502618 -0.6608334 1.6269531
000370 10 19 13 3f 2f 09 f1 bc f7 c1 95 bf cd 4a ad 3e
       0.5746012 -0.029423324 -1.1699818 0.3384613
000380 72 fc ac bf e7 7c 6e bf 6a a7 d0 be ec ed 2e c0
       -1.351454 -0.93159336 -0.40752727 -2.7332716
000390 39 b9 95 bf da fb 8d c0 4e ce cd bf 5d 3c 92 be
       -1.169715 -4.4369936 -1.6078584 -0.2856168
0003a0 44 4f f9 bf c3 fc f8 3e d6 5c 6f bf c2 a4 c8 3f
       -1.9477315 0.48630342 -0.9350103 1.567528
0003b0 69 0f 8d c0 58 7d 50 be 27 b6 ce c0 13 c4 7b c0
       -4.408131 -0.20360315 -6.4597354 -3.9338424
0003c0 29 79 2b 3e 8e a7 5f bf 72 84 94 bf 7b 53 9f 3f
       0.16745438 -0.87365043 -1.1602919 1.2447351
0003d0 55 f6 06 40 1c a9 18 bf b1 a3 d0 bf e7 09 9f 3d
       2.108785 -0.5963304 -1.6299955 0.077655606
0003e0 96 ae 69 3f fe 3b df 3f e1 0d dd 3f 75 74 96 3f
       0.9128202 1.7440183 1.726986 1.175429
0003f0 24 6b cb bf 3d 98 1c 3f b9 76 90 3f 10 a3 f2 bd
       -1.5892072 0.611698 1.1286231 -0.11847508

bn.weight f4 [64]
000000 db 6b 67 3f 5b 6f a3 3f 57 b3 15 3f 57 f7 8c 3f
       0.9039895 1.2768358 0.58476776 1.1012982
000010 c1 08 f4 3f b4 79 c7 3f 8c c2 9a 3f 98 60 91 3f
       1.9065171 1.5584016 1.2090621 1.1357603
000020 db 2c 88 3f c1 12 61 3f 19 f8 90 3f 7b 8a 7c 3f
       1.0638689 0.8791924 1.1325713 0.98648804
000030 c8 78 dd 3f 73 73 57 3f 64 d9 ac 3f ed 52 d0 3f
       1.7302485 0.84160537 1.3503842 1.6275307
000040 52 7f b5 3f 40 d8 10 3f 6e 45 77 3f 9a 40 17 3f
       1.417948 0.5657997 0.96590316 0.5908295
000050 90 21 29 3f 1a 25 4a 3f 13 e6 88 3f 6b 08 e7 3f
       0.6606684 0.7896286 1.0695213 1.8049444
000060 62 12 51 3f e0 81 1d 3f ed 3a 31 3f 26 0c 6c 3f
       0.81668675 0.615263 0.6923054 0.9220604
000070 99 59 ed 3e c3 7e b1 3f 96 68 47 3f 62 f6 3a 3f
       0.4635742 1.386681 0.7789396 0.730322
000080 0c f9 02 3f f1 71 aa 3f da 14 57 3f b0 9f 24 3f
       0.51161265 1.3316022 0.8401619 0.64306164
000090 58 27 ec 3f 21 e4 52 3f d3 90 38 3f 89 79 9f 3f
       1.8449507 0.8237935 0.72095984 1.2458965
0000a0 39 f1 40 3f b1 03 b4 3f c3 43 08 40 ea 88 22 3f
       0.75368077 1.4063627 2.1291358 0.63490164
0000b0 58 55 c1 3f 37 8a 2f 3f 8c 1f 9e 3f 8e 46 2e 3f
       1.510417 0.68570274 1.2353377 0.6807641
0000c0 a7 61 90 3f c5 5e c9 3f 4f c4 cc 3f ea cf 0a 40
       1.1279801 1.5732046 1.5997409 2.16894
0000d0 71 e3 19 3f 1d 4a c0 3f e8 5a a9 3f 87 dc ba 3f
       0.60112673 1.5022618 1.3230867 1.459855
0000e0 ef 9c 96 3f ec 5e 33 3f 42 c8 9e 3f b5 e9 2e 3f
       1.1766642 0.70066714 1.2404864 0.6832536
0000f0 3f d0 80 3f 11 dd 2b 3f 82 f4 4e 3f 60 f7 67 3f
       1.0063552 0.67134196 0.8084184 0.9061184

bn.bias f4 [64]
000000 74 b7 66 3e 4a 9a 3b bf b7 6f 58 3f 79 b1 46 bf
       0.2253092 -0.732823 0.84545463 -0.7761455
000010 d9 2d 6e c0 32 70 63 bf 41 8e c2 bf 37 9e 07 bf
       -3.7215483 -0.8884307 -1.5199662 -0.5297579
000020 bf 72 09 be 4f 69 24 be 9b 48 18 3f 0d 2b 51 bf
       -0.13422678 -0.16055797 0.5948579 -0.81706315
000030 df e6 e2 bf 4c f1 b5 3c cc 27 de bf d5 38 1e c0
       -1.7726706 0.022209786 -1.7355895 -2.4722188
000040 87 15 ca 3f b9 47 90 3f 99 ae ca 3e 6b b2 10 3f
       1.578782 1.1271888 0.39586332 0.56522244
000050 fb 32 2f 3e 2d fb f9 bd 2a 9d a9 bf 1e 6b 53 bf
       0.17109291 -0.12206111 -1.3251088 -0.8258532
000060 f5 44 27 3f 37 ec 9a 3f 1f bc 09 3f c6 df 3d be
       0.65339595 1.2103337 0.53802675 -0.18542394
000070 cd 2b 2c 3f 08 f2 4c bf 4c eb 5c 3e 6d ab 0d 3f
       0.67254335 -0.8005681 0.21574134 0.553397
000080 0b ff 43 3f b1 ca d6 bf 28 62 ad 3f 82 00 3e 3f
       0.7656104 -1.6780607 1.354558 0.74219525
000090 15 6b 6f bf ee e2 d0 3e 34 3b 7a 3f d8 04 93 3e
       -0.9352277 0.40798134 0.97746587 0.28714633
0000a0 d5 49 fd 3d 13 94 f5 bf a7 7a c8 bf fb 1e 35 3f
       0.12367598 -1.9185814 -1.566243 0.707504
0000b0 4c 8d e4 bf 63 4f 14 3f 2f 9f bf bd 48 19 7c 3f
       -1.785562 0.57933635 -0.09356534 0.98476076
0000c0 30 7c e5 bf e0 6e ef bf 08 3b eb bf cd 0f d7 bf
       -1.7928524 -1.8705711 -1.837739 -1.6801697
0000d0 a0 02 69 3f c3 83 d1 bf 91 81 f7 bf 3e b9 aa bf
       0.9101963 -1.6368335 -1.9336416 -1.3337781
0000e0 50 8c ad be 0d a9 77 bc a9 12 a4 bf 2b 7d 3e 3e
       -0.33896112 -0.015115988 -1.2818195 0.18602435
0000f0 b8 a6 3c 3f 94 00 11 3f 61 9c ac be 2d 96 33 be
       0.7369189 0.5664151 -0.33713058 -0.17537756

bn.running_mean f4 [64]
000000 b0 79 1a c0 2e 24 bd c0 8e cc 52 bd 3a 8d bd bf
       -2.4136772 -5.9106665 -0.05146461 -1.4808724
000010 0c fc 0c 40 25 7f 23 bf ef 08 67 bf b0 89 ad bf
       2.2028837 -0.6386588 -0.90248007 -1.3557644
000020 c6 08 04 3f 59 57 37 3b b6 a2 9a bf ef 98 b7 3e
       0.5157589 0.0027975647 -1.2080905 0.35858867
000030 a0 a9 04 40 53 35 4b be ea 76 84 3f b7 7d 4f 40
       2.072853 -0.1984456 1.034879 3.242048
000040 bf bd 73 3f b4 07 f7 be 11 97 0d 3e 43 a7 e9 bf
       0.95211405 -0.48248065 0.13827159 -1.8254169
000050 e4 62 09 be 67 47 b4 bf a2 20 21 bf 37 49 25 c1
       -0.1341663 -1.408429 -0.6294042 -10.330375
000060 a7 c7 74 bf 6f b8 e6 be 52 71 b2 bf ac 3c 95 3f
       -0.95617145 -0.45062587 -1.3940833 1.165914
000070 bf 73 56 bf 65 47 52 bf e2 74 36 be 4b 5b c4 be
       -0.83770365 -0.8214019 -0.17818025 -0.383509
000080 28 a3 16 bf d8 73 a3 3f 1a df 4e bf 7e ad 54 bd
       -0.58842707 1.2769728 -0.80809176 -0.051923268
000090 f7 65 82 c0 0e 94 89 3e a9 94 ef 3e 65 8f 92 3f
       -4.074947 0.2687077 0.46793106 1.145001
0000a0 9e db 4b bf f1 cd da be 11 d9 3d 3f 08 44 de bf
       -0.79631984 -0.42735246 0.7415934 -1.7364511
0000b0 e5 37 97 3f e5 6b c8 bf f3 74 a7 3f 5e 55 0f c0
       1.1813933 -1.5657927 1.3082565 -2.2395854
0000c0 c9 71 1f 40 fb f5 3d bf ab 9c 9b 3f 3a 60 9d c0
       2.49132 -0.7420346 1.2157186 -4.9179964
0000d0 67 78 e6 c0 e4 f0 d6 bf 06 e0 0d 3f 35 09 26 c0
       -7.2021976 -1.6792264 0.5541996 -2.594312
0000e0 04 00 66 bd ec 88 fa bf 4e 92 87 3e 83 ac 0d bf
       -0.05615236 -1.9573035 0.2647881 -0.55341357
0000f0 92 47 08 bf c5 57 14 c0 74 89 26 c0 2f 0c ab 3f
       -0.5323421 -2.317857 -2.6021395 1.3363093

bn.running_var f4 [64]
000000 6c 9b 28 42 73 9c cb 41 e7 ea 0e 41 73 c9 81 41
       42.15178 25.451391 8.932349 16.223364
000010 d3 d4 16 41 6c d7 a5 41 2c 50 60 41 03 48 fd 40
       9.426959 20.730186 14.019573 7.9150405
000020 eb ca ae 40 16 f2 1a 41 62 48 52 42 35 c3 1e 41
       5.4622703 9.684103 52.570686 9.922658
000030 dd 66 52 41 78 3f 69 41 c2 fc 0d 41 fd e5 35 41
       13.150113 14.577995 8.874208 11.3686495
000040 97 47 29 42 0e 29 05 41 e1 78 6f 41 65 be 22 41
       42.319912 8.322523 14.967011 10.171483
000050 8d c8 fd 40 10 f4 8c 41 7e 07 53 41 6c dd 69 42
       7.9307313 17.619171 13.189329 58.466232
000060 29 84 14 41 9e fc 2a 41 2a ab 46 41 5a d1 62 41
       9.282266 10.686674 12.416788 14.176111
000070 5b 7b 11 41 35 5e 64 41 3e bd 4b 41 80 9a 39 41
       9.092616 14.273 12.733702 11.60022
000080 cc 4a 2c 41 e1 eb 50 41 aa 4b 2e 42 65 60 0e 41
       10.768261 13.057588 43.57389 8.898534
000090 04 84 2b 42 a2 62 23 41 ba 83 16 42 74 db 0f 41
       42.87892 10.21158 37.62864 8.991077
0000a0 92 5c f9 40 fa 5a a7 40 89 2a c3 41 c4 9c 3a 41
       7.79255 5.2298555 24.39577 11.663273
0000b0 bc 4c 81 41 54 93 39 41 14 f4 a8 41 b0 2b 3e 41
       16.162468 11.598469 21.119179 11.885666
0000c0 0d 9b f0 40 35 2a 19 41 58 c5 47 41 7e 7d 9f 42
       7.518927 9.572804 12.48568 79.7451
0000d0 cf 4d a8 41 b4 a4 6c 41 9b f1 d9 40 8e ac 17 41
       21.037992 14.790211 6.810743 9.479628
0000e0 c3 d6 4c 41 99 d8 2d 41 9c 45 d1 40 3b 7b 0e 41
       12.802432 10.86538 6.539747 8.905086
0000f0 3e 89 85 41 fc c5 3c 41 03 07 e7 40 16 a9 08 41
       16.692013 11.798336 7.219606 8.541281

residual_blocks.0.conv1.weight f4 [64, 64, 3, 3]
000000 47 2f 5c bf 81 41 a4 3f 73 96 45 bf 9d cb 88 bf
       -0.8600964 1.283249 -0.7718269 -1.0687138
000010 31 be 38 3f ed 48 ea 3f d1 9c 64 3f d7 99 a2 3f
       0.7216521 1.8303505 0.8930178 1.2703198
000020 bd 0f 28 3f c2 92 0a 40 70 fe 97 3e 6e 2e fe 3e
       0.65649015 2.1652074 0.29686308 0.49644798
000030 c7 08 49 3f b1 fc a1 be 38 34 8f bf 77 53 95 bf
       0.7852902 -0.316381 -1.1187811 -1.1666096
000040 c1 80 9a 3e 4a 5e 50 3e 44 59 9e bd 59 a9 61 bf
       0.30176356 0.20348468 -0.0773187 -0.8814903
000050 6d c6 86 3e 00 3f 38 be 81 4c 31 bf 83 11 29 3d
       0.26323262 -0.17992783 -0.6925736 0.041276466
000060 d0 df b1 bf c0 b8 e4 bf dc a3 bc be 26 aa 4c 3f
       -1.3896427 -1.7868881 -0.36843765 0.79947126
000070 e5 35 89 3f f3 dc 21 3f 04 97 4a 40 e9 1b 84 40
       1.0719572 0.63227767 3.1654673 4.128407
000080 fd e4 77 3d 59 d3 4f 3f 72 6e 95 40 e4 62 12 bf
       0.060521115 0.81181866 4.669732 -0.57182145
000090 29 9f da bf 88 55 6c bf e2 4c f2 3f 4a 33 d9 3e
       -1.7079822 -0.9231801 1.8929713 0.42421943
0000a0 7e b8 c2 bf d4 a4 c0 bf 2e 81 e1 3e d2 90 22 c0
       -1.5212553 -1.5050302 0.4404387 -2.5400891
0000b0 11 d9 d6 bf ed b6 35 3f 1e 3f 4f be 5f ca d0 be
       -1.6784993 0.7098225 -0.20238921 -0.40779397
0000c0 2b 98 d5 3c 5b 87 1b c0 2a ea 2a bf 8a e9 e7 be
       0.026073536 -2.4301364 -0.66763556 -0.45295364
0000d0 3f d3 d7 bf fb f1 76 bf 8c 9e af 3f b0 37 9f 3e
       -1.6861342 -0.9646298 1.372026 0.31097174
0000e0 35 11 d2 be 40 cc 05 3f f7 e7 8b 40 04 57 47 40
       -0.41028753 0.52264786 4.372066 3.114686
0000f0 ff 79 b7 3f cd b1 ce 3f 99 18 bf 3f 79 01 ca be
       1.4334105 1.614801 1.4929382 -0.3945425
000100 72 51 28 40 40 4b 82 3d 0c 85 17 bf 59 69 40 3f
       2.629971 0.06362009 -0.5918739 0.7516075
000110 ae 09 5f bf 3f ea ca 3f 32 ce 93 bf 4a e4 d8 3f
       -0.87124145 1.5852736 -1.1547301 1.6944668
000120 87 ae 40 be 03 e8 82 3f 1f 4f 21 bf ee 59 cb 3d
       -0.18816577 1.0227054 -0.63011354 0.09929262
000130 ea 62 04 40 d0 d0 7d 3e 75 92 f1 3e 12 d1 42 40
       2.0685372 0.24786687 0.4718205 3.0440106
000140 53 e3 cf 3f 72 71 93 be 77 c0 eb 3f df 99 60 bf
       1.6241249 -0.2879749 1.8418111 -0.8773479
000150 42 17 a6 be 78 cd c7 be 6c a8 5c 3f d3 f1 75 3f
       -0.3243962 -0.39023948 0.8619449 0.9607212
000160 64 95 ce be 02 0c d6 bf cd 0d 56 3f cc 3b 72 bf
       -0.4034835 -1.6722414 0.8361481 -0.9462249
000170 bb 8f b3 3e cf 46 c8 3f 35 05 dc bf 42 e8 6b bf
       0.35070595 1.5646609 -1.7189089 -0.9215127
000180 5b e8 c7 3f 83 ca a1 3e ad e1 97 3e 63 6c ce bb
       1.5617784 0.31599817 0.29664364 -0.006299542
000190 19 c0 24 c0 9c f8 0b bf de 77 21 3f cf 81 3d bf
       -2.5742247 -0.5467622 0.6307353 -0.740262
0001a0 3f 0a d9 bd f1 61 01 c0 97 c6 64 bf e5 d1 32 3f
       -0.105976574 -2.0216029 -0.89365524 0.69851524
0001b0 66 cd 0b c0 9a 4e d8 3f e5 fc 0f bf 32 21 20 bf
       -2.1844115 1.6898987 -0.5624526 -0.6255065
0001c0 28 af d2 3e 1e 72 81 bf 71 af b5 bd 79 29 54 bf
       0.4114926 -1.0112951 -0.088713534 -0.8287578
0001d0 24 18 ec 3f 2c 68 5c bf 77 cd 7b 3f e1 a5 34 3e
       1.8444867 -0.86096454 0.9836039 0.17641403
0001e0 c3 6c a0 be 1f 63 12 be 97 c2 56 3e 9f 9a ca 3e
       -0.3133298 -0.14295624 0.20972668 0.39571092
0001f0 61 07 a1 3f a5 19 62 be 3c 86 fc bf 96 19 c4 bf
       1.2580377 -0.22080095 -1.9728465 -1.5320308
000200 92 f4 02 c0 46 45 e7 3c 23 98 8e c0 7d c9 53 40
       -2.0461774 0.028231274 -4.4560714 3.3091729
000210 3b 1c de bf 0d 8e 9b bc 57 e5 26 3e aa f7 be 3e
       -1.7352365 -0.018988634 0.16298424 0.37298328
000220 d1 51 a6 3f db b3 df 3f 47 cd ac 3a cc 53 23 3e
       1.2993718 1.7476763 0.0013183736 0.15949935
000230 af ab 07 c0 1b ee fd 3f 10 c9 ff bf fe 4e 70 40
       -2.1198537 1.9838289 -1.9983234 3.7548213
000240 50 e6 3b bf ae be b8 3f 69 15 cb 3e dd 4f bb be
       -0.73398304 1.4433191 0.39664772 -0.36584368
000250 d6 cf 68 3f f3 c3 be be 01 a2 a1 bf 04 57 ed bf
       0.9094213 -0.37258872 -1.2627565 -1.854218
000260 20 73 eb bf 54 59 57 c0 a9 f4 3a 3f ba 5c 03 3f
       -1.8394508 -3.3648272 0.7302957 0.51313365
000270 3f e2 c4 bf fa 87 7f bf 84 f6 57 3e ba 8b e3 bf
       -1.5381545 -0.9981686 0.21090132 -1.7777016
000280 26 35 8b bf 4b 07 f0 3e e7 3f b3 c0 f2 be 9a 3e
       -1.0875595 0.46880564 -5.6015506 0.30223805
000290 b3 2a 08 c0 fe c2 18 bf a3 1c 16 c0 aa dd a1 bd
       -2.1276062 -0.59672534 -2.3454978 -0.07903607
0002a0 18 e9 4b 3d 0e 63 3d 3e 45 5f c0 bf fc 3b ff bf
       0.049782842 0.18494818 -1.5029074 -1.9940181
0002b0 31 e1 84 bf 70 cb 93 3d 0a ec 18 bf 0d 7a 24 bf
       -1.0381223 0.07216537 -0.5973517 -0.64248735
0002c0 bd 4f 1f 3f 4e 67 31 3f ba d4 c2 3f 45 7f be bf
       0.62231046 0.69298255 1.5221169 -1.488259
0002d0 54 5f 2c 40 99 44 a7 be 92 41 35 3f 0b 56 9e 3e
       2.6933184 -0.32669523 0.7080318 0.3092502
0002e0 cd 20 f8 3f 7b a8 2d 3f 1b c3 a6 bf b9 5f 1f be
       1.938501 0.67835206 -1.3028291 -0.15563859
0002f0 ed b5 ed bb d3 05 46 bd 11 66 49 bf 1d 1e 74 bf
       -0.0072543533 -0.0483454 -0.78671366 -0.9535845
000300 3e 8d 8a bf 66 65 a8 bf df a9 ad 3f 27 c4 62 3e
       -1.0824354 -1.3155944 1.3567466 0.22145139
000310 e5 06 10 bf a1 51 a8 3f ce ca af 3f f8 9f cb 3f
       -0.5626052 1.3149911 1.3733766 1.5908194
000320 54 fd ca bd 58 6c 39 3e c1 e1 ec 3f 5b e4 1a c0
       -0.099116 0.18107736 1.8506395 -2.4201877
000330 10 c0 c6 3f 0f f4 8e 3f ef c6 52 40 b3 ca cc 3e
       1.5527363 1.1168231 3.293392 0.39998397
000340 4c 04 a0 bf 1a 42 c6 bf 07 3a c1 3f af fa 38 bf
       -1.2501311 -1.5488923 1.5095834 -0.7225751
000350 6a ee 49 bf e2 ba ce 3f 6a 8f b4 bb 00 16 69 bf
       -0.78879416 1.6150782 -0.0055102604 -0.91049194
000360 78 d3 b1 bf a7 52 14 40 00 bb 66 3b 5f ca b6 be
       -1.389266 2.3175447 0.0035206676 -0.35701272
000370 3b fb 58 be 8c c0 bb bf a0 c7 e5 bf fa c5 29 c0
       -0.21189587 -1.4668136 -1.7951546 -2.6527085
000380 a9 89 8a 3e 1c 5e 07 3f 3e 35 46 3f fc dc 1e c0
       0.2705815 0.52877975 0.7742499 -2.4822378
000390 96 56 09 3f 37 00 52 40 ec 96 cc bf ae 3b 0b c0
       0.53647745 3.281263 -1.5983558 -2.1755176
0003a0 07 4c d5 3f 4d fe af bf 26 a0 43 bf 90 71 17 c0
       1.6663827 -1.3749481 -0.7641624 -2.3663063
0003b0 35 c6 85 3f f5 19 a6 bf 14 39 33 be 33 9d 19 be
       1.0451113 -1.2976671 -0.17502242 -0.15001373
0003c0 03 2e 17 bf b1 bb 88 3e 83 92 44 be d7 b5 9c bf
       -0.59054583 0.26705697 -0.19196515 -1.2242993
0003d0 3e fd 1f 3f 96 af eb bf eb 3d 4b c0 00 67 e2 3f
       0.6249579 -1.841296 -3.1756542 1.7687683
0003e0 12 da 26 bd 07 6b 39 3e 82 3e aa 3f 7d 65 3d bf
       -0.04073531 0.18107234 1.3300326 -0.73982984
0003f0 4e ac bd bf 5e 60 68 bf 0b d7 fa 3f f9 a2 8c bf
       -1.4818208 -0.90772045 1.9596876 -1.0987235

residual_blocks.0.bn1.weight f4 [64]
000000 df c4 c3 3f cf cb d6 3f 04 79 9e 3f 62 fe 06 40
       1.5294455 1.6780947 1.2380681 2.1092763
000010 04 a0 8e 3f 16 f3 8a 3f b1 a5 b1 3f 85 bb 6e 3f
       1.1142583 1.0855434 1.387869 0.9325488
000020 a5 e3 17 40 05 ee f6 3f 44 8b b3 3f 9d a1 aa 3f
       2.3732693 1.9291388 1.4026875 1.333057
000030 13 71 a6 3f 11 85 99 3f 31 25 c5 3f d9 73 cd 3f
       1.3003258 1.1993734 1.5401975 1.6050979
000040 c2 1c 20 40 f7 6b db 3f e5 bb f8 3f df 21 e6 3f
       2.5017552 1.7142323 1.9432341 1.7979087
000050 47 67 bb 3f 5b dd 3a 40 6f 89 87 3f 48 f7 38 40
       1.4640893 2.9197605 1.0588816 2.8900928
000060 af 16 8f 3f 67 93 ae 3f 55 55 26 40 c4 9f d0 3f
       1.1178797 1.3638734 2.5989583 1.6298757
000070 54 1e f5 3f fc 81 bb 3f 8a 7c 8e 3f 80 55 fc 3f
       1.914988 1.4649043 1.1131756 1.9713593
000080 86 8e 11 40 4f e4 90 3f c3 66 8b 3f d9 06 b7 3f
       2.274324 1.1319674 1.0890735 1.4298965
000090 d3 cb 99 3f e6 ea cf 3f 24 5a d9 3f cc 24 16 40
       1.2015327 1.624356 1.6980634 2.345996
0000a0 22 07 1e 40 9f 6d 25 40 f4 7b 89 3f 79 37 13 40
       2.4691854 2.5848157 1.0740952 2.3002608
0000b0 3d 4b 2c 40 27 e2 b8 3f 8b e6 0d 40 61 8e 9b 3f
       2.6920922 1.4444016 2.2171962 1.2152826
0000c0 79 94 c3 3f ad 2f 07 40 89 3e 09 40 45 55 34 40
       1.5279685 2.112285 2.1444418 2.8177044
0000d0 6b 62 ca 3f 59 a5 f1 3f 72 e3 8b 3f 3d ef cb 3f
       1.5811285 1.8878585 1.0928786 1.5932385
0000e0 11 7b c5 3f 2e 92 0f 40 8a 68 41 40 e2 15 12 40
       1.5428182 2.243297 3.0220056 2.2825856
0000f0 04 06 0a 40 b0 f4 b9 3f 45 c1 90 3f 0c 80 ab 3f
       2.1566172 1.4527798 1.1308981 1.3398452

residual_blocks.0.bn1.bias f4 [64]
000000 85 e4 2c bf 70 95 9c bf c0 19 82 3f be ef 68 bf
       -0.67536193 -1.2233105 1.0164108 -0.9099082
000010 c4 02 c2 bd 0f c2 80 3e 3d 75 eb be 82 77 30 3f
       -0.09473184 0.25148055 -0.45987883 0.68932354
000020 54 ce a9 bf c3 41 05 c0 84 45 20 3e 8c 5d fe 3e
       -1.3266091 -2.0821388 0.15651518 0.49680746
000030 7e 4a 87 3e 93 c0 54 3f 59 0c ac bf 05 4c 4f bf
       0.2642402 0.83106345 -1.3441268 -0.8097537
000040 64 c7 8a bf 11 d3 a5 bf 6f d6 94 be 1c 91 06 bf
       -1.0842099 -1.2955037 -0.2906985 -0.5256517
000050 22 40 dd be 5a 52 39 c0 a9 ba 80 3f cc a3 24 c0
       -0.43212992 -2.8956513 1.0056964 -2.5724974
000060 fe 50 1b 3f 07 e4 e8 be 74 f2 3f bf 51 49 48 bf
       0.6067046 -0.4548647 -0.7497933 -0.7823687
000070 c5 51 04 3e 48 6d 85 3d a8 02 5f 3f 71 bf a0 bf
       0.12921818 0.06514984 0.8711343 -1.2558423
000080 f3 4e 30 c0 8a d4 9d bd c8 fa f4 3e 89 15 90 be
       -2.7548187 -0.07706554 0.4784758 -0.2814143
000090 cf 92 8d 3f 11 17 43 3f d2 61 33 3f 69 5f a6 be
       1.1060427 0.7620707 0.70071137 -0.32494667
0000a0 1c 4c 9b bf 2f 9a 49 c0 c2 27 17 40 d0 18 d7 bf
       -1.2132602 -3.1500356 2.3618016 -1.6804447
0000b0 86 8a 11 c0 4c ca d7 bd b8 55 a6 bf 37 9a 0e 3d
       -2.2740798 -0.10536632 -1.2994909 0.03481504
0000c0 2c 83 81 bf f8 cf a0 bf 19 e6 34 c0 4a 40 06 c0
       -1.0118155 -1.2563467 -2.826544 -2.097674
0000d0 cf 67 85 bf 42 14 38 c0 7b 4f cd 3e 5a 76 8c bf
       -1.0422305 -2.8762364 0.400997 -1.0973618
0000e0 ee e0 ae 3c f8 f9 da bf d9 12 63 c0 18 74 c4 bf
       0.02134749 -1.7107534 -3.5480254 -1.5347929
0000f0 14 7d fd be ae 8a 9d 3e 59 92 03 be 4c ca 6d 3e
       -0.4950949 0.30769867 -0.12848796 0.23221701

residual_blocks.0.bn1.running_mean f4 [64]
000000 ad e8 28 c2 c6 31 b2 40 73 52 90 41 78 1f b1 c1
       -42.227222 5.568576 18.040258 -22.140366
000010 8f d0 8a c1 a3 75 ae 3f ce f7 fe c0 f6 cf 85 c1
       -17.351835 1.362965 -7.9677496 -16.726543
000020 69 41 d8 c1 e1 70 03 42 0b 52 59 40 72 89 a9 c1
       -27.031939 32.860233 3.3956325 -21.192112
000030 3f 7e 18 3f 3e e2 02 c1 d2 45 49 41 b6 2b 15 c1
       0.59567636 -8.180235 12.579546 -9.323172
000040 5a ca 0b c2 f3 ab 8c c1 23 56 9e c1 3f 0c 0d c2
       -34.94761 -17.58396 -19.792059 -35.26196
000050 a3 1e 9c c1 45 3c 04 c2 78 aa f1 3f d4 43 d4 c0
       -19.51496 -33.058857 1.8880148 -6.63328
000060 06 5d c9 41 7b c8 af c1 d5 75 bb c2 60 d6 3b c1
       25.170422 -21.97289 -93.73014 -11.739838
000070 d4 33 1d c2 11 61 10 41 73 21 af c0 f1 73 71 c1
       -39.300613 9.023698 -5.472833 -15.090806
000080 eb 14 00 c2 71 ae f6 c1 f0 81 03 c1 d1 d6 03 c2
       -32.020428 -30.835176 -8.219223 -32.95978
000090 05 05 cb c1 c8 01 39 41 9d e1 fe 40 e7 76 4d c2
       -25.37745 11.562935 7.9650407 -51.366116
0000a0 26 27 9a c2 ed 1e 64 c2 8a 8b 2d 42 63 e6 41 c0
       -77.07646 -57.0302 43.38627 -3.0296867
0000b0 c7 3d 40 c2 3c 38 de c1 9c 4f 2a c2 e5 6d d0 c0
       -48.06033 -27.777458 -42.577744 -6.513415
0000c0 72 20 c2 c0 74 dd 33 42 d1 11 65 c1 ac 66 65 c2
       -6.0664606 44.966263 -14.31685 -57.350266
0000d0 b4 85 16 c2 52 da 19 c1 7a 14 c9 40 16 b8 ad c1
       -37.63057 -9.615801 6.2837496 -21.714886
0000e0 ac 96 15 3f e0 df ec c1 93 6a 72 c1 4d 9f 1d c2
       0.5843303 -29.609314 -15.151019 -39.405567
0000f0 82 e4 2f c2 65 5b 1c 3f 09 e5 31 c1 36 10 2f c1
       -43.973152 0.61076957 -11.118417 -10.941458

residual_blocks.0.bn1.running_var f4 [64]
000000 80 05 11 44 18 5f db 43 ae dc 07 44 2e 56 85 44
       580.08594 438.74292 543.4481 1066.6931
000010 48 9e 65 44 c0 24 d3 43 e4 a2 1e 44 0c 51 05 44
       918.47314 422.2871 634.54517 533.26636
000020 57 8c 5e 44 3a 4e 26 44 a8 17 36 44 29 af 2b 44
       890.1928 665.2223 728.3696 686.7369
000030 c3 47 a6 44 68 13 15 44 be 6b fd 43 2d 13 0d 44
       1330.2426 596.3032 506.84174 564.2996
000040 eb 12 72 44 20 68 55 44 d1 0c 73 44 1d cd 3f 44
       968.2956 853.62695 972.20026 767.2049
000050 14 23 5f 44 de d2 9c 44 79 44 0e 44 05 d9 0c 44
       892.5481 1254.5896 569.0699 563.3909
000060 d5 05 2e 44 56 47 fc 43 a6 49 af 44 95 de 02 44
       696.0911 504.5573 1402.3015 523.47784
000070 0a 60 10 45 97 c6 8d 44 8d aa 38 44 2f 95 17 44
       2310.0024 1134.2059 738.66486 606.331
000080 31 67 26 44 f1 c3 0c 44 3d 6c ea 43 7b 7c 18 44
       665.61237 563.0616 468.8456 609.945
000090 73 b6 0d 44 c6 a5 6e 44 9c 4b 2f 44 1a c7 5f 45
       566.85077 954.5902 701.1814 3580.4438
0000a0 14 69 8d 44 c4 38 2a 44 68 8f c4 44 62 f1 19 44
       1131.2837 680.88696 1572.4814 615.7716
0000b0 06 29 88 44 6a 00 29 44 83 ce 66 44 1b 37 1d 44
       1089.282 676.0065 923.22675 628.861
0000c0 99 f3 e7 43 fa 0b 83 44 0b f7 a4 43 21 dc 4d 44
       463.9031 1048.3743 329.93002 823.4395
0000d0 53 cf 0c 44 91 29 18 44 8a 42 2c 44 ad 61 d6 43
       563.23944 608.6495 689.0397 428.7631
0000e0 86 66 7b 44 f6 17 4f 44 9e c7 67 44 60 01 3d 44
       1005.6019 828.3744 927.119 756.0215
0000f0 02 ee 5e 44 9f 93 72 44 09 f8 30 44 b5 f2 3c 44
       891.7189 970.3066 707.87555 755.7923

residual_blocks.0.conv2.weight f4 [64, 64, 3, 3]
000000 42 02 9a 3f 7d ef 90 3f 2b a5 1f c0 de c9 27 40
       1.2031939 1.1323086 -2.494456 2.621696
000010 95 ac f9 be 52 d4 31 bf 7e 4a d9 bf f8 d9 21 3f
       -0.48764482 -0.694646 -1.6975858 0.6322322
000020 95 2d 06 3f fc 56 55 3f 3e 64 63 3f 9b a4 98 bf
       0.524133 0.8333585 0.8882483 -1.1925234
000030 11 4f d3 3f af d3 4c 3f 06 ba dd 3f 6b 88 c8 3f
       1.6508504 0.80010504 1.7322395 1.5666631
000040 6f b8 de 3e 1e 83 d4 be c5 7e 85 3f ae 5e d3 3e
       0.43500087 -0.41506284 1.0429312 0.41283172
000050 fd e0 02 3f c4 75 b0 bf ac be 04 40 9f 3a 9c bf
       0.51124555 -1.3785939 2.0741377 -1.220539
000060 13 97 84 bf d4 b2 28 3d 65 dd c3 bf 27 2b 97 3f
       -1.0358604 0.04118617 -1.5301939 1.1810044
000070 38 c3 80 3f 0a 17 b0 bf d7 bd 6d 3f b4 13 85 3f
       1.0059576 -1.3757031 0.928678 1.0396638
000080 11 3b 63 bf e4 41 24 c0 c5 1b 18 3f 12 82 0b c0
       -0.88762003 -2.5665216 0.5941737 -2.1798139
000090 a1 75 42 bf 10 d6 0d 40 dc b6 4e 3f 3c cd 55 be
       -0.7596074 2.2161903 0.8074777 -0.20879072
0000a0 45 2e b8 3d b5 1f 9a bd 64 0b 6c 3f 4e 4c f7 be
       0.089932 -0.07525579 0.9220488 -0.48300403
0000b0 2d bb ac 3e 5b b3 28 bf 75 54 00 c0 61 3e 1a 3f
       0.33736554 -0.65898675 -2.0051548 0.6025143
0000c0 8f e4 ee bd 88 24 1a 3f b2 a9 a6 bf 7c d3 9d be
       -0.11664688 0.6021199 -1.3020537 -0.30825412
0000d0 c8 90 6d bf 2e ba 8a 3f e0 f6 2e 3f 0d 5b a4 3f
       -0.92799044 1.0838068 0.6834545 1.2840286
0000e0 31 10 38 3f 3a 6f c4 3f cb a5 8c 40 da ee c6 3f
       0.71899706 1.5346444 4.3952384 1.5541642
0000f0 81 f9 bd 3f d9 a9 66 3f 19 9c ec bf ef 12 f9 bf
       1.4841768 0.90102917 -1.8485137 -1.9458903
000100 4a 4c fc bf a1 24 c5 bf 23 d3 3f 40 fb 87 be bf
       -1.9710782 -1.5401803 2.9972618 -1.4885248
000110 3b 52 85 3f e9 c0 97 bf 47 ca e7 3e 02 a5 07 c0
       1.041572 -1.1855747 0.45271513 -2.1194463
000120 8f 22 37 bf 26 f7 3d 3f 61 93 08 bf ac 92 89 3f
       -0.7153711 0.74205244 -0.5334988 1.0747886
000130 f9 b6 94 bf d9 9a ea 3e d5 e7 43 3f 3b 90 11 bf
       -1.1618339 0.45821264 0.7652562 -0.56860703
000140 d3 7e f3 bf d5 98 1e c0 c5 74 69 3f e7 b9 ec bf
       -1.9023079 -2.4780781 0.911938 -1.8494233
000150 e2 d2 85 bf e3 d9 b4 bf fd ca bd 3f f4 7d 53 c0
       -1.0454981 -1.4128994 1.4827572 -3.3045626
000160 04 b4 ad bf a3 0e 0a bf cd ad a5 3e 84 12 25 3f
       -1.3570561 -0.53928584 0.32359162 0.6448138
000170 a0 79 02 c0 5a 45 0d 3f 09 70 35 3d 05 c4 3f be
       -2.0386734 0.5518395 0.0442963 -0.1872712
000180 08 2a b0 bf 7e 37 ad 3f 34 82 b2 bd 37 e8 f3 3f
       -1.3762827 1.353256 -0.087162405 1.9055241
000190 53 e9 09 bf a0 b0 28 bf ee 12 32 bf de 86 db bf
       -0.5387165 -0.6589451 -0.69560134 -1.7150533
0001a0 2c a4 59 c0 57 ff ac 3e 98 e1 0d 3e ae 10 02 be
       -3.4006453 0.3378856 0.13855588 -0.12701675
0001b0 a9 cc 79 bf 2c 07 9a bc 08 d4 83 be 6d 53 21 bf
       -0.9757791 -0.018802248 -0.25747705 -0.6301792
0001c0 bd 80 a4 be 6c 6e 1c 3f 66 ef 20 c0 6b 81 25 c0
       -0.3212947 0.6110599 -2.5146117 -2.586024
0001d0 7a 47 fa bf f7 0e 64 3f aa 6b dc bf dd 74 d2 bf
       -1.9553063 0.89085335 -1.7220356 -1.6441914
0001e0 4d 67 74 3f 09 36 06 40 bd 3b 93 bf 72 df 93 bf
       0.95470124 2.097048 -1.1502606 -1.1552565
0001f0 dd 55 71 bf e9 75 9e bd 4d 53 b6 bf a1 bf bf bd
       -0.9427164 -0.07737333 -1.4244171 -0.09362722
000200 f2 98 73 3e 90 58 46 3f bc 52 f0 bf 1f 28 e8 3e
       0.23788813 0.77478886 -1.8775249 0.4534311
000210 fa a7 a5 3e 82 38 8c be 08 df 32 3f 4a 04 61 3f
       0.32354718 -0.27386862 0.6987157 0.8789717
000220 59 d9 aa 3f 1e 7f 3e be e0 e8 0e c0 47 18 07 3e
       1.3347579 -0.18603179 -2.2329636 0.13192855
000230 c9 1e 9b 3e f8 e9 60 3f 7c 8c 65 bf 37 57 2a 40
       0.30296925 0.8785701 -0.8966749 2.6615732
000240 8e 3f f2 3f 57 c5 14 3f 87 c9 a6 3f ad 49 a6 3f
       1.8925645 0.58113617 1.3030251 1.2991234
000250 fb 70 3c bf 6a 57 1d 3f 4a b0 c2 3f 56 84 d2 3e
       -0.73609895 0.6146151 1.5210049 0.4111659
000260 11 e8 f0 3f 07 6d 6b c0 63 56 9d 3e 28 93 44 3e
       1.8820821 -3.6785295 0.3072997 0.1919676
000270 1c f3 ec be bd 46 5e c0 22 04 1c bf 05 f1 e4 be
       -0.46279228 -3.4730675 -0.60943806 -0.44715133
000280 af b5 8e 3f 2f 6a 0e 3f 0a 30 1d c0 99 4d 0d c0
       1.1149195 0.55630773 -2.456057 -2.2078612
000290 cb 0b a7 be 04 41 a6 bf 8a c5 8b bf 02 7e ef 3f
       -0.32626185 -1.2988591 -1.0919659 1.871033
0002a0 48 37 d7 be c5 f5 6a bf 24 ff 34 bf 68 4d 3d 40
       -0.42034364 -0.91781265 -0.70701814 2.9578495
0002b0 34 97 0d 40 98 3c 2a c0 09 52 ef be 27 0a bb 3f
       2.2123537 -2.6599483 -0.46742275 1.4612473
0002c0 65 d5 f3 bf 24 8f aa 3f 5f 4e e6 3d d0 7d b6 3f
       -1.9049498 1.3324933 0.11245417 1.4257145
0002d0 c8 73 a2 bf 21 c2 21 40 ca f7 3f 3e 9c 84 be bf
       -1.2691584 2.5274737 0.18746868 -1.4884219
0002e0 dd b8 32 3e c3 45 dd bf 3b 2a 7b bf d3 cd 56 bf
       0.17453332 -1.7286915 -0.98111314 -0.8390781
0002f0 47 d5 03 bf 5c 97 ad bf 73 11 82 bf df 6c e2 be
       -0.5149731 -1.3561816 -1.0161575 -0.44223687
000300 d2 50 fd bf 33 c7 df 3e 60 e5 b4 bf 60 78 7e 3e
       -1.9790289 0.43706664 -1.41325 0.24850607
000310 02 ec 52 3f a0 fc 2d c0 40 88 a4 3e f6 87 8a bf
       0.8239137 -2.718544 0.321352 -1.0822742
000320 37 54 cd be 26 70 4e 3f ee 13 27 40 24 34 45 3f
       -0.40103313 0.80639875 2.6105914 0.77032685
000330 9b 4b ce bf a2 9e 74 3f a4 f9 1e bf 26 5e 91 3f
       -1.6116823 0.95554554 -0.6209967 1.1356857
000340 11 c6 a6 3f c2 d9 4a 3f b5 55 b0 3f 3a cc 36 40
       1.3029195 0.7923852 1.3776156 2.856215
000350 a1 17 03 3e c8 4d 87 3e d7 85 9b bd 61 e7 2d 3f
       0.12801982 0.2642653 -0.07593887 0.6793118
000360 af f0 6e bf 6c 0e 5b bf 64 81 0b bf d2 69 08 bf
       -0.93336004 -0.8556888 -0.5449431 -0.5328647
000370 85 98 9c 3f fc 82 cc 3c e7 b0 08 c0 67 a1 9b bf
       1.2234045 0.024964802 -2.1357973 -1.2158631
000380 75 65 de be 45 a2 d9 3e 17 e3 6d 3f 98 da 14 40
       -0.4343678 0.42506614 0.92924637 2.325842
000390 a9 84 85 bf 9d 8a 9a 3f 6d 31 e4 3f fd 48 09 40
       -1.043111 1.2073551 1.7827584 2.1450799
0003a0 3b 50 d2 3f cc f9 cf 3e 23 74 cf be 53 dd 69 bf
       1.6430734 0.40620267 -0.40518293 -0.9135334
0003b0 be 0b 1d c0 e9 6b 26 40 c8 d3 0a 40 46 3e 29 3f
       -2.4538417 2.6003363 2.169176 0.66110647
0003c0 3c b2 90 3e ae 19 8e 3f ec c0 7e 3e 76 d3 32 40
       0.28260982 1.1101587 0.24878281 2.7941566
0003d0 04 c0 dd bf af 3e 38 3f 76 22 d1 bf 9e d8 83 3f
       -1.7324224 0.7197065 -1.6338642 1.0300481
0003e0 0f 45 e7 3e 84 93 35 3f 0b a4 e9 3f 64 23 0b 3f
       0.45169875 0.70928216 1.8253187 0.54350877
0003f0 ce b7 de bf b9 04 b9 bf 8b fb 6b 3e cc 3c e6 bf
       -1.7399843 -1.4454566 0.23045175 -1.7987304

residual_blocks.0.bn2.weight f4 [64]
000000 77 1f e3 3f 94 a8 e0 3f 4c da e7 3f 33 6d ae 3f
       1.7743977 1.7551446 1.8113494 1.3627075
000010 98 c4 0c 40 fe fe 89 3f eb 0b 9e 3f 81 d0 94 3f
       2.1994991 1.0780942 1.2347387 1.162613
000020 72 3e 81 3f 75 4e dd 3f 37 1d 8f 3f b4 10 9a 3f
       1.0097182 1.7289568 1.1180791 1.2036347
000030 84 14 c1 3f 84 ab bd 3f 4e 2c 17 40 f8 b3 27 40
       1.5084386 1.4817967 2.3620791 2.6203594
000040 80 b5 71 3f 8f 51 6c 3f 75 68 0c 40 af 1e 38 40
       0.9441757 0.9231195 2.1938756 2.8768728
000050 99 1a de 3f f3 59 c4 3f df f0 be 3f b8 1a ce 3f
       1.7351867 1.533995 1.4917258 1.6101904
000060 5b 58 d2 3f ee 68 92 3f 78 eb 9f 3f 7d 34 8a 3f
       1.6433214 1.1438272 1.2493734 1.0797268
000070 dc 5a b9 3f 57 22 fe 3f 06 e4 9b 3f 51 fe 00 40
       1.4480853 1.985423 1.2178962 2.0155222
000080 81 60 98 3f 7e f2 cb 3f 93 0f 83 3f 50 35 19 40
       1.1904451 1.5933378 1.0239128 2.393879
000090 81 56 fc 3f e9 1d a8 3f 7e 55 c0 3f 82 8b cb 3e
       1.9713899 1.3134128 1.502609 0.39754874
0000a0 ae 03 8e 3f e6 d7 b8 3f 66 0e b8 3f 6f b7 29 40
       1.1094873 1.4440887 1.4379394 2.651821
0000b0 51 bf fb 3f 5b 8b f4 3f 4b 57 96 3f 03 84 cc 3f
       1.966776 1.9105028 1.174539 1.5977787
0000c0 82 8a bc 3f cf 6b 23 40 1b de 02 40 11 4a ee 3f
       1.4729769 2.553455 2.0448062 1.8616353
0000d0 34 a8 5c 3f 2e 24 b3 3f c4 7f 09 40 28 dd be 3f
       0.8619416 1.3995416 2.1484232 1.4911242
0000e0 c3 94 ff 3f 24 a0 ee 3f 1d 99 03 40 04 53 e4 3f
       1.9967273 1.8642621 2.0562203 1.7837834
0000f0 1b 05 93 3f 5d e2 f9 3f 44 70 f2 3f 3c 18 01 40
       1.1485933 1.9522206 1.8940511 2.0171041

residual_blocks.0.bn2.bias f4 [64]
000000 cf ad 2f bf 32 96 32 bf 42 78 24 c0 19 81 b0 be
       -0.68624586 -0.6976043 -2.56984 -0.34473494
000010 0f b9 d2 bf c6 5e 01 3f 30 b9 b2 3e f1 c4 c7 bd
       -1.6462725 0.5053524 0.34906912 -0.097543605
000020 7f 5b 9d 3e 99 51 8e be f5 27 ab 3b d8 c7 e8 bd
       0.30733868 -0.2779663 0.005223269 -0.11366242
000030 35 98 fc bd a1 4e a8 bf 40 dc de bf fc 50 38 c0
       -0.12333719 -1.3148996 -1.7410965 -2.879943
000040 b1 8c a6 3c f3 31 4e be 40 26 d8 bf 83 8d 50 c0
       0.020330759 -0.20136242 -1.6886673 -3.2586372
000050 16 b2 b4 bf 13 98 d1 bf 1a ef 46 bf 23 73 b4 bf
       -1.4116848 -1.6374534 -0.7770859 -1.4097637
000060 5e 04 a4 bf 4f 86 f0 be 47 7c 09 bf be 0d e3 3e
       -1.2813833 -0.4697747 -0.5370526 0.44346422
000070 a8 63 0a be c8 5f b6 bf f2 51 c1 be 28 e5 b7 bf
       -0.13514578 -1.424798 -0.37757832 -1.4366808
000080 08 06 3a bf fd 4f 05 bf 99 0c 6a 3f 04 4a 4c c0
       -0.7266545 -0.5207518 0.9142547 -3.1920176
000090 b5 92 38 c0 2a 92 e5 be d4 07 3f bf b3 3c c7 3e
       -2.8839543 -0.44838077 -0.7462132 0.38913497
0000a0 95 bc 28 bf 35 44 a9 bd c4 f6 c1 bf fa 16 22 c0
       -0.65912753 -0.082649626 -1.5153432 -2.5326524
0000b0 93 18 ce bf 75 44 e1 be 41 30 25 bf ea 33 0a 3f
       -1.610125 -0.4399754 -0.64526755 0.53985465
0000c0 61 20 d3 3e f1 5d 40 c0 19 37 28 c0 85 1d b7 bf
       0.4123564 -3.0057337 -2.628363 -1.4305884
0000d0 a8 b8 8c 3f f4 69 c1 3e 18 95 7b c0 36 8c 93 3b
       1.0993853 0.37776148 -3.930975 0.0045027984
0000e0 1f 9c 10 c0 07 5a f5 bf ee 05 ea bf cf 61 e8 bf
       -2.2595289 -1.9168099 -1.828306 -1.8154849
0000f0 d3 26 14 be 2a e5 9f bf fb 83 d3 bf 24 9d d2 bf
       -0.14467935 -1.249181 -1.6524652 -1.6454206

residual_blocks.0.bn2.running_mean f4 [64]
000000 63 97 36 c2 64 e8 c0 c0 b1 6e 3c 40 01 51 1c c0
       -45.64784 -6.028368 2.944256 -2.442444
000010 41 84 c5 c1 48 3b 1f c2 01 77 53 41 93 55 67 c1
       -24.689577 -39.80789 13.216554 -14.458392
000020 f6 2b 18 c1 20 df 2c c2 12 db 7c c1 e9 f1 44 c1
       -9.510733 -43.217896 -15.803484 -12.30906
000030 ed 2c 22 c2 9e 3d b1 c1 76 3f a5 c1 c0 47 fe c1
       -40.543873 -22.155087 -20.655987 -31.785034
000040 ba 34 bb c1 69 23 13 c1 4f ea 40 c2 46 1e 6a c2
       -23.400745 -9.196145 -48.228817 -58.529564
000050 c6 67 4f c0 28 da ac 40 b0 28 2f c1 ff 04 3f c1
       -3.2407088 5.4016304 -10.947433 -11.93872
000060 70 19 27 c2 86 f8 33 c1 24 75 99 c1 ee f5 8f 3f
       -41.77484 -11.248175 -19.182198 1.1246927
000070 11 d9 51 c1 27 30 60 c1 57 35 4c 41 82 ff 55 c2
       -13.115495 -14.011756 12.763022 -53.49952
000080 f7 7c 87 40 af d0 b8 c1 81 6f 82 42 c8 85 50 c1
       4.2340045 -23.101896 65.21778 -13.032661
000090 ba 20 06 c2 36 1e 97 3f b7 e0 99 c2 6a 06 5c 42
       -33.53196 1.1806095 -76.938896 55.006264
0000a0 fb 78 cc c1 f7 ad 3e 42 00 bf 3c c1 f8 c9 1e c2
       -25.559072 47.669888 -11.796631 -39.697235
0000b0 8b e0 5f c2 ee c1 ae c1 96 9d 07 c2 6e 93 23 42
       -55.96928 -21.844692 -33.903893 40.893974
0000c0 26 be 0d c2 6c 29 a4 c1 df bf 30 c1 02 e9 34 c2
       -35.43569 -20.520226 -11.046844 -45.227547
0000d0 bd 01 5c c1 87 01 71 42 9a d7 b7 c0 a7 71 0d 41
       -13.750424 60.25149 -5.7450686 8.840247
0000e0 bf 02 80 c1 b2 ba 4e c1 52 5f cc c1 24 d2 d3 c1
       -16.00134 -12.92058 -25.546543 -26.477608
0000f0 cc d9 85 40 4c f8 92 c2 42 5f 21 c2 e6 74 93 c0
       4.1828365 -73.484955 -40.343025 -4.60802

residual_blocks.0.bn2.running_var f4 [64]
000000 e9 ae b9 44 df a8 e8 44 5b 85 65 44 bf 1e 4d 44
       1485.466 1861.2772 918.0837 820.4804
000010 b6 36 94 44 50 bb 81 44 35 75 85 44 ef a6 83 44
       1185.7097 1037.8535 1067.6627 1053.2167
000020 9f 92 98 44 e9 6f a7 44 3c da 22 45 79 6e 6c 44
       1220.5819 1339.4972 2605.6396 945.72614
000030 df 42 57 44 00 62 45 44 64 39 c0 44 5c d0 d3 44
       861.04486 789.53125 1537.7935 1694.5112
000040 77 26 ee 44 3f 03 83 44 c1 f1 a6 44 32 4b b5 44
       1905.202 1048.1014 1335.5548 1450.3499
000050 82 53 3b 44 07 60 52 44 67 df 97 44 94 a2 9d 44
       749.3048 841.5004 1214.9813 1261.0806
000060 b1 59 61 44 d1 b2 af 44 0c ba 7d 44 1d a3 bf 44
       901.4014 1405.588 1014.907 1533.0973
000070 bb ff 88 44 35 a1 ac 44 be a6 86 44 56 23 b0 44
       1095.9916 1381.0377 1077.2107 1409.1042
000080 db 8c 7d 44 94 3e b6 44 d3 78 2b 45 08 2c 93 44
       1014.20087 1457.9556 2743.5515 1177.376
000090 d8 14 95 44 b9 d3 83 44 50 f1 d8 44 37 0b 0a 45
       1192.6514 1054.6163 1735.541 2208.701
0000a0 93 f8 51 44 5e a0 9a 44 ad f2 99 44 84 55 eb 44
       839.884 1237.0115 1231.5836 1882.6724
0000b0 b9 a8 ac 44 20 c9 b7 44 f0 5b 6c 44 4a 5b 0f 45
       1381.2726 1470.2852 945.4365 2293.7056
0000c0 c4 cf b1 44 d2 73 cd 44 6d 46 91 44 cc 46 48 44
       1422.4927 1643.6194 1162.2008 801.1062
0000d0 d7 41 f1 44 21 22 e6 44 9a 87 a4 44 bf 89 9c 44
       1930.0575 1841.0665 1316.2375 1252.3046
0000e0 f3 86 b7 44 c2 66 9e 44 36 c1 a8 44 5c 43 78 44
       1468.2172 1267.2112 1350.0378 993.0525
0000f0 05 37 da 44 be 35 b1 44 79 d8 94 44 a4 e8 b9 44
       1745.7194 1417.6794 1190.7648 1487.27

residual_blocks.1.conv1.weight f4 [64, 64, 3, 3]
000000 18 c4 af 3e 7d 91 c6 bf 95 29 75 bf 24 85 fa 3f
       0.34329295 -1.551315 -0.95766574 1.9571881
000010 7e fb 2b be 45 f7 d4 3e 3e 65 93 bf a7 c6 c9 be
       -0.16795155 0.41594902 -1.1515272 -0.39409372
000020 fa b6 8f be 7e 5e 5b be 97 56 10 c0 ed 30 20 c0
       -0.28069288 -0.21422765 -2.255285 -2.5029862
000030 7e 44 ad bf 45 3c bf 3f dd ae ca 3f 53 52 86 bf
       -1.3536527 1.4940268 1.5834614 -1.0493873
000040 03 7c 86 3e 18 ee 2f 3f 01 c7 6d bf 2e 92 50 40
       0.26266488 0.6872268 -0.9288178 3.258922
000050 86 75 8f 3f 4e ea 1e 3f b1 fd 89 3f 01 43 ed be
       1.120774 0.6207627 1.0780545 -0.46340182
000060 ff 7e 55 40 13 69 dc 3d 63 e8 e0 bf 48 d0 c6 bf
       3.3358762 0.10762229 -1.7570919 -1.5532312
000070 e8 a6 17 bf 19 8b ad 3e 42 18 10 3f f9 c6 23 3f
       -0.59239054 0.33895186 0.56287014 0.63975483
000080 4b b6 08 40 77 d6 c6 bd 3d b7 4f c0 e8 8c 92 be
       2.1361263 -0.09708875 -3.245559 -0.28623128
000090 36 10 03 40 d4 df eb 3f 3c 44 dc 3e 58 af 0d bf
       2.0478644 1.8427682 0.4302081 -0.5534568
0000a0 32 05 21 c0 03 0f 04 40 86 46 9f bf 9c 63 93 bf
       -2.515942 2.0634162 -1.2443397 -1.1514773
0000b0 ff 40 f7 3f 92 81 d4 be 82 d0 e8 be cd dd ac 3f
       1.931671 -0.41505104 -0.4547158 1.3505188
0000c0 b8 9d 69 bf 6e 12 ac bf 2d 67 8c bf 5b 4f 51 be
       -0.91256285 -1.3443124 -1.0968987 -0.20440428
0000d0 77 7a 13 bf 7e 6d 28 bf f6 3e 1a 3e dc 0e b3 bf
       -0.5760874 -0.6579207 0.1506308 -1.398891
0000e0 c7 f0 e0 3f 3a ac bc 3c 2d fd 68 3f 3a 2e a2 3e
       1.757348 0.023031343 0.91011316 0.31675893
0000f0 01 3f 0a c0 38 b8 1a 40 dd 12 b8 bf 95 c3 61 3f
       -2.1600955 2.4174938 -1.4380757 0.8818906
000100 80 2c df 3f e0 30 22 bf 9a 2e 56 3e 41 35 31 3f
       1.7435455 -0.6335583 0.20916215 0.69221884
000110 73 da a9 3f 69 d5 b0 be 81 89 80 bf 0d 6c 69 be
       1.326979 -0.3453782 -1.0041963 -0.22795124
000120 8a 23 b9 3f bc 5f 8f 3f c4 d2 d4 3e cc 77 c8 3d
       1.4463971 1.1201091 0.4156705 0.097884744
000130 39 71 a6 3c 25 d0 46 3f e9 d5 7d bd b9 be 79 bf
       0.02031766 0.77661353 -0.06197158 -0.97556645
000140 a5 40 80 3f 87 c6 99 bf 4a 43 f9 bf ec a7 9c bc
       1.0019728 -1.2013711 -1.947366 -0.01912304
000150 76 c7 08 bd 17 82 17 c0 bc da 90 be c6 68 04 c0
       -0.033393346 -2.367315 -0.2829188 -2.0688949
000160 57 41 22 c0 d0 8f f2 bf 0a 97 f8 3e 8a b7 42 be
       -2.535238 -1.8950138 0.48552734 -0.19015327
000170 f4 3f 32 bf d2 cf e4 bf 44 29 99 bf 37 58 e6 bd
       -0.69628835 -1.7875922 -1.1965718 -0.112472944
000180 7b 04 70 3f 88 c7 ad be 02 6a e5 be 16 c1 e5 be
       0.93756837 -0.33941293 -0.4480744 -0.44873875
000190 a7 f9 5d 3f eb 6d 7c bf a6 71 3a bf 70 f3 d8 bf
       0.86709064 -0.9860522 -0.72829664 -1.6949291
0001a0 e4 57 62 c0 9a 7e 56 bf 36 03 53 3d e8 d8 78 be
       -3.5366144 -0.8378693 0.051516734 -0.24301493
0001b0 b7 fc fb 3f 9f 51 a3 bf ab c2 15 40 72 1a a1 bf
       1.9686497 -1.2759284 2.3400066 -1.2586195
0001c0 f8 e0 0d 40 4e fc 2a 40 70 2a 1e 3f 4a c6 e5 bf
       2.216856 2.6716495 0.61783504 -1.7951138
0001d0 3c 93 8b 3e ab 5d b2 3f e8 e8 0e 3f f1 3b 66 3e
       0.27260768 1.3934835 0.55824137 0.22483803
0001e0 df fe a3 c0 a4 1e c5 3e 35 8e ad 3f 3e 83 c8 3f
       -5.124862 0.3849994 1.3559023 1.5665052
0001f0 91 b6 44 bf f5 47 49 3f 9a d3 53 bf a5 e8 9d 3f
       -0.76841074 0.7862542 -0.82744753 1.2336622
000200 e9 8f 51 bf 18 d2 1e 40 b6 f6 68 c0 73 39 e5 3e
       -0.81860214 2.481573 -3.640058 0.44770393
000210 49 8d b9 3f a0 a6 5f c0 a2 1d 4c 40 39 01 b6 3f
       1.4496242 -3.494545 3.1893086 1.4219123
000220 f1 d2 41 be b1 b5 7e bf 25 82 07 3e 13 46 a3 be
       -0.18928124 -0.9949599 0.1323324 -0.318894
000230 2d bb 12 bf fa 27 5c 3f 4c 9b de 3f 27 41 c1 bf
       -0.5731686 0.859985 1.7391143 -1.5098008
000240 b8 c8 c8 3c 37 2c b6 3e d8 eb d4 3e 80 d0 0c 3d
       0.024509773 0.35580608 0.41586185 0.03437853
000250 2a 8d 31 bd 13 7a 6e bf 49 c1 d6 3e 94 a7 4f be
       -0.043347515 -0.9315502 0.4194434 -0.2027877
000260 f3 1a 10 c0 0b 26 49 3f 53 c3 a0 be 8e 3b 49 3f
       -2.2516448 0.78573674 -0.3139902 0.786065
000270 b6 83 e5 3e 4e 35 5a c0 a5 3a a1 3f cc e2 20 40
       0.4482705 -3.4095035 1.2596022 2.5138426
000280 ce 17 55 be 34 b5 67 3f bd fe 52 bd d0 bc a1 3f
       -0.20809862 0.9051087 -0.05151247 1.2635746
000290 ac b9 16 40 50 b1 e3 3f 94 70 22 40 3e 49 84 3e
       2.3550825 1.7788486 2.5381212 0.2583713
0002a0 28 a3 38 bf 86 63 1e bf d7 68 48 3f 9b fb 41 c0
       -0.72123957 -0.6187061 0.7828497 -3.0309818
0002b0 e9 70 f6 be eb 85 94 bf b4 f5 8c bf b9 a1 e8 bf
       -0.4813302 -1.1603369 -1.1012483 -1.8174354
0002c0 e8 ed 2a 40 cf d8 a8 bf a8 9d 4b 40 41 e0 16 40
       2.6707706 -1.3191165 3.1814976 2.3574374
0002d0 88 b3 f2 bf 27 1d a2 3e f9 ce 0c bf d9 39 eb be
       -1.8961039 0.31662866 -0.55003315 -0.45942572
0002e0 b5 20 22 c0 ce 4c 8e 3e 36 60 01 3e 81 aa 3a 3c
       -2.5332463 0.27792972 0.12634358 0.01139319
0002f0 56 ac f2 3e 72 ac 13 bf 9e c7 30 40 e9 c9 af 3e
       0.47397107 -0.57685006 2.7621837 0.34333733
000300 dd 81 d3 bf ed 92 a1 3e c5 9a 98 bf 43 d0 f1 bf
       -1.6524006 0.31557408 -1.1922232 -1.8891681
000310 da d1 24 be 05 ef 5b 3f 4b c2 f7 3e 75 e1 bc 3f
       -0.16095677 0.8591159 0.4839042 1.4756304
000320 40 92 c3 3f 44 03 a7 be a4 31 83 3e 92 e6 b0 3e
       1.5279007 -0.3261968 0.2562381 0.3455091
000330 91 b1 81 bf e6 dc 07 be 7d 7a 50 3f d0 64 aa 3f
       -1.0132314 -0.1326786 0.814369 1.3312016
000340 a8 0e 3b 3f 62 90 61 bf 2e 4d a0 3f 4e eb f7 bf
       0.7306924 -0.88110936 1.2523553 -1.9368684
000350 26 03 c2 3f e5 4d f1 3f d1 85 c9 3f d7 49 21 3e
       1.5157211 1.8851897 1.5743963 0.15750824
000360 74 7f 0e 3f 3e 58 40 bf 8b f4 2b bf ed 0e 6d be
       0.5566323 -0.75134647 -0.6717002 -0.23150225
000370 56 29 be 3f 82 c7 6d c0 48 8b 23 40 9f ff 57 3f
       1.4856365 -3.715302 2.555376 0.8437442
000380 6c 3c 68 3e 24 62 91 3f 6c e8 0e bf c3 1c 55 3f
       0.22679299 1.1358075 -0.558234 0.8324701
000390 ff ef 7b be f6 ba 3f bf c4 f5 a9 3c 02 1c a3 3b
       -0.2460327 -0.74894655 0.020747073 0.004977704
0003a0 46 01 70 bf 4c da 45 3d 76 01 cd bf 99 e0 6d 3f
       -0.93751943 0.048303887 -1.6016071 0.92920834
0003b0 d0 61 9f bf a4 4f b5 bf a8 5c d6 3f a1 7f b6 3f
       -1.2451725 -1.4164929 1.6747026 1.4257699
0003c0 c3 20 b4 bf 6d b2 34 40 ea 51 70 3f 73 a5 d5 be
       -1.4072498 2.8233902 0.9387499 -0.4172779
0003d0 c5 b8 5e bd f6 1d 34 3e 41 9a 4a 3e a2 89 85 bf
       -0.05437543 0.17589554 0.19785406 -1.0432627
0003e0 a3 4f c1 3f ec d0 75 bf 6e 4d 57 3f e3 f0 8f 3e
       1.5102428 -0.96021914 0.84102523 0.2811347
0003f0 cd 42 48 3c 01 81 a2 bf bb 59 a9 3f fb ba 83 3e
       0.012222958 -1.2695619 1.3230509 0.25728592

residual_blocks.1.bn1.weight f4 [64]
000000 95 8c fe 3f 02 f4 ae 3f 6a 61 ea 3f e6 7d ca 3f
       1.9886652 1.3668215 1.8310978 1.5819671
000010 30 8b cb 3f 39 6e 17 40 54 69 bb 3f 97 88 b6 3f
       1.5901852 2.3661025 1.4641519 1.4260434
000020 5c df ee 3f 4c b6 9d 3f 3c 45 ab 3f 92 54 f7 3f
       1.8661914 1.2321258 1.3380504 1.9322684
000030 a2 86 26 40 14 bc d7 3f 03 e2 cf 3f bf cb 0f 40
       2.6019673 1.6854272 1.6240848 2.2468107
000040 5f a0 b1 3f 5c 1a 19 40 e2 27 de 3f ea 2a a3 3f
       1.3877066 2.3922338 1.7355921 1.2747471
000050 59 b8 ed 3f b8 44 bb 3f c9 77 17 40 1e 41 8a 3f
       1.8571883 1.4630346 2.366686 1.0801122
000060 fb 2e bb 3f df 30 b3 3f 70 fa 91 3f 13 db c6 3f
       1.4623712 1.3999289 1.1404552 1.5535606
000070 09 47 b3 3f ea 88 af 3f b7 1a a9 3f 35 41 e3 3f
       1.4006053 1.3713658 1.3211278 1.7754275
000080 b2 3e 15 40 21 4a 35 40 12 00 bf 3f 43 fb 13 40
       2.3319516 2.8326495 1.4921896 2.3122108
000090 02 7f ec 3f 1a 81 f4 3f 7d f2 c1 3f 0b a8 d1 3f
       1.847626 1.9101899 1.5152127 1.6379408
0000a0 68 25 d1 3f 12 59 c7 3f e8 b7 18 40 dd 2a 29 40
       1.633954 1.5574057 2.3862247 2.6432412
0000b0 9d 16 6d 3f c2 c6 65 3f db 8f 15 40 af 5d 87 3f
       0.9261263 0.89756405 2.3369052 1.0575465
0000c0 95 8a fa 3f eb dd 28 40 fa da d0 3f 7f bd 0c 40
       1.9573542 2.6385448 1.6316826 2.199066
0000d0 9c 8b 7a 3f fa 05 82 3f 2a 33 17 40 b8 0d bd 3f
       0.97869277 1.0158074 2.3624978 1.4769812
0000e0 3f 6f e6 3f e8 41 06 40 ed e8 9a 3f 5f 37 e6 3f
       1.80027 2.0977726 1.2102333 1.7985648
0000f0 22 aa 0e 40 1c 28 a4 3f 9b a9 8a 3f 88 db 8d 3f
       2.229134 1.282474 1.083301 1.1082621
