backend_engine/ml/models/session_1764625687/epoch_3_64ch_3resblocks.pth (torch, 990759 bytes, 39 tensors)

conv.weight f4 [64, 20, 3, 3]
-1.1434841 0.08493488 -0.741454 -1.4304711 -5.5859118 -0.8900406 -2.743794 -2.8242502
-0.7058733 -1.6003131 -6.1685753 -8.075653 -14.421461 -1.3101103 -10.902954 0.9754248
-12.927337 -0.4570064 -2.9216754 1.9325155 -3.248934 -0.57866913 -10.856692 -0.5336542
-1.8618119 -2.2682903 -8.053844 -0.096151575 -10.028868 1.355531 1.1581075 -0.50992125
-3.8532524 -4.3009734 -5.289318 -4.8012133 1.1463041 -0.12521139 0.14072382 2.0333557
-3.8432572 -2.7198317 -0.20006596 -4.7241917 -4.332126 0.8570245 4.321398 4.460545
1.5880419 5.4916897 1.189583 0.73246133 0.78174514 3.506631 1.9953041 -0.42861956
1.055816 0.9568678 -0.7627821 -0.73327214 0.0037463973 0.7812398 0.33367127 -4.191217
-1.1105821 0.033379734 0.71454525 0.72832364 1.5696783 -0.16374826 0.9938408 2.7445726
1.9924333 1.0489187 1.2303537 1.366557 1.6880552 1.4036236 1.7882047 1.505808
4.1950097 5.4601383 4.167978 5.856347 0.7762649 2.3996563 3.8830457 1.2499584
3.8746529 2.15173 4.9421453 -0.97048086 5.331004 1.0109949 2.083255 1.7698224
2.1124184 1.30903 4.9159 4.841532 -5.6341157 7.119561 -2.5783796 -3.9900367
-3.7514362 -2.6258965 -2.5866373 2.0756328 -0.0031104563 0.15336697 -0.017681517 -0.083480954
-0.007852158 0.013357886 -0.29534182 -0.13995719 -0.2679634 0.10782068 -0.034164637 -0.114582404
-0.15810114 -0.26480585 -0.30990416 0.52623886 0.3198197 0.4498672 -0.018118016 -0.03942109
-0.46671823 -0.3060851 -0.26232103 -0.573095 0.32932276 0.21692227 -0.0002036291 0.23032798
-0.016327944 -0.15727325 -0.08859832 -0.19023639 -0.2402519 0.3143624 0.07632446 0.07028858
0.34022763 0.067395605 -0.1755234 -0.032248307 -0.059899803 -0.27305534 0.15759006 0.07466
-0.17563179 0.5238716 1.6491643 1.5911522 2.1008437 0.09947818 0.154762 0.3959212
0.7781252 0.034793932 0.32163247 0.0050193714 0.10467257 0.5722824 0.42644522 0.31844923
0.40091214 0.26708648 0.116323076 -0.4397292 0.25138113 -0.9012682 0.0036842392 0.95979196
-0.25804254 -0.19425671 0.9347837 -0.38607135 0.121851556 3.7113023 -2.5130348 -0.2598328
1.3699956 -4.3774223 -2.7521946 1.4502246 5.7173705 -0.8513317 -0.14922059 -0.501411
-2.0563252 -0.42057037 1.8473787 -1.2625612 2.5564408 1.8800998 -0.44769785 -1.406602
-2.1478646 -0.67907935 -0.36608317 0.013469894 -1.1546763 -0.04117336 0.14560504 2.7025013
-1.7115306 -2.5997746 -1.6995338 1.2055378 -4.154036 0.5829423 0.7820518 -0.96729374
-0.19659363 -0.42407718 -0.8784686 1.5716041 0.6939703 -0.19401166 -0.58195245 0.20282404
-1.2275914 -0.72426176 -0.5527841 -2.8161848 -1.247909 -4.788092 -1.5507522 -0.0039371075
-1.8873228 0.18534347 -0.9281163 1.2198453 -4.4807925 -0.31041595 -6.655104 -4.207823
0.53824466 -0.82565963 -1.2295336 1.0591831 2.5165296 -0.26946083 -1.8543376 -0.013737842
0.88654363 1.7280273 1.4349535 1.2672805 -1.0259359 0.572674 0.8957027 -0.1057349
00000000: b05d 92bf 57f2 ad3d eecf 3dbf ad19 b7bf
00000010: cabf b2c0 b3d9 63bf 529a 2fc0 84c0 34c0
00000020: 1db4 34bf 0fd7 ccbf f864 c5c0 e035 01c1
00000030: 4ebe 66c1 b2b1 a7bf 8072 2ec1 71b5 793f
00000040: 5fd6 4ec1 befc e9be bbfc 3ac0 ab5c f73f
00000050: 89ee 4fc0 a923 14bf 03b5 2dc1 909d 08bf
00000060: da4f eebf ab2b 11c0 8cdc 00c1 1eeb c4bd
00000070: 3e76 20c1 0a82 ad3f de3c 943f 338a 02bf
00000080: b09b 76c0 93a1 89c0 1842 a9c0 8aa3 99c0
00000090: 18ba 923f 6a37 00be e819 103e 8022 0240
000000a0: edf7 75c0 b911 2ec0 17de 4cbe 942c 97c0
000000b0: c7a0 8ac0 f565 5b3f e448 8a40 c9bc 8e40
000000c0: f544 cb3f ecbb af40 4144 983f 9682 3b3f
000000d0: 7320 483f a46c 6040 2066 ff3f 0674 dbbe
000000e0: fb24 873f 4af5 743f b045 43bf b9b7 3bbf
000000f0: 1e86 753b 55ff 473f f6d6 aa3e 731e 86c0
00000100: 8e27 8ebf 30b9 083d 70ec 363f 6b73 3a3f
00000110: 38eb c83f a0ad 27be 5a6c 7e3f 14a7 2f40
00000120: 0e08 ff3f f842 863f 3b7c 9d3f 57eb ae3f
00000130: 3112 d83f f0a9 b33f e4e3 e43f 51be c03f
00000140: 853d 8640 74b9 ae40 1360 8540 3267 bb40
00000150: 4cb9 463f f893 1940 d283 7840 a3fe 9f3f
00000160: 50fa 7740 f2b5 0940 0e26 9e40 6f71 78bf
00000170: 9697 aa40 4868 813f 0d54 0540 8a89 e23f
00000180: dd31 0740 4c8e a73f 0e4f 9d40 d5ed 9a40
00000190: ad4a b4c0 72d3 e340 2c04 25c0 c35c 7fc0
000001a0: 8817 70c0 b00e 28c0 778b 25c0 2bd7 0440
000001b0: ccd8 4bbb 3b0c 1d3e d4d8 90bc 10f8 aabd
000001c0: 56a6 00bc 09db 5a3c 0b37 97be f050 0fbe
000001d0: 8032 89be 17d1 dc3d 38f0 0bbd 2eaa eabd
000001e0: 44e5 21be a294 87be c2ab 9ebe 97b7 063f
000001f0: 68bf a33e fe54 e63e 3c6c 94bc 0278 21bd
00000200: b1f5 eebe 30b7 9cbe f14e 86be 5bb6 12bf
00000210: fe9c a83e df20 5e3e 4585 55b9 19db 6b3e
00000220: 2ec2 85bc 3d0c 21be 0973 b5bd 54cd 42be
00000230: 9804 76be 1cf4 a03e 0050 9c3d 76f3 8f3d
00000240: 5132 ae3e b506 8a3d 68bc 33be cd16 04bd
00000250: 7f59 75bd e9cd 8bbe 4a5f 213e 58e7 983d
00000260: d2d8 33be 731c 063f d117 d33f e0aa cb3f
00000270: 3974 0640 37bb cb3d ee79 1e3e 2fb6 ca3e
00000280: 3733 473f 1584 0e3d 03ad a43e 8a79 a43b
00000290: 935e d63d 1981 123f 0757 da3e c70b a33e
000002a0: 5b44 cd3e 8fbf 883e cb3a ee3d 3024 e1be
000002b0: 07b5 803e 83b9 66bf 4773 713b edb4 753f
000002c0: 271e 84be 3beb 46be fc4d 6f3f 25ab c5be
000002d0: 4f8d f93d fa85 6d40 90d5 20c0 ce08 85be
000002e0: 045c af3f d813 8cc0 f523 30c0 f6a0 b93f
000002f0: b3f4 b640 e0f0 59bf 48cd 18be 795c 00bf
00000300: d59a 03c0 0055 d7be e876 ec3f 9b9b a1bf
00000310: ba9c 2340 1ca7 f03f a738 e5be 890b b4bf
00000320: 9d76 09c0 25d8 2dbf 416f bbbe d5b0 5c3c
00000330: 6fcc 93bf 66a5 28bd 7d19 153e c8f5 2c40
00000340: 6f13 dbbf b562 26c0 538a d9bf 104f 9a3f
00000350: dded 84c0 b53b 153f 8c34 483f 90a0 77bf
00000360: d74f 49be a520 d9be 51e3 60bf 532a c93f
00000370: 0aa8 313f feaa 46be d6fa 14bf 1bb1 4f3e
00000380: b721 9dbf 3869 39bf 4283 0dbf 5f3c 34c0
00000390: 7bbb 9fbf 0d38 99c0 0c7f c6bf da02 81bb
000003a0: cb93 f1bf aeca 3d3e 0899 6dbf e423 9c3f
000003b0: a762 8fc0 d7ee 9ebe 9df6 d4c0 7ca6 86c0
000003c0: 67ca 093f 6e5e 53bf 5b61 9dbf 5093 873f
000003d0: d20e 2140 c5f6 89be ef5a edbf b014 61bc
000003e0: 86f4 623f 0030 dd3f 8eac b73f 3f36 a23f
000003f0: de51 83bf c39a 123f c64c 653f 8a8b d8bd

bn.weight f4 [64]
0.9014752 1.2322835 0.61241794 1.0876012 1.9362884 1.5472661 1.191257 1.1204646
1.0791471 0.794961 1.1900947 0.9837698 1.7278168 0.87503237 1.2707906 1.5508338
1.4620343 0.5533788 0.9826747 0.6406159 0.6537932 0.8064071 1.0040382 1.7803159
0.7880307 0.6109645 0.6612416 0.93874633 0.523742 1.361923 0.814033 0.71307296
0.513685 1.2796637 0.85210437 0.6119532 1.9420631 0.7680378 0.7218738 1.2505076
0.7000932 1.330253 2.1139884 0.64557374 1.4618089 0.6768027 1.1928866 0.62326974
1.1207342 1.5999074 1.519929 2.250664 0.6293204 1.4588377 1.2636477 1.4727833
1.1808708 0.7371132 1.1421783 0.68160206 1.0484816 0.651418 0.74369 0.8556944
00000000: 14c7 663f 77bb 9d3f 6cc7 1c3f 8436 8b3f
00000010: 4cd8 f73f d10c c63f 1c7b 983f 626b 8f3f
00000020: 7e21 8a3f 9082 4b3f 0655 983f 56d8 7b3f
00000030: 1a29 dd3f 1f02 603f 44a9 a23f b981 c63f
00000040: f123 bb3f 3caa 0d3f 9290 7b3f 67ff 233f
00000050: fe5e 273f b270 4e3f 5384 803f 64e1 e33f
00000060: 61bc 493f 2b68 1c3f 2147 293f ae51 703f
00000070: f513 063f 7e53 ae3f 7764 503f f38b 363f
00000080: dc80 033f 05cc a33f 8323 5a3f f7a8 1c3f
00000090: 8695 f83f 209e 443f b9cc 383f a210 a03f
000000a0: 4f39 333f bb45 aa3f 964b 0740 5244 253f
000000b0: 8e1c bb3f f142 2d3f 82b0 983f 9b8e 1f3f
000000c0: 3874 8f3f c4c9 cc3f 098d c23f e10a 1040
000000d0: 241b 213f 32bb ba3f 35bf a13f 2a84 bc3f
000000e0: c626 973f 73b3 3c3f e632 923f 797d 2e3f
000000f0: a534 863f 54c3 263f 7862 3e3f ca0e 5b3f

bn.bias f4 [64]
0.28864676 -0.65964454 0.87028974 -0.77970576 -3.693314 -0.8023842 -1.4611598 -0.5413646
-0.04736537 -0.11844964 0.6284879 -0.8520959 -1.7553933 -0.0496785 -1.6660061 -2.2687013
1.6966047 1.211942 0.38730016 0.6367208 0.2024343 -0.096831754 -1.2659636 -0.83969253
0.7090846 1.2932869 0.588596 -0.2636698 0.7079433 -0.7655421 0.27111614 0.5775146
0.80405855 -1.6539719 1.3123484 0.7930519 -0.9839307 0.474479 1.0740881 0.35251707
0.17885561 -1.917163 -1.4181006 0.71065253 -1.8346978 0.5324268 -0.05717147 0.91032016
-1.7393557 -1.7689828 -1.7901423 -1.6947576 0.9847643 -1.5309033 -1.8094891 -1.2345487
-0.3314406 0.09808263 -1.1528825 0.1833743 0.68019855 0.60912544 -0.22918259 -0.17219917
00000000: 82c9 933e 77de 28bf 4fcb 5e3f cc9a 47bf
00000010: 425f 6cc0 0d69 4dbf 4907 bbbf df96 0abf
00000020: 3102 42bd ba95 f2bd 95e4 203f f522 5abf
00000030: bab0 e0bf af7b 4bbd b03f d5bf 6732 11c0
00000040: 582a d93f ea20 9b3f 354c c63e 2200 233f
00000050: f04a 4f3e ba4f c6bd 180b a2bf 17f6 56bf
00000060: 9186 353f 6d8a a53f 3aae 163f baff 86be
00000070: c63b 353f 91fa 43bf bccf 8a3e ffd7 133f
00000080: c8d6 4d3f 5ab5 d3bf 08fb a73f 7305 4b3f
00000090: e2e2 7bbf e9ee f23e b87b 893f 1e7d b43e
000000a0: ed25 373e 9965 f5bf 5284 b5bf 53ed 353f
000000b0: 61d7 eabf 1f4d 083f a22c 6abd be0a 693f
000000c0: 35a3 debf 076e e2bf 6223 e5bf d1ed d8bf
000000d0: 8319 7c3f a4f4 c3bf 579d e7bf b105 9ebf
000000e0: 95b2 a9be 8cdf c83d a791 93bf 79c6 3b3e
000000f0: 7e21 2e3f a5ef 1b3f d7ae 6abe fb54 30be

bn.running_mean f4 [64]
-2.1953406 -6.3596087 -0.110763915 -1.262473 2.0254622 -1.0434667 -1.0458453 -1.2892884
0.50071937 0.17569439 -1.2352809 0.50227076 2.2750258 -0.6271759 1.2148241 3.1132703
1.0455854 -0.43145546 0.029347237 -1.7836288 -0.015847918 -1.1580493 0.10227878 -10.766942
-0.64888006 -0.23347713 -1.2509227 1.2413315 -0.9635343 -1.0590445 -0.34162626 -0.34875876
-0.0060169976 1.5365876 -0.77668774 0.021771302 -4.06647 0.4089183 0.48170093 1.2730532
-0.45917684 -0.23117228 0.7565886 -2.1370313 1.2295481 -1.4540522 1.2569212 -2.2399235
2.54968 -0.7906507 1.5762926 -4.8345118 -7.396504 -1.6388115 0.7652331 -2.5422773
0.04369194 -1.853617 0.4258512 -0.5623103 -0.42734426 -2.4582734 -2.5562873 1.1318643
00000000: 7680 0cc0 ea81 cbc0 31d8 e2bd b798 a1bf
00000010: 2ca1 0140 5190 85bf 42de 85bf 6707 a5bf
00000020: 252f 003f 3be9 333e af1d 9ebf d194 003f
00000030: 069a 1140 9a8e 20bf 5b7f 9b3f d23f 4740
00000040: bed5 853f bbe7 dcbe 9e69 f03c f34d e4bf
00000050: 7ed3 81bc f63a 94bf 8977 d13d 6545 2cc1
00000060: 011d 26bf a114 6fbe 3c1e a0bf f3e3 9e3f
00000070: 2faa 76bf c58e 87bf a3e9 aebe 8290 b2be
00000080: 3c2a c5bb e7ae c43f 02d5 46bf bb59 b23c
00000090: 8620 82c0 bd5d d13e 81a1 f63e 68f3 a23f
000000a0: 3a19 ebbe 6db8 6cbe caaf 413f 1fc5 08c0
000000b0: d561 9d3f 621e babf cbe2 a03f e85a 0fc0
000000c0: f52d 2340 1668 4abf f5c3 c93f 52b4 9ac0
000000d0: 29b0 ecc0 93c4 d1bf 51e6 433f acb4 22c0
000000e0: 52f6 323d 5243 edbf 2b09 da3e 91f3 0fbf
000000f0: decc dabe 5a54 1dc0 369a 23c0 eee0 903f

bn.running_var f4 [64]
40.94072 26.50267 8.810699 14.566396 9.29569 21.059551 13.935935 7.872771
5.332371 9.116338 50.577328 9.402542 13.251718 14.875726 8.916652 11.556923
40.427242 7.9541626 14.755915 9.800112 7.774295 14.586205 10.728838 64.599915
8.737138 10.516151 12.193017 13.68992 8.971816 14.041131 12.601037 11.419895
10.183459 13.375437 41.988945 8.817973 45.939243 9.924176 36.544743 8.761228
7.4568634 4.9348207 24.334986 11.490601 15.26371 11.275473 20.819473 11.698838
7.66507 9.610855 12.614721 81.25256 22.266155 15.117193 6.407556 9.491802
12.432677 10.350948 6.595247 8.900331 16.44827 11.74871 6.601247 8.290586
00000000: 4cc3 2342 7805 d441 a0f8 0c41 f50f 6941
00000010: 25bb 1441 f679 a841 97f9 5e41 bded fb40
00000020: c9a2 aa40 85dc 1141 2f4f 4a42 d070 1641
00000030: 0907 5441 f902 6e41 9baa 0e41 28e9 3841
00000040: 7fb5 2142 8088 fe40 3a18 6c41 42cd 1c41
00000050: 06c7 f840 1861 6941 52a9 2b41 2833 8142
00000060: 51cb 0b41 2842 2841 9916 4341 ea09 5b41
00000070: 8f8c 0f41 79a8 6041 d99d 4941 e4b7 3641
00000080: 73ef 2241 ca01 5641 aef4 2742 6b16 0d41
00000090: c9c1 3742 6dc9 1e41 d12d 1242 fd2d 0c41
000000a0: a09e ee40 0dea 9d40 0dae c241 80d9 3741
000000b0: 2838 7441 5668 3441 488e a641 712e 3b41
000000c0: 4148 f540 10c6 1941 e6d5 4941 5081 a242
000000d0: 1621 b241 06e0 7141 b30a cd40 6cde 1741
000000e0: 3fec 4641 7c9d 2541 430c d340 c167 0e41
000000f0: 0f96 8341 b7fa 3b41 6a3d d340 3ea6 0441

residual_blocks.0.conv1.weight f4 [64, 64, 3, 3]
-0.8829852 1.2024866 -0.80473363 -0.8265859 0.8143659 1.8455955 1.0971 1.3238991
0.6430761 2.1845233 0.32782367 0.49980253 0.61470413 -0.29792202 -1.2219727 -1.4812759
0.49796614 -0.056047298 -0.34476927 -0.6519255 0.2489555 0.04270515 -0.848034 0.119512275
-1.4100933 -1.6142836 -0.5757943 0.58883095 0.89057475 0.21956836 3.008237 4.138467
-0.010801575 0.8485176 4.747553 -0.94131285 -1.8840191 -0.84473747 1.9720714 0.3953542
-1.5006812 -1.6129874 0.26379395 -2.5263412 -1.5225893 0.54620475 -0.27401373 -0.44636282
0.028842308 -2.3511128 -0.70033824 -0.40236092 -1.7762226 -0.9199368 1.3013898 0.17846185
-0.7859095 0.55527204 4.569192 3.0924494 1.5319117 1.3773458 1.4917501 -0.1365035
2.691677 0.14339694 -0.38728884 0.9333351 -0.9584331 1.931463 -1.1127598 1.4617251
-0.25946683 1.0506599 -0.7068401 0.07350033 2.0862024 0.09789842 0.3829516 3.0490406
1.3425283 -0.225689 1.731057 -0.96573955 -0.2553094 -0.25164798 0.79457563 1.0601146
-0.541824 -1.5762072 0.8703989 -0.7788984 0.55277526 1.538883 -1.5566635 -0.74158216
1.7101748 0.27548435 0.49819055 0.027491359 -2.6271346 -0.33554533 0.30010596 -0.6586018
-0.24891524 -1.9077389 -0.82854295 0.5951861 -2.1243749 2.0505342 -0.77136767 -0.7344491
0.36450937 -0.75776637 -0.110062875 -1.1706904 1.6479367 -0.5542512 1.008824 0.2332469
0.06898006 -0.22221428 0.2892578 1.1032772 1.2797562 -0.3576364 -1.4868455 -1.3705579
-1.8098638 0.7759559 -4.269589 3.2129946 -1.328621 -0.015064214 -0.0700677 0.21496929
1.4502312 1.958749 0.2010493 0.29897195 -2.0147617 1.9202203 -1.9017345 3.572392
-0.7552862 1.5231555 0.5138759 -0.2795317 0.8760015 -0.47087497 -1.1745305 -1.9304819
-2.0126617 -3.3752155 0.77573055 0.6899137 -1.5118388 -1.1951208 0.21882427 -1.6778132
-1.2285295 0.35444555 -5.7080593 0.42946136 -2.1211102 -0.44904786 -2.3919704 -0.4432949
0.057567228 0.17179076 -1.6981044 -2.0295854 -1.2322291 0.10712892 -0.6464489 -0.7691286
0.48832363 0.64744186 1.7330496 -1.4855471 2.8198783 -0.40177828 0.68021905 0.34696743
1.9642164 0.31666893 -1.1765612 -0.1388073 -0.4324567 0.13711427 -0.7697948 -0.9303814
-0.9012884 -1.2684017 1.148151 0.46609634 -0.3280823 1.0803202 0.9387346 1.731138
-0.23558751 0.14168312 1.7956624 -2.693368 1.4991343 1.4206295 2.939232 0.3224111
-1.4065294 -1.59444 1.1608262 -0.84387183 -1.0743564 1.5060742 0.0038927381 -0.99691534
-1.364362 2.0874622 0.0919637 -0.42584035 -0.066290565 -1.5497947 -1.618772 -2.401489
0.16320199 0.5685451 0.7051084 -2.5316741 0.5061818 3.257201 -1.704619 -2.074937
1.8673347 -1.4157614 -0.48326105 -2.731751 1.0419608 -1.2525429 -0.35249844 -0.22449124
-0.47142163 0.32805988 -0.26049507 -1.0717728 0.7268355 -1.9673693 -3.5431259 1.4814484
-0.02883607 -0.09289583 1.2726591 -0.79510105 -1.3955666 -1.1908964 1.8932498 -1.1361173
00000000: 510b 62bf 15eb 993f 0603 4ebf 229b 53bf
00000010: 497a 503f 793c ec3f c66d 8c3f 8775 a93f
00000020: a3a0 243f 3bcf 0b40 81d8 a73e 1ee6 ff3e
00000030: 405d 1d3f 3c89 98be 9a69 9cbf 739a bdbf
00000040: 6bf5 fe3e da91 65bd 9985 b0be 97e4 26bf
00000050: 31ee 7e3e 98eb 2e3d c218 59bf dac2 f43d
00000060: f07d b4bf d8a0 cebf 4167 13bf a0bd 163f
00000070: b5fc 633f 87d6 603e f486 4040 526e 8440
00000080: 17f9 30bc 7338 593f f4eb 9740 e1f9 70bf
00000090: 8a27 f1bf b740 58bf d66c fc3f de6b ca3e
000000a0: 5216 c0bf 5f76 cebf 0010 873e 93af 21c0
000000b0: 35e4 c2bf 13d4 0b3f 874b 8cbe ab89 e4be
000000c0: b446 ec3c a278 16c0 5e49 33bf 4002 cebe
000000d0: 435b e3bf fa80 6bbf f193 a63f b4be 363e
000000e0: 5d31 49bf 4f26 0e3f d236 9240 b1ea 4540
000000f0: af15 c43f de4c b03f abf1 be3f 93c7 0bbe
00000100: 7044 2c40 a6d6 123e b94a c6be 0def 6e3f
00000110: df5b 75bf 2e3a f73f ea6e 8ebf cf19 bb3f
00000120: d6d8 84be 067c 863f 79f3 34bf 5787 963d
00000130: 5784 0540 f87e c83d 3b12 c43e 7b23 4340
00000140: f8d7 ab3f 041b 67be 4793 dd3f b53a 77bf
00000150: eab7 82be 01d8 80be 4f69 4b3f d6b1 873f
00000160: fab4 0abf 28c1 c9bf 76d2 5e3f e365 47bf
00000170: ae82 0d3f 1efa c43f c040 c7bf 54d8 3dbf
00000180: 02e7 da3f 490c 8d3e d512 ff3e 8f35 e13c
00000190: f922 28c0 99cc abbe 7da7 993e 219a 28bf
000001a0: a3e3 7ebe ca30 f4bf 641b 54bf 1e5e 183f
000001b0: c2f5 07c0 f43b 0340 5a78 45bf db04 3cbf
000001c0: f9a0 ba3e fafc 41bf a568 e1bd 2fd9 95bf
000001d0: 97ef d23f 68e3 0dbf 2521 813f 46d8 6e3e
000001e0: 6b45 8d3d 248c 63be 9919 943e 3038 8d3f
000001f0: 0dcf a33f 1e1c b7be f450 bebf 716e afbf
00000200: 9ea9 e7bf 0ca5 463f 79a0 88c0 b4a1 4d40
00000210: 4110 aabf e5cf 76bc a87f 8fbd e920 5c3e
00000220: 2da1 b93f 4ab8 fa3f dedf 4d3e da12 993e
00000230: dbf1 00c0 c7c9 f53f 096c f3bf 12a2 6440
00000240: 705a 41bf c2f6 c23f 5f8d 033f c71e 8fbe
00000250: a241 603f 8616 f1be 0457 96bf 081a f7bf
00000260: 73cf 00c0 8803 58c0 4796 463f 2f9e 303f
00000270: ef83 c1bf b8f9 98bf 7813 603e 95c2 d6bf
00000280: 7440 9dbf e379 b53e 6ca8 b6c0 5ce2 db3e
00000290: 45c0 07c0 9ae9 e5be 0b16 19c0 8df7 e2be
000002a0: 9dcb 6b3d ebe9 2f3e 7c5b d9bf bae4 01c0
000002b0: afb9 9dbf 6866 db3d ad7d 25bf 9de5 44bf
000002c0: 8e05 fa3e c0be 253f 92d4 dd3f 6826 bebf
000002d0: e378 3440 e2b5 cdbe d622 2e3f b7a5 b13e
000002e0: 716b fb3f 6e22 a23e 8f99 96bf 8023 0ebe
000002f0: f76a ddbe af67 0c3e 4611 45bf 7a2d 6ebf
00000300: d6ba 66bf fd5a a2bf 9df6 923f 2ea4 ee3e
00000310: 67fa a7be ef47 8a3f e950 703f ee95 dd3f
00000320: da3d 71be 6115 113e 44d8 e53f 2460 2cc0
00000330: a2e3 bf3f 30d7 b53f 611c 3c40 1113 a53e
00000340: 2809 b4bf 9c16 ccbf f495 943f fc07 58bf
00000350: 8384 89bf 0ac7 c03f 4f1d 7f3b d835 7fbf
00000360: 6aa3 aebf fb98 0540 7757 bc3d bf07 dabe
00000370: 59c3 87bd ac5f c6bf ec33 cfbf ffb1 19c0
00000380: 6c1e 273e 2c8c 113f fc81 343f f306 22c0
00000390: 2195 013f fb75 5040 f530 dabf c5cb 04c0
000003a0: d304 ef3f ab37 b5bf fe6d f7be 02d5 2ec0
000003b0: f95e 853f 5353 a0bf ad7a b4be 08e1 65be
000003c0: 2d5e f1be 77f7 a73e 9c5f 85be da2f 89bf
000003d0: e411 3a3f c2d2 fbbf 93c2 62c0 1aa0 bd3f
000003e0: 9f39 ecbc 2b40 bebd 7ee6 a23f be8b 4bbf
000003f0: eda1 b2bf 4b6f 98bf 0256 f23f 4b6c 91bf

residual_blocks.0.bn1.weight f4 [64]
1.4736129 1.6553282 1.2174149 2.0547986 1.1698022 1.0295726 1.3949077 0.9607233
2.4272637 1.926989 1.3884037 1.3206414 1.3778185 1.2069111 1.5615593 1.6041222
2.5413694 1.6962934 1.963785 1.8234395 1.4811643 2.8796487 1.1063914 2.933429
1.1981224 1.2465601 2.6013436 1.4970098 2.0113084 1.4910839 1.1177161 1.9552561
2.2303033 1.110843 1.0139433 1.3616779 1.1602709 1.6544058 1.7047946 2.4128606
2.4047415 2.5468643 1.0761456 2.2820258 2.6652389 1.4566449 2.2454274 1.1387715
1.4825579 2.0574887 2.2338378 2.849293 1.5425743 1.8370919 1.0502136 1.6101615
1.5641302 2.211637 3.0776308 2.216449 2.0985258 1.4856927 1.1083829 1.3648483
00000000: 599f bc3f cbe1 d33f 40d4 9b3f d281 0340
00000010: 14bc 953f 09c9 833f 568c b23f f6f1 753f
00000020: 4a58 1b40 93a7 f63f 36b7 b13f c70a a93f
00000030: 5b5c b03f 107c 9a3f 2de1 c73f e053 cd3f
00000040: cca5 2240 2420 d93f 4f5d fb3f 7766 e93f
00000050: cb96 bd3f 2a4c 3840 3c9e 8d3f 4dbd 3b40
00000060: 135c 993f 488f 9f3f 6a7c 2640 049e bf3f
00000070: 47b9 0040 d6db be3f 5211 8f3f d545 fa3f
00000080: 4abd 0e40 1a30 8e3f e5c8 813f 764b ae3f
00000090: c283 943f 92c3 d33f b636 da3f 4f6c 1a40
000000a0: 49e7 1940 d3ff 2240 24bf 893f b60c 1240
000000b0: 4693 2a40 5773 ba3f 15b5 0f40 44c3 913f
000000c0: 75c4 bd3f e5ad 0340 33f7 0e40 d15a 3640
000000d0: 1373 c53f d425 eb3f 666d 863f c619 ce3f
000000e0: 6b35 c83f 768b 0d40 e7f7 4440 4dda 0d40
000000f0: 3f4e 0640 2e2b be3f 7edf 8d3f 59b3 ae3f

residual_blocks.0.bn1.bias f4 [64]
-0.5844713 -1.163052 1.1611925 -0.8803752 -0.039974567 0.30898595 -0.41372675 0.75286555
-1.4340472 -2.1927283 0.21860264 0.49749047 0.20911169 0.85088515 -1.2779514 -0.8086727
-1.1132092 -1.1624131 -0.23732626 -0.48319867 -0.3566122 -2.9257066 1.1158315 -2.7202613
0.6331314 -0.29865992 -0.7834577 -0.7410925 0.0765652 0.12267862 0.86439574 -1.2566301
-2.644955 -0.037455883 0.6090533 -0.18555082 1.0812947 0.91813564 0.65874165 -0.36612424
-1.1227411 -3.0969365 2.5295596 -1.7357016 -2.1841578 -0.122811146 -1.2719244 0.09031701
-0.97505677 -1.2779739 -2.8569489 -2.139783 -0.8366924 -2.9096413 0.40793017 -1.0435848
0.08810146 -1.587739 -3.6054757 -1.5171777 -0.52499807 0.26642352 -0.06739921 0.39618564
00000000: e99f 15bf e3de 94bf f5a1 943f 4560 61bf
00000010: 5fbc 23bd 6833 9e3e fed3 d3be ccbb 403f
00000020: dc8e b7bf a955 0cc0 5fd9 5f3e 12b7 fe3e
00000030: 6021 563e 9cd3 593f e993 a3bf 2d05 4fbf
00000040: a47d 8ebf f4c9 94bf a805 73be d165 f7be
00000050: e095 b6be c73e 3bc0 91d3 8e3f c318 2ec0
00000060: e614 223f f4e9 98be af90 48bf 3db8 3dbf
00000070: 37ce 9c3d ee3e fb3d 0a49 5d3f 41d9 a0bf
00000080: f146 29c0 576b 19bd ebea 1b3f 0901 3ebe
00000090: dd67 8a3f f00a 6b3f 4ba3 283f a374 bbbe
000000a0: fbb5 8fbf 3534 46c0 4ee4 2140 782b debf
000000b0: 3ec9 0bc0 6984 fbbd 6bce a2bf 20f8 b83d
000000c0: 529d 79bf a694 a3bf 40d8 36c0 34f2 08c0
000000d0: 7931 56bf 9037 3ac0 39dc d03e 3094 85bf
000000e0: 8a6e b43d 083b cbbf 1dc0 66c0 e132 c2bf
000000f0: 4666 06bf aa68 883e 9908 8abd d8d8 ca3e

residual_blocks.0.bn1.running_mean f4 [64]
-46.105225 11.849937 20.204123 -26.53018 -12.59413 2.7879777 -11.578945 -14.742396
-25.157797 37.09083 6.2160726 -17.98762 3.9831069 -5.305023 12.324087 -9.349828
-36.301643 -13.914117 -21.903103 -36.983288 -14.822341 -34.361313 3.7760084 -3.8146207
25.543566 -15.119893 -94.33352 -13.934974 -41.20834 11.443207 -1.3162568 -13.691203
-30.510437 -35.210133 -0.63159573 -33.06471 -29.6945 12.153524 10.41589 -43.226807
-74.27469 -54.962635 43.73445 -5.961021 -44.13875 -27.567417 -43.08363 -10.7320595
-4.002781 50.245872 -13.903211 -59.67371 -36.129562 -11.684245 12.293663 -16.091898
2.6399748 -33.307728 -20.908112 -36.014126 -48.365887 3.1679823 -10.548011 -8.092642
00000000: c06b 38c2 5899 3d41 0ba2 a141 cf3d d4c1
00000010: 8e81 49c1 3a6e 3240 5c43 39c1 dbe0 6bc1
00000020: 2b43 c9c1 035d 1442 11ea c640 a5e6 8fc1
00000030: 39eb 7e40 c0c2 a9c0 762f 4541 e598 15c1
00000040: e234 11c2 39a0 5ec1 8e39 afc1 e3ee 13c2
00000050: 4f28 6dc1 fc71 09c2 1faa 7140 bf22 74c0
00000060: 3959 cc41 15eb 71c1 c3aa bcc2 a7f5 5ec1
00000070: 57d5 24c2 6017 3741 1a7b a8bf 2b0f 5bc1
00000080: 6015 f4c1 2dd7 0cc2 42b0 21bf 4342 04c2
00000090: 568e edc1 d674 4241 7ca7 2641 40e8 2cc2
000000a0: a48c 94c2 bdd9 5bc2 14f0 2e42 afc0 bec0
000000b0: 148e 30c2 128a dcc1 a355 2cc2 84b6 2bc1
000000c0: c816 80c0 c6fb 4842 8d73 5ec1 e1b1 6ec2
000000d0: ac84 10c2 abf2 3ac1 d8b2 4441 35bc 80c1
000000e0: 59f5 2840 1d3b 05c2 d043 a7c1 770e 10c2
000000f0: ab76 41c2 39c0 4a40 a7c4 28c1 767b 01c1

residual_blocks.0.bn1.running_var f4 [64]
586.5466 414.31152 530.456 1052.5378 978.80536 387.52432 585.71436 509.63324
910.3456 702.15076 678.08777 687.9089 1304.8761 588.40546 452.64658 571.61676
980.6266 814.4488 967.0955 789.3784 909.2079 1282.0284 534.15466 556.08844
707.1334 459.10608 1452.1199 496.61536 2533.4807 1144.344 693.8013 549.0005
650.775 504.84647 442.8026 587.1404 586.465 939.3834 685.4193 3456.5815
1113.5537 687.95306 1604.037 635.0159 1102.3132 638.2972 873.82367 618.34357
436.86737 1128.4314 333.03854 835.49677 583.9475 591.02344 679.5628 462.41837
1028.3486 873.27814 907.33386 745.386 957.56134 956.18353 657.6573 710.65234
00000000: fba2 1244 e027 cf43 2f9d 0444 3691 8344
00000010: 8bb3 7444 1dc3 c143 b86d 1244 0ed1 fe43
00000020: 1e96 6344 a689 2f44 9e85 2944 2bfa 2b44
00000030: 091c a344 f319 1344 c352 e243 79e7 0e44
00000040: 1a28 7544 b99c 4b44 1dc6 7144 3858 4544
00000050: 4e4d 6344 e940 a044 e689 0544 a905 0b44
00000060: 8ac8 3044 948d e543 d683 b544 c44e f843
00000070: b157 1e45 020b 8f44 4873 2d44 0840 0944
00000080: 9ab1 2244 596c fc43 bc66 dd43 fcc8 1244
00000090: c39d 1244 8ad8 6a44 d65a 2b44 4e09 5845
000000a0: b831 8b44 fffc 2b44 2f81 c844 05c1 1e44
000000b0: 06ca 8944 0593 1f44 b774 5a44 fd95 1a44
000000c0: 066f da43 ce0d 8d44 ef84 a643 cbdf 5044
000000d0: a4fc 1144 80c1 1344 05e4 2944 8d35 e743
000000e0: 288b 8044 cd51 5a44 5ed5 6244 b458 3a44
000000f0: ed63 6f44 bf0b 6f44 116a 2444 c0a9 3144

residual_blocks.0.conv2.weight f4 [64, 64, 3, 3]
1.0864836 1.1827128 -2.533762 2.7722383 -0.3932667 -0.83126336 -1.6341927 1.1254143
0.5218715 0.6156647 0.9890504 -1.2493805 1.5303026 0.8409948 1.6649011 1.4097569
-0.057764977 -0.07667856 0.9718022 0.46908414 0.7174512 -1.5740713 1.8812462 -1.1334138
-1.3441921 -0.14083599 -1.3872023 1.0172483 0.9154458 -1.2496117 0.6813047 0.9368678
-1.2146887 -2.510575 0.6593247 -2.4643714 -0.7123064 2.2116463 0.6032201 -0.31921113
0.20239615 -0.041607898 0.756603 -0.2835369 0.34561852 -0.887022 -1.9202173 0.56471145
-0.41398585 0.30990168 -1.3568666 -0.44892457 -1.2975503 0.9189934 0.4771245 1.242771
0.7875269 1.5379537 4.557811 1.5049418 1.5616459 0.6250654 -1.8823876 -2.4194002
-2.2464707 -1.6346164 2.9011562 -1.5466108 1.2247176 -1.5739167 0.49417713 -2.0719988
-0.9188536 0.7893747 -0.6242837 0.8918414 -1.276631 0.26667556 0.6366884 -0.38565803
-2.0515206 -2.492439 0.80109316 -1.8606883 -0.9738494 -1.5375973 1.474903 -3.2543957
-1.5617589 -0.5439018 0.40959647 0.7561819 -1.8160056 0.5855311 -0.068099126 0.0042513832
-1.3286955 1.3217504 -0.37774095 1.950635 -0.44165754 -0.72800946 -0.6943245 -1.7878954
-3.3910205 0.25250575 0.23601231 -0.08136635 -1.0211154 -0.06187494 -0.43761653 -0.67294455
-0.041757073 0.5716659 -2.548987 -2.3846612 -1.6562548 1.1146127 -1.5191649 -1.5103712
1.0619689 2.1926355 -0.9125284 -1.1738125 -0.6272179 -0.020137055 -1.5131794 -0.24599041
-0.21083258 0.79261845 -2.1235907 0.17357515 0.1697926 -0.24203357 0.7378079 0.85687405
1.3796612 -0.46340945 -2.166701 0.35424873 0.34414846 0.66697633 -0.7188854 2.810841
2.0309849 0.80572116 1.2394075 1.2429167 -0.6200902 0.63621175 1.3747187 0.38075876
1.8768078 -3.4576461 0.34122938 0.21288529 -0.38399932 -3.2287245 -0.7361499 -0.4604105
0.99367696 0.7289886 -2.4127493 -2.1422307 -0.43169042 -1.4520323 -1.0052433 1.8033601
-0.5526883 -0.746084 -0.63790077 2.7615948 2.3073943 -2.4263442 -0.57474726 1.263715
-2.1460066 1.2839919 0.31241998 1.5389833 -1.4304304 2.5946429 0.07947633 -1.6172345
0.24999514 -1.7125466 -1.0781615 -0.6812078 -0.44727445 -1.2823942 -0.94157314 -0.429685
-1.9385568 0.1499255 -1.3583161 0.19568126 0.9075445 -2.6352603 0.27630955 -1.1788114
-0.462698 0.93728036 2.595716 0.5958813 -1.591968 0.9305198 -0.7608559 1.1322576
1.2853059 0.9726998 1.2786005 3.0200021 -0.27471918 0.19931544 -0.2727305 0.38165662
-0.9942149 -0.6524776 -0.66940063 -0.5854211 1.3526299 0.041514844 -2.2936027 -1.2874981
-0.43657285 0.4690586 1.0754158 2.3220408 -0.9283147 1.5566454 1.7578095 2.213228
1.5531001 0.19702852 -0.38841188 -0.97547054 -2.3859708 2.4553761 2.0844321 0.6836928
0.24124385 0.88835764 0.30736873 2.964643 -1.84145 0.46567246 -1.6525406 0.9944241
0.31481922 0.6055421 1.7208773 0.40332532 -1.8922825 -1.6557813 -0.00061950006 -1.7560531
00000000: e511 8b3f 2263 973f 2829 22c0 5a6c 3140
00000010: 415a c9be adcd 54bf 3a2d d1bf 930d 903f
00000020: 5f99 053f 349c 1d3f 6832 7d3f b3eb 9fbf
00000030: f5e0 c33f 6f4b 573f 7b1b d53f ea72 b43f
00000040: f89a 6cbd a609 9dbd 07c8 783f cc2b f03e
00000050: e2aa 373f 2b7b c9bf adcc f03f b413 91bf
00000060: 7d0e acbf 4f37 10be d88f b1bf 3135 823f
00000070: a85a 6a3f 47f3 9fbf fc69 2e3f 91d6 6f3f
00000080: eb7a 9bbf 43ad 20c0 81c9 283f 43b8 1dc0
00000090: b659 36bf 9d8b 0d40 a26c 1a3f a46f a3be
000000a0: f040 4f3e 0b6d 2abd bcb0 413f c02b 91be
000000b0: e9f4 b03e e013 63bf aec9 f5bf ee90 103f
000000c0: f4f5 d3be 6fab 9e3e cead adbf 71d9 e5be
000000d0: 2116 a6bf 2743 6b3f aa49 f43e 1f13 9f3f
000000e0: 5d9b 493f abdb c43f 96d9 9140 efa1 c03f
000000f0: 03e4 c73f 4904 203f 14f2 f0bf 74d7 1ac0
00000100: 2dc6 0fc0 1c3b d1bf 8bac 3940 58f7 c5bf
00000110: 8cc3 9c3f 1a76 c9bf c904 fd3e a19b 04c0
00000120: fd39 6bbf 7614 4a3f 0ed1 1fbf b84f 643f
00000130: a568 a3bf b389 883e 03fe 223f f874 c5be
00000140: 1d4c 03c0 1f84 1fc0 7114 4d3f 092b eebf
00000150: 324e 79bf fdcf c4bf 9fc9 bc3f 0548 50c0
00000160: b7e7 c7bf 263d 0bbf a1b6 d13e 2395 413f
00000170: df72 e8bf 5ee5 153f 8e77 8bbd 304f 8b3b
00000180: b212 aabf 1e2f a93f 4367 c1be 68ae f93f
00000190: f020 e2be d45e 3abf 40bf 31bf c2d9 e4bf
000001a0: 7b06 59c0 6f48 813e 36ad 713e 67a3 a6bd
000001b0: e9b3 82bf 9470 7dbd 460f e0be 1846 2cbf
000001c0: 7709 2bbd b258 123f 9a22 23c0 4a9e 18c0
000001d0: 2800 d4bf a1ab 8e3f ff73 c2bf d853 c1bf
000001e0: 99ee 873f 2454 0c40 769b 69bf 7d3f 96bf
000001f0: 5a91 20bf 77f6 a4bc ddaf c1bf e9e4 7bbe
00000200: 7fe4 57be 0be9 4a3f e9e8 07c0 afbd 313e
00000210: 1dde 2d3e a6d7 77be fbe0 3c3f 195c 5b3f
00000220: bd98 b03f 0144 edbe 3bab 0ac0 1760 b53e
00000230: 3a34 b03e f6be 2a3f e008 38bf d2e4 3340
00000240: a8fb 0140 be43 4e3f e8a4 9e3f e517 9f3f
00000250: 3bbe 1ebf c6de 223f c8f6 af3f d0f2 c23e
00000260: 3d3b f03f 134a 5dc0 9eb5 ae3e 9afe 593e
00000270: 8f9b c4be 6ca3 4ec0 5274 3cbf edba ebbe
00000280: 9d61 7e3f ff9e 3a3f 7c6a 1ac0 4f1a 09c0
00000290: 8706 ddbe 32dc b9bf d0ab 80bf 81d4 e63f
000002a0: fb7c 0dbf 5cff 3ebf 774d 23bf f8bd 3040
000002b0: 59ac 1340 3949 1bc0 a322 13bf 6ac1 a13f
000002c0: 2c58 09c0 d959 a43f 83f5 9f3e 68fd c43f
000002d0: 5818 b7bf a10e 2640 7cc4 a23d 8a01 cfbf
000002e0: bafe 7f3e ba34 dbbf 3201 8abf a263 2ebf
000002f0: 2801 e5be 7e25 a4bf f00a 71bf acff dbbe
00000300: a122 f8bf 1286 193e 4ddd adbf ab60 483e
00000310: d654 683f 1ba8 28c0 7278 8d3e 4be3 96bf
00000320: c1e6 ecbe 9bf1 6f3f 3620 2640 ad8b 183f
00000330: 9cc5 cbbf 8c36 6e3f 74c7 42bf d1ed 903f
00000340: e784 a43f db02 793f 2ea9 a33f b747 4140
00000350: fea7 8cbe 5919 4c3e 55a3 8bbe 7f68 c33e
00000360: de84 7ebf c608 27bf d75d 2bbf 28de 15bf
00000370: fa22 ad3f 780b 2a3d 63ca 12c0 bdcc a4bf
00000380: 7a86 dfbe 7328 f03e 3aa7 893f 519c 1440
00000390: 08a6 6dbf 2840 c73f e7ff e03f 87a5 0d40
000003a0: fccb c63f d8c1 493e ecdd c6be 70b8 79bf
000003b0: bfb3 18c0 e224 1d40 5667 0540 7e06 2f3f
000003c0: a108 773e 686b 633f 6f5f 9d3e b6bc 3d40
000003d0: a2b4 ebbf 9f6c ee3e 7386 d3bf 9492 7e3f
000003e0: fc2f a13e cf04 1b3f b545 dc3f a880 ce3e
000003f0: 5036 f2bf a4f0 d3bf f265 22ba 59c6 e0bf

residual_blocks.0.bn2.weight f4 [64]
1.8241713 1.7677522 1.8205918 1.3173313 2.1972744 1.0803524 1.2913045 1.1353137
1.0566285 1.7361861 1.1537071 1.2135351 1.5092915 1.4482545 2.3497896 2.698251
0.9568078 0.93068403 2.120485 2.9064293 1.7920815 1.4579017 1.4993302 1.5397195
1.5422262 1.2312264 1.2105469 1.1796254 1.4283321 1.9388578 1.2133725 1.9824346
1.214383 1.6288052 1.0876732 2.302451 2.002834 1.2839307 1.4102964 0.39269358
1.1813164 1.3935069 1.442137 2.5669892 1.9475781 1.8621622 1.1354976 1.6633075
1.434176 2.6856499 1.9881295 1.920625 0.8579632 1.4160066 2.2642229 1.5379409
1.9825413 1.8220189 2.0151129 1.7720354 1.2132676 1.9352101 1.8797177 1.9661334
00000000: 727e e93f b445 e23f 2709 e93f 509e a83f
00000010: 25a0 0c40 fd48 8a3f 7749 a53f f651 913f
00000020: 9a3f 873f 593b de3f adac 933f 1e55 9b3f
00000030: 7730 c13f 6760 b93f f462 1640 25b0 2c40
00000040: 5bf1 743f 4f41 6e3f 07b6 0740 f002 3a40
00000050: ed62 e53f 869c ba3f 0dea bf3f 8715 c53f
00000060: ab67 c53f d498 9d3f 33f3 9a3f f7fd 963f
00000070: 96d3 b63f 7e2c f83f ca4f 9b3f 6bc0 fd3f
00000080: e770 9b3f b07c d03f e038 8b3f 5b5b 1340
00000090: 6f2e 0040 d757 a43f 9884 b43f 220f c93e
000000a0: 6035 973f 6f5e b23f f297 b83f 8d49 2440
000000b0: 3d4a f93f 555b ee3f fc57 913f 43e7 d43f
000000c0: 1493 b73f b0e1 2b40 077b fe3f 0ad7 f53f
000000d0: 7aa3 5b3f b43f b53f 07e9 1040 3fdb c43f
000000e0: eac3 fd3f ea37 e93f 9cf7 0040 0ed2 e23f
000000f0: 5a4c 9b3f f7b4 f73f 979a f03f 42aa fb3f

residual_blocks.0.bn2.bias f4 [64]
-0.6449527 -0.68927926 -2.4723046 -0.1882894 -1.5092083 0.581589 0.3603023 -0.09328835
0.2724864 -0.22476065 0.06566384 -0.069518365 -0.062064305 -1.2496762 -1.7819848 -2.7840657
0.11083875 -0.031107986 -1.6090962 -3.1325548 -1.4685638 -1.5672916 -0.79866105 -1.4088988
-1.1910074 -0.5215105 -0.3608704 0.35406524 -0.055369597 -1.3344004 -0.30396035 -1.4025326
-0.7108336 -0.46884012 1.0326293 -3.0701563 -2.7528546 -0.4579875 -0.706036 0.46153632
-0.6495085 -0.08010288 -1.5472016 -2.5243351 -1.5236877 -0.42932385 -0.60006523 0.5865321
0.4890911 -2.801978 -2.6153119 -1.5314177 1.2022983 0.4628061 -3.7325518 -0.05379619
-1.9561794 -1.787428 -1.8448755 -1.638578 -0.099244736 -1.182984 -1.6591867 -1.555939
00000000: 9f1b 25bf 9b74 30bf 3d3a 1ec0 f0ce 40be
00000010: bd2d c1bf 04e3 143f 8b79 b83e f60d bfbd
00000020: 5683 8b3e a827 66be c37a 863d a55f 8ebd
00000030: 2437 7ebd 64f5 9fbf 1418 e4bf 222e 32c0
00000040: 6dff e23d 2dd6 febc ddf6 cdbf c77b 48c0
00000050: e6f9 bbbf 039d c8bf 0d75 4cbf cc56 b4bf
00000060: ee72 98bf b681 05bf 01c4 b8be 0a48 b53e
00000070: 3bcb 62bd a2cd aabf b1a0 9bbe 3086 b3bf
00000080: 31f9 35bf d00b f0be 322d 843f 717d 44c0
00000090: c52e 30c0 567d eabe c6be 34bf 7d4e ec3e
000000a0: 3046 26bf fb0c a4bd b40a c6bf b58e 21c0
000000b0: 3308 c3bf 56d0 dbbe e09d 19bf f826 163f
000000c0: 266a fa3e 9c53 33c0 4561 27c0 7f05 c4bf
000000d0: e9e4 993f ecf4 ec3e 21e2 6ec0 6559 5cbd
000000e0: 1664 fabf 71ca e4bf e124 ecbf edbc d1bf
000000f0: d340 cbbd 056c 97bf 3b60 d4bf 0229 c7bf

residual_blocks.0.bn2.running_mean f4 [64]
-54.30177 -2.9430652 4.2441397 -2.5246468 -24.005318 -37.8089 8.295078 -8.548444
-3.5883405 -41.882244 -11.770312 -14.310319 -43.13327 -19.035952 -17.769512 -36.71812
-26.767334 -8.292849 -46.134583 -57.72808 5.323524 2.85128 -13.981931 -13.23449
-42.259834 -12.188096 -14.305408 3.6438282 -17.629961 -8.125228 15.423472 -49.81554
8.1453905 -20.368446 69.39295 -15.646119 -33.028145 7.874128 -78.65485 64.86108
-10.801739 47.97121 -16.109074 -33.865852 -53.437847 -25.961794 -33.46938 39.8167
-35.867767 -25.034807 -11.875016 -43.024757 -14.881377 65.200066 -6.5590367 6.151123
-16.734106 -10.216906 -24.794847 -30.111546 -0.50343674 -76.50725 -40.417137 -6.5915766
00000000: 0335 59c2 2e5b 3cc0 fecf 8740 d093 21c0
00000010: e40a c0c1 503c 17c2 a4b8 0441 6dc6 08c1
00000020: 5fa7 65c0 6b87 27c2 3353 3cc1 11f7 64c1
00000030: 7888 2cc2 a149 98c1 f627 8ec1 5bdf 12c2
00000040: 8023 d6c1 82af 04c1 d089 38c2 8ee9 66c2
00000050: 4f5a aa40 5f7b 3640 fdb5 5fc1 79c0 53c1
00000060: 120a 29c2 7102 43c1 f3e2 64c1 7b34 6940
00000070: 290a 8dc1 ef00 02c1 8bc6 7641 1d43 47c2
00000080: 8553 0241 94f2 a2c1 31c9 8a42 8156 7ac1
00000090: d21c 04c2 dbf8 fb40 484f 9dc2 dfb8 8142
000000a0: ecd3 2cc1 85e2 3f42 62df 80c1 a276 07c2
000000b0: 5bc0 55c2 c1b1 cfc1 a5e0 05c2 4d44 1f42
000000c0: 9878 0fc2 4947 c8c1 1100 3ec1 5a19 2cc2
000000d0: 1f1a 6ec1 6f66 8242 a1e3 d1c0 00d6 c440
000000e0: 73df 85c1 7278 23c1 d95b c6c1 72e4 f0c1
000000f0: 3be1 00bf b603 99c2 26ab 21c2 32ee d2c0

residual_blocks.0.bn2.running_var f4 [64]
1578.3866 1793.3936 970.97217 799.0736 1289.5454 984.698 1074.8688 1037.345
1254.425 1348.6941 2782.5652 1010.1871 896.8083 775.1507 1529.1008 1540.2858
1944.6089 1020.3696 1334.4019 1450.2705 669.21216 865.5674 1135.5684 1274.5222
911.05664 1411.6603 1035.1146 1381.7343 1184.7529 1298.8018 1095.989 1401.6338
1014.9155 1430.7183 2814.9404 1252.5808 1198.0775 1058.6381 1792.1741 2197.6858
938.03436 1172.1727 1182.0614 1797.3322 1478.1936 1475.7234 917.57764 2295.5195
1402.1238 1691.688 1134.8134 724.434 2005.3757 1924.6327 1266.6112 1224.9633
1472.2579 1394.2062 1307.0593 991.0895 1655.1377 1416.021 1136.4065 1524.4882
00000000: 5f4c c544 982c e044 38be 7244 b6c4 4744
00000010: 7431 a144 ac2c 7644 cd5b 8644 0aab 8144
00000020: 9acd 9c44 3696 a844 0be9 2d45 f98b 7c44
00000030: bb33 6044 a5c9 4144 3a23 bf44 2589 c044
00000040: 7c13 f344 a817 7f44 dccc a644 a848 b544
00000050: 944d 2744 5064 5844 30f2 8d44 b650 9f44
00000060: a0c3 6344 2175 b044 ab63 8144 7fb7 ac44
00000070: 1818 9444 a859 a244 a6ff 8844 4834 af44
00000080: 98ba 7d44 fcd6 b244 0cef 2f45 9692 9c44
00000090: 7bc2 9544 6b54 8444 9205 e044 f95a 0945
000000a0: 3382 6a44 8785 9244 f7c1 9344 a1aa e044
000000b0: 32c6 b844 2677 b844 f864 6544 5078 0f45
000000c0: f643 af44 0476 d344 07da 8d44 c71b 3544
000000d0: 06ac fa44 3f94 f044 8f53 9e44 d31e 9944
000000e0: 4108 b844 9946 ae44 e661 a344 bac5 7744
000000f0: 68e4 ce44 ac00 b144 020d 8e44 9f8f be44

residual_blocks.1.conv1.weight f4 [64, 64, 3, 3]
0.4381373 -1.7499958 -0.85858583 1.9484916 -0.005148768 0.503619 -1.3441283 -0.5663752
-0.03792432 -0.121615276 -2.2932675 -2.09598 -1.3798276 1.6424968 1.6549613 -0.860622
0.21867837 0.48565328 -1.1412164 2.9820666 1.1022794 0.62970525 0.9534254 -0.33104524
3.3374925 -0.05416096 -1.6158675 -1.5774204 -0.6509545 0.6130489 0.32130697 0.2739856
2.5052857 0.11758432 -2.9545772 -0.02912609 1.583719 2.0141292 0.14163272 -0.24923669
-2.1576953 1.9179688 -1.2217463 -1.2791829 2.216888 -0.7711481 -0.4351898 1.5981386
-0.8970932 -1.2586081 -0.732122 0.028349468 -0.7616087 -0.26961464 0.2581629 -1.3718358
1.9870182 -0.18112786 0.529549 0.5666671 -2.2230413 2.2910142 -1.4949999 1.0075982
1.9276093 -0.26616758 -0.0056391573 0.669609 1.4092555 -0.24732402 -0.97880435 -0.30078223
1.4748985 1.3095794 0.32831252 -0.06931937 -0.10287531 0.5058372 -0.13671416 -1.1771135
0.70675087 -1.1937039 -1.9904119 0.115207516 -0.123312935 -2.2684658 -0.20450799 -2.343229
-2.3714097 -2.0591924 0.4618897 -0.16799013 -0.5441227 -1.6494853 -1.107315 0.070383176
1.032626 -0.29242197 -0.30258283 -0.33618167 1.1625303 -1.1715842 -0.5400144 -1.3930411
-3.3240545 -1.1123831 -0.108453274 0.08193632 1.9221973 -0.998055 2.4608886 -1.2121717
2.0583231 2.6091228 0.24763168 -1.8419557 0.06787151 1.3712708 0.22801742 -0.02586858
-5.2001777 0.26055294 1.2054516 1.4554119 -0.70649546 0.7598452 -0.45044738 0.9544534
-0.86637837 2.5558143 -3.73704 0.1929691 1.5466123 -3.309902 3.2521138 1.194822
-0.12145769 -1.198816 0.26498196 -0.32298276 -0.683011 0.46276936 1.6439359 -1.2079856
0.035795975 0.4426905 0.52416974 0.2222816 -0.06140682 -1.0224977 0.534235 -0.23274675
-2.435426 0.65694916 -0.23815875 0.6632403 0.331368 -3.4968708 1.1655842 2.4158754
-0.52597195 1.0896568 0.13622493 1.3274117 2.3378189 1.7264439 2.609532 0.61832553
-0.7830952 -0.7711552 0.63358194 -2.8943784 -0.429404 -0.74463385 -1.0819986 -2.2974765
2.7133307 -1.5079705 3.2467666 2.5483463 -2.2646224 0.3547075 -0.58099586 -0.8496963
-2.1580038 0.2613256 -0.45953616 -0.16636884 0.6819784 -0.7330365 2.7818072 0.68555635
-1.4500837 0.3488044 -0.92718303 -2.0240283 -0.048690833 0.90742475 0.79467 1.3374633
1.3207558 0.06868203 0.45042205 0.5560714 -1.2287592 -0.1265447 0.97018117 1.1064909
0.8179353 -0.8207016 1.3563755 -1.8778497 1.6551768 1.7421846 1.7833397 0.28226283
0.46249175 -0.7981451 -0.37791803 -0.3290453 1.6317459 -3.4686406 2.6580415 0.7037174
0.47248572 1.2143831 -0.43592238 1.336406 -0.32213092 -0.9632684 0.36539426 -0.13393089
-0.7580478 -0.008250262 -1.7048581 0.97016966 -1.4254823 -1.142704 1.4420834 1.4820226
-1.3871273 2.841039 1.2503011 -0.40608218 -0.07725587 0.18028615 0.3980482 -0.98463786
1.5972284 -0.98588765 0.889297 0.29741296 0.074792124 -0.8656769 1.5227499 0.26945716
00000000: 8853 e03e ddff dfbf 48cc 5bbf 2c68 f93f
00000010: ffb6 a8bb 2ded 003f 650c acbf f7fd 10bf
00000020: 8856 1bbd 6e11 f9bd e5c4 12c0 8924 06c0
00000030: 319e b0bf 563d d23f c6d5 d33f b951 5cbf
00000040: 39ed 5f3e 8ca7 f83e 6113 92bf 2eda 3e40
00000050: 7e17 8d3f 5d34 213f b013 743f c37e a9be
00000060: 7a99 5540 e2d7 5dbd bfd4 cebf e9e8 c9bf
00000070: f4a4 26bf c6f0 1c3f 5982 a43e d747 8c3e
00000080: 9a56 2040 0cd0 f03d cb17 3dc0 d799 eebc
00000090: 4eb7 ca3f 7ee7 0040 2b08 113e e737 7fbe
000000a0: ae17 0ac0 0080 f53f 2f62 9cbf 44bc a3bf
000000b0: 7ee1 0d40 f669 45bf 33d1 debe ce8f cc3f
000000c0: e6a7 65bf 121a a1bf 596c 3bbf 253d e83c
000000d0: caf8 42bf ee0a 8abe ed2d 843e 5198 afbf
000000e0: 9d56 fe3f 9579 39be 8690 073f 1811 113f
000000f0: 4f46 0ec0 fa9f 1240 285c bfbf faf8 803f
00000100: e7bb f63f 1e47 88be aec8 b8bb 7f6b 2b3f
00000110: 7c62 b43f 8242 7dbe ec92 7abf 2100 9abe
00000120: 79c9 bc3f 4ca0 a73f 9418 a83e 50f7 8dbd
00000130: 4ab0 d2bd 8c7e 013f ccfe 0bbe a8ab 96bf
00000140: a0ed 343f 4acb 98bf d1c5 febf ebf1 eb3d
00000150: 7e8b fcbd 8b2e 11c0 8b6a 51be 77f7 15c0
00000160: 2dc5 17c0 cfc9 03c0 cf7c ec3e 9b05 2cbe
00000170: a04b 0bbf 5622 d3bf 7fbc 8dbf 0e25 903d
00000180: 172d 843f 55b8 95be 23ec 9abe 0120 acbe
00000190: cbcd 943f 79f6 95bf 623e 0abf 2c4f b2bf
000001a0: 4fbd 54c0 9262 8ebf c01c debd 3bce a73d
000001b0: 900a f63f 8880 7fbf 337f 1d40 7128 9bbf
000001c0: 91bb 0340 defb 2640 2993 7d3e 34c5 ebbf
000001d0: 3800 8b3d cd85 af3f 667d 693e 58ea d3bc
000001e0: db67 a6c0 3267 853e 3d4c 9a3f f04a ba3f
000001f0: e3dc 34bf 3785 423f 0aa1 e6be 0f57 743f
00000200: f9ca 5dbf 7692 2340 aa2b 6fc0 b199 453e
00000210: 64f7 c53f 6fd5 53c0 a222 5040 edef 983f
00000220: cfbe f8bd cd72 99bf b7ab 873e ff5d a5be
00000230: cfd9 2ebf 1bf0 ec3e 7e6c d23f 469f 9abf
00000240: cd9e 123d 54a8 e23e fd2f 063f ca9d 633e
00000250: b885 7bbd 34e1 82bf a0c3 083f 2a55 6ebe
00000260: 05de 1bc0 d22d 283f e3df 73be 1eca 293f
00000270: 11a9 a93e bbcc 5fc0 dd31 953f b49d 1a40
00000280: 19a6 06bf e079 8b3f 8c7e 0b3e a0e8 a93f
00000290: d39e 1540 1dfc dc3f 9302 2740 954a 1e3f
000002a0: ed78 48bf 6d6a 45bf 6d32 223f 7f3d 39c0
000002b0: d7da dbbe 53a0 3ebf ee7e 8abf db09 13c0
000002c0: 36a7 2d40 2d05 c1bf 06cb 4f40 1b18 2340
000002d0: 93ef 10c0 399c b53e 25bc 14bf b285 59bf
000002e0: bc1c 0ac0 78cc 853e 5348 ebbe 985c 2abe
000002f0: 2396 2e3f 48a8 3bbf 2109 3240 9f80 2f3f
00000300: 589c b9bf 7e96 b23e de5b 6dbf ae89 01c0
00000310: 0a70 47bd fd4c 683f 7e6f 4b3f ff31 ab3f
00000320: 870e a93f 2aa9 8c3d b89d e63e b25a 0e3f
00000330: fb47 9dbf ef94 01be cb5d 783f 7ea1 8d3f
00000340: 3564 513f 8019 52bf b69d ad3f 615d f0bf
00000350: d5dc d33f e8ff de3f 7a44 e43f c184 903e
00000360: b8cb ec3e 3d53 4cbf 797e c1be a078 a8be
00000370: 0ddd d03f 35fe 5dc0 5a1d 2a40 d326 343f
00000380: a6e9 f13e e870 9b3f 3831 dfbe 5a0f ab3f
00000390: 58ee a4be c298 76bf f514 bb3e 2e25 09be
000003a0: 6c0f 42bf 1b2c 07bc ca38 dabf 0a5d 783f
000003b0: 3476 b6bf 2044 92bf 3096 b83f ebb2 bd3f
000003c0: 638d b1bf 95d3 3540 de09 a03f 01ea cfbe
000003d0: 5338 9ebd ef9c 383e f9cc cb3e 3a11 7cbf
000003e0: fb71 cc3f 2263 7cbf f8a8 633f 8346 983e
000003f0: 9d2c 993d 009d 5dbf 78e9 c23f 4af6 893e

residual_blocks.1.bn1.weight f4 [64]
2.055543 1.3742237 1.7730683 1.5859169 1.6352696 2.3557816 1.401158 1.4008883
1.7940036 1.2698015 1.3805124 1.9293962 2.5980043 1.6472466 1.7252835 2.296997
1.4422609 2.4381998 1.7553463 1.3780557 1.8088833 1.5485115 2.3878179 1.0655934
1.4320947 1.4465345 1.1879528 1.5104983 1.3389679 1.3720975 1.3503833 1.7186661
2.3821285 2.7812245 1.5266448 2.2980182 1.8683466 1.8784918 1.450446 1.6703315
1.630203 1.5407599 2.3400695 2.6797314 0.99996895 0.85709876 2.2618477 1.1067228
1.9934708 2.5590894 1.5528021 2.1293898 1.0584422 1.0511405 2.3299944 1.4755895
1.8363451 2.2208738 1.294576 1.8242275 2.1480148 1.337453 1.0742886 1.1948652
00000000: 048e 0340 90e6 af3f e7f3 e23f 53ff ca3f
00000010: 8450 d13f 20c5 1640 2559 b33f 4f50 b33f
00000020: e9a1 e53f db88 a23f a1b4 b03f 74f6 f63f
00000030: b445 2640 fad8 d23f 17d6 dc3f 0002 1340
00000040: 019c b83f 770b 1c40 30af e03f 2164 b03f
00000050: 7d89 e73f a035 c63f 02d2 1840 5d65 883f
00000060: e14e b73f 0b28 b93f d60e 983f 0258 c13f
00000070: 4d63 ab3f e4a0 af3f 5cd9 ac3f 40fd db3f
00000080: cb74 1840 95ff 3140 1969 c33f bb12 1340
00000090: fb25 ef3f 6b72 f03f 37a8 b93f 6ccd d53f
000000a0: 7eaa d03f 9f37 c53f b3c3 1540 b880 2b40
000000b0: f7fd 7f3f d36a 5b3f 1dc2 1040 18a9 8d3f
000000c0: 0d2a ff3f 1fc8 2340 38c2 c63f ec47 0840
000000d0: 097b 873f c68b 863f a11e 1540 1ee0 bc3f
000000e0: 5b0d eb3f cc22 0e40 abb4 a53f 4980 e93f
000000f0: 1379 0940 a931 ab3f 4a82 893f 58f1 983f

residual_blocks.1.bn1.bias f4 [64]
-3.6088123 -1.0337428 -1.0539045 -1.027914 -1.7531011 -3.5751445 -0.4906189 -0.30105227
-0.05414229 0.64082044 0.41295153 -2.1932003 -3.2736397 -0.52330375 -0.5638299 -3.2413297
-0.289826 -2.1829653 -1.82671 0.8699522 -1.9899454 0.18182422 -2.2058814 0.5123126
-0.7376767 -0.6665487 0.6152425 -0.6733062 -0.3117138 -0.24361084 0.28580087 -2.6305468
-1.3781548 -3.254791 -0.8441931 -2.3281126 -1.3342032 -1.9196138 -0.4476322 -2.0286298
-1.2435731 -1.1738068 -3.5912604 -2.505868 0.478668 0.965049 -2.4269745 0.37419695
-2.5335338 -3.3322055 -0.8461606 -1.9909289 0.6733386 0.8223055 -3.8221684 0.0016656092
-2.151482 -2.1907916 0.3594035 -2.0461495 -3.374045 0.05859818 0.3244187 0.2746965
00000000: c8f6 66c0 af51 84bf 58e6 86bf b092 83bf
00000010: 9e65 e0bf 2bcf 64c0 6732 fbbe 8623 9abe
00000020: 4ec4 5dbd cf0c 243f 626e d33e 655d 0cc0
00000030: 5083 51c0 3cf7 05bf 2857 10bf f271 4fc0
00000040: 1364 94be b4b5 0bc0 a2d1 e9bf 30b5 5e3f
00000050: 88b6 febf 2130 3a3e 292d 0dc0 eb26 033f
00000060: 61d8 3cbf f0a2 2abf 8880 1d3f cc5d 2cbf
00000070: f498 9fbe 1f75 79be 7e54 923e e15a 28c0
00000080: 6067 b0bf 7f4e 50c0 0a1d 58bf ccff 14c0
00000090: 2cc7 aabf e8b5 f5bf 0c30 e5be 12d5 01c0
000000a0: 672d 9fbf 4d3f 96bf 36d7 65c0 2460 20c0
000000b0: f913 f53e 740d 773f 8d53 1bc0 be96 bf3e
000000c0: 6b25 22c0 db42 55c0 fb9d 58bf c2d6 febf
000000d0: eb5f 2c3f 9d82 523f 689e 74c0 9250 da3a
000000e0: e2b1 09c0 ee35 0cc0 bc03 b83e 1df4 02c0
000000f0: 5af0 57c0 a504 703d 351a a63e 05a5 8c3e

residual_blocks.1.bn1.running_mean f4 [64]
-50.69451 32.64489 1.2842696 21.497847 9.094933 -54.153404 -1.329331 6.1412587
-39.929474 -19.312744 -11.678831 -38.23825 -37.759026 -47.823498 -10.965329 -3.2048478
-33.92076 -27.72105 -9.9231825 3.6600757 20.589117 33.238457 -22.887981 1.3357314
18.538782 -7.550479 28.485949 28.156576 4.327743 -28.912577 -26.274635 -41.99646
-82.407616 -75.75345 21.927694 -7.1885095 -25.131857 -10.490739 -7.9079432 -24.754944
-12.482642 -8.152217 -18.788937 -81.49628 78.94177 12.734351 -52.14938 -20.67811
-35.595917 -43.37014 49.513294 -38.2436 33.544445 36.932808 -17.883562 46.409206
39.752647 -25.813288 39.349396 -45.773083 -14.780793 11.521802 16.187586 83.34155
00000000: 2ec7 4ac2 5e94 0242 f262 a43f 97fb ab41
00000010: d884 1141 169d 58c2 8527 aabf 3185 c440
00000020: c8b7 1fc2 8080 9ac1 7edc 3ac1 f8f3 18c2
00000030: 3e09 17c2 434b 3fc2 fd71 2fc1 3a1c 4dc0
00000040: dcae 07c2 b6c4 ddc1 5bc5 1ec1 ae3e 6a40
00000050: 83b6 a441 2ef4 0442 961a b7c1 3ff9 aa3f
00000060: 6d4f 9441 869d f1c0 39e3 e341 ab40 e141
00000070: df7c 8a40 f54c e7c1 7432 d2c1 60fc 27c2
00000080: b3d0 a4c2 c481 97c2 eb6b af41 4508 e6c0
00000090: 0b0e c9c1 11da 27c1 df0d fdc0 200a c6c1
000000a0: e7b8 47c1 7b6f 02c1 be4f 96c1 18fe a2c2
000000b0: 30e2 9d42 e7bf 4b41 f798 50c2 c56c a5c1
000000c0: 3862 0ec2 067b 2dc2 9d0d 4642 72f9 18c2
000000d0: 832d 0642 32bb 1342 8911 8fc1 07a3 3942
000000e0: b602 1f42 9d81 cec1 c865 1d42 a317 37c2
000000f0: 217e 6cc1 4d59 3841 2d80 8141 e0ae a642

residual_blocks.1.bn1.running_var f4 [64]
1007.1778 1029.49 1158.889 1388.3147 716.9955 997.30743 1098.8655 2198.3083
1248.4802 1716.0536 1314.898 1321.74 1271.1569 1367.0308 1578.9792 1304.5709
1573.421 1711.0852 1275.6436 2759.8584 1389.7609 3141.746 1551.6047 1480.831
1369.2605 1470.9514 1003.61707 966.8895 820.2659 1618.0996 2419.4167 1252.9735
1473.9176 1428.4897 1151.0409 1598.4183 1280.0049 975.2509 1195.8518 1054.1276
1355.7361 972.39453 1060.6238 1828.1068 2687.0027 1070.5265 1294.3981 1387.2665
941.9694 1348.0239 1591.1387 1289.8787 1123.2379 1218.3776 1117.6019 1841.2732
1525.8214 1419.4746 1554.4191 1096.6055 907.2171 1825.435 1067.7213 2716.559
00000000: 61cb 7b44 aeaf 8044 73dc 9044 128a ad44
00000010: b63f 3344 ad53 7944 b25b 8944 ef64 0945
00000020: 5e0f 9c44 b781 d644 bc5c a444 ae37 a544
00000030: 05e5 9e44 fce0 aa44 565f c544 4512 a344
00000040: 79ad c444 bae2 d544 9874 9f44 bc7d 2c45
00000050: 59b8 ad44 f05b 4445 5af3 c144 981a b944
00000060: 5628 ab44 72de b744 7ee7 7a44 eeb8 7144
00000070: 0511 4d44 3043 ca44 ab36 1745 279f 9c44
00000080: 5d3d b844 ac8f b244 4fe1 8f44 63cd c744
00000090: 2800 a044 0fd0 7344 427b 9544 15c4 8344
000000a0: 8e77 a944 4019 7344 f693 8444 6b83 e444
000000b0: 0bf0 2745 d9d0 8544 bdcc a144 8768 ad44
000000c0: 0b7e 6b44 c480 a844 70e4 c644 1e3c a144
000000d0: 9d67 8c44 154c 9844 43b3 8b44 be28 e644
000000e0: 49ba be44 306f b144 694d c244 6013 8944
000000f0: e5cd 6244 ec2d e444 1577 8544 f2c8 2945
