backend_engine/ml/models/session_1764625687/epoch_1_64ch_3resblocks.pth (torch, 990759 bytes, 39 tensors)

conv.weight f4 [64, 20, 3, 3]
00000000: cead afbf 961d 81bf ef79 15bf bccc 0cbf
00000010: 5292 7fc0 427e 763e 9701 23c0 e10c 1fc0
00000020: 6871 8abf 9588 09bf e99f e4bf 0a73 a0c0
00000030: a7b3 0dc1 3fe9 82bf 9bcb eac0 7eb7 8e3e
00000040: 8f61 f5c0 c181 32bf f047 e6bf 40c2 113f
00000050: 2336 15c0 0826 01bf 67d4 c3c0 15b1 b13e
00000060: d67a e7bf c0db 13c0 b89f 4bc0 6dee 793e
00000070: 38c2 dbc0 4433 7c3f 8594 2a3f 2ffc 493e
00000080: b79b 46c0 deaf 42c0 c1f6 70c0 9625 2ec0
00000090: d7f6 a33d ebc7 80bf 5c16 88be 47cb a43f
000000a0: d0ad 2dc0 4a6f 3bc0 92f3 0abf f5c9 42c0
000000b0: 78b4 1ec0 3c94 cc3e 7a32 3140 9d9c 0840
000000c0: cec7 af3f f3bc 7940 003f 4a3f 20f1 6b3f
000000d0: 3ae1 903f 0dec 4a40 34eb b13f b829 273e
000000e0: 32bc 313f f325 f23e c78b aabe 908e 90bf
000000f0: 46bc c2be 08ff 5e3e f737 183f d6d4 7cc0
00000100: 0e8b b7be 198f a83e cd83 39be 963a 8d3f
00000110: 4525 a73f 9ef6 88bf ddfb 913f 03ae ef3f
00000120: ad15 2040 fc0a 2d3f 8ba2 ac3f df9b b93f
00000130: a2cf ea3f 70f8 513f 0834 ca3f 10ae b63f
00000140: 9c3e 5240 5064 2a40 84ff 2f40 1c4c 8340
00000150: 69b1 dd3f 760a b63f 90a8 0940 b287 873d
00000160: c345 2240 a5f2 0740 e9fe 8240 eca9 7f3e
00000170: 4722 6e40 b371 643f 28fe fa3f 1490 603e
00000180: 7548 fe3f ee5f 123f 4dc6 3b40 a2fb 2040
00000190: 68f0 48c0 d07c 9340 3cd5 01c0 0761 2cc0
000001a0: 08c1 39c0 c43e 1dc0 40f5 35c0 d966 233f
000001b0: 9ca8 1e3d cdd6 203e a07f c7bc 0e48 bbba
000001c0: ca41 4f3d b0b2 a63d 5737 28be 0ec3 5bbd
000001d0: b1da 35be 39e9 ff3d e6a4 913d d696 c43d
000001e0: 4616 39be 9fce 56be 37be 65be a192 903e
000001f0: feef 3e3e e956 8d3e e4d9 b3bd 1989 e6bc
00000200: 6998 1abe d129 cabe f2ed 85be ddcd a1be
00000210: d3af ab3d 1f3c 853d 4594 0b3e f1eb 693e
00000220: f5d2 e23d 67fe 963c 5ca6 a2bd 94f2 8cbd
00000230: 569c 04be f6b0 293e 8dd3 613d f206 8abb
00000240: 24bc aa3e 5aa8 e63d 0d77 adbc c887 9ebb
00000250: 8d4a aa3c 2d8f f7bd 7d87 fd3d 9e75 ad3d
00000260: 3ecc 03be 4e93 553e b79f c43e 0543 573f
00000270: 657f 8b3f e4da 32be ec1d 633f 91ca 34bf
00000280: 0a79 473d 0215 14bf a866 cd3e 0c51 df3e
00000290: 444e e23e 1c8b ed3e 5548 1d3f 5221 c73e
000002a0: 4583 6b3e 6b63 cd3e d13c fc3d 5bec 03bf
000002b0: 58e3 593e e03c 0bbf ec7c 37be f4d1 293f
000002c0: 3d94 41be 81ab 21bf 4d57 b43e 131f 2cbf
000002d0: db7e 443e 1973 2840 05df 16c0 66ee 83bf
000002e0: fec4 993f 029a 25c0 682d ffbf f962 843f
000002f0: 4492 7440 9306 7fbe 841f b7bf f157 16bf
00000300: c6c4 58bf 2475 1abf c443 0940 599c c93d
00000310: 8cff fa3f 7aae 833f c8a3 a3bd 7bd2 c5be
00000320: 7ef9 dabf 78b3 dbbd 2892 fcbe 1b7a e03e
00000330: ad6f b4bf bafb 1d3e 3c9c 603f ea82 6dbd
00000340: b2db 4fbf 5273 8e3e 67a2 2dbf 344a aa3e
00000350: 7b76 ecbf cbf7 dfbd 65e4 833e af27 12bf
00000360: 9ba6 173f de9d a3be c1ca 79bf fbd4 213f
00000370: cdfd 593f cf6c cdbe a5ef 5abf b344 293f
00000380: fb60 cabf 1fe8 a2be 515b dc3d 7812 afbf
00000390: 26ed 56bf ace6 94bf 2bf7 82bf d7a5 aa3d
000003a0: 3a06 e2be bf0a f13e 788c 82bf 8a77 4a3f
000003b0: 2db0 25c0 f0b3 79bf 6503 75c0 ac14 0fc0
000003c0: 17c7 8b3e a2a4 c0be be4b 46bf 2259 263f
000003d0: 4289 f13f 031e 25be 1a2b 9d3e c175 d63d
000003e0: 2087 86bd 0cba 873f a168 af3f 6985 9e3f
000003f0: 9153 4cbf da0a 5e3f 5ddc 173e 12d7 d03e
-1.3724916 -1.0087154 -0.5838918 -0.549999 -3.9933057 0.24071601 -2.546972 -2.485161
-1.0815859 -0.5372403 -1.7861301 -5.014043 -8.85636 -1.0227431 -7.337354 0.27874368
-7.668159 -0.6972924 -1.7990704 0.56937027 -2.3314292 -0.50448656 -6.119678 0.34705415
-1.8084362 -2.3102875 -3.1816235 0.24407358 -6.8674583 0.98515725 0.6663287 0.19725107
-3.103254 -3.041984 -3.7650607 -2.721044 0.08006065 -1.006101 -0.2657956 1.2874535
-2.7137337 -2.9286675 -0.5427791 -3.0435765 -2.479765 0.39956844 2.7687058 2.134559
1.373285 3.9021575 0.7900238 0.921648 1.1318734 3.1706574 1.3899903 0.16324508
0.6942779 0.47294578 -0.33309767 -1.1293507 -0.38034266 0.21776974 0.59460396 -3.9504905
-0.35848278 0.32921675 -0.18116684 1.1033504 1.3058249 -1.0700262 1.1404988 1.8724979
2.501323 0.67594886 1.3487104 1.4500693 1.8344615 0.8201971 1.5797129 1.427187
3.2850714 2.6623726 2.7499704 4.1030407 1.7319766 1.4221942 2.1509132 0.06617679
2.535508 2.1241848 4.093617 0.24967164 3.7208421 0.8923599 1.9608812 0.21929961
1.9865862 0.5717763 2.9339783 2.5153584 -3.1396732 4.608986 -2.0286398 -2.693422
-2.9024067 -2.456956 -2.8430939 0.6382881 0.038735017 0.1570694 -0.024352849 -0.0014288442
0.05059985 0.08139551 -0.1642736 -0.053652816 -0.17759205 0.124956556 0.0711153 0.09599082
-0.18074903 -0.20977257 -0.22435842 0.2823687 0.18646237 0.2760537 -0.08781794 -0.028141545
-0.15097202 -0.39485028 -0.261581 -0.31602374 0.08383145 0.06505608 0.13630779 0.22843911
0.11075393 0.018431855 -0.07941887 -0.068822056 -0.12950262 0.16571411 0.05513339 -0.0042122537
0.33346665 0.11262579 -0.021174932 -0.0048379637 0.020787502 -0.120878555 0.12379358 0.08469699
-0.12870881 0.20856974 0.38403103 0.8408664 1.0898253 -0.17466313 0.8871753 -0.7062159
0.048699416 -0.57844555 0.40117383 0.4361652 0.44200337 0.46395195 0.61438495 0.3889261
0.22999294 0.40114912 0.12316287 -0.51532525 0.21278131 -0.5438976 -0.17918748 0.6633599
-0.18904205 -0.6315232 0.35222855 -0.67234915 0.19189017 2.632025 -2.357362 -1.0307128
1.2013242 -2.587525 -1.9935732 1.0342704 3.8214273 -0.24904852 -1.4306493 -0.5872794
-0.8467525 -0.6033499 2.144761 0.09844274 1.9609237 1.0287621 -0.07990223 -0.38637146
-1.7107389 -0.1072759 -0.49330258 0.4384316 -1.4096581 0.15428057 0.87738395 -0.057986178
-0.81194603 0.27822357 -0.6782593 0.33259737 -1.8473657 -0.10935935 0.2576019 -0.570918
0.59238595 -0.3195638 -0.97575 0.6321561 0.85152894 -0.40122077 -0.8552192 0.6612045
-1.5810846 -0.3181772 0.10759605 -1.3677511 -0.8395561 -1.1632895 -1.023168 0.08332413
-0.44145375 0.4707851 -1.0199118 0.7908865 -2.588878 -0.9754019 -3.8283322 -2.2356367
0.2730033 -0.37625605 -0.77459323 0.64979756 1.8870013 -0.1612473 0.30696946 0.104716785
-0.06568742 1.0603652 1.3703805 1.2384464 -0.7981501 0.8673531 0.14830156 0.40789086

bn.weight f4 [64]
00000000: cc72 3b3f 4626 9e3f 61b3 243f 7b95 853f
00000010: c548 c53f 876a c33f 7128 923f 9a1b 893f
00000020: c3ca 783f bc69 513f b633 623f f263 7c3f
00000030: 8cad ca3f a454 523f 3eca 973f 21c9 af3f
00000040: 72a2 933f 8037 0b3f 9f59 7f3f f288 323f
00000050: a581 083f 0149 193f 377e 873f 55e8 d63f
00000060: e009 343f 03ce ed3e f1d6 0e3f fc1c 793f
00000070: b205 e23e 1d1a a73f 70f4 373f 2920 073f
00000080: daf3 ce3e d993 953f bccc 293f b553 e73e
00000090: 7b02 af3f cdbb 593f 75fc 313f 6fa0 8c3f
000000a0: ed73 353f c679 a43f f52c fa3f 6841 143f
000000b0: 2bc2 993f 7b2c 3c3f 70f3 9e3f b2d9 183f
000000c0: d87d 8f3f 4a6f 993f 454f b43f df28 c23f
000000d0: cc63 e83e f620 b13f 05fb a63f a0f3 ae3f
000000e0: a417 883f 1d30 493f 0399 813f bf46 313f
000000f0: b31c 7b3f 43cb 053f 2d04 523f 1783 6c3f
0.7322204 1.235543 0.6433621 1.0436243 1.5412832 1.5266885 1.1418592 1.0711548
0.9718439 0.8180196 0.88360155 0.98590004 1.5834212 0.821604 1.1858594 1.3733255
1.1533949 0.5438156 0.99746126 0.6974021 0.5332282 0.5987702 1.0585393 1.6789652
0.7032757 0.46446237 0.55796725 0.9730985 0.4414497 1.3054844 0.7185736 0.5278345
0.4042042 1.1685745 0.66328025 0.4518105 1.3672632 0.85052186 0.69525844 1.098646
0.70880014 1.2849662 1.954497 0.579123 1.201238 0.7350537 1.2418041 0.59707177
1.121028 1.1987088 1.4086691 1.5168723 0.4538864 1.3838184 1.3045355 1.3668098
1.0632215 0.7858904 1.012482 0.69248575 0.98090667 0.5226328 0.8203762 0.9238753

bn.bias f4 [64]
00000000: 1e77 673e 6a18 1bbf 2a7b 423f 6742 30bf
00000010: 04a4 17c0 936f 5ebf 457b ccbf 2ea1 06bf
00000020: a835 5ebe 1390 6bbe a8db 073f 48a6 5ebf
00000030: 5ea2 c5bf f9da a33b bb93 acbf b58a febf
00000040: 8a05 953f b413 893f 9a22 353e 02fd 0d3f
00000050: 7c44 543e 2cde f5bd 2854 76bf cbd1 03bf
00000060: ef5b 3e3f 151d 383f f33e 0d3f 5007 09bf
00000070: f45d 013f 9606 3bbf a2b3 ec3d 094c 003f
00000080: ef84 443f fc02 d3bf 636d 8e3f d451 d73e
00000090: 46cc 12bf b357 f73e 1e58 413f 94ef 583e
000000a0: de9f 1dbd 96ba dcbf 3fc0 a1bf 5765 1d3f
000000b0: a6c5 cfbf df8d 063f 56e3 9fbd e711 3a3f
000000c0: cffe d5bf a598 babf 1c58 e4bf fdc6 87bf
000000d0: c5f1 d23e dabd 87bf 81aa dcbf 206e 88bf
000000e0: b962 acbe eed0 33be ee1d 93bf fd12 26bb
000000f0: de42 3c3f 4a29 e63e ced6 b5be fd5f 70be
0.22604033 -0.6058413 0.75969183 -0.6885132 -2.3693857 -0.86889 -1.5975119 -0.5258969
-0.21700156 -0.23004179 0.53069544 -0.86972475 -1.5440176 0.005000469 -1.3482584 -1.988608
1.1642315 1.0709138 0.1768898 0.55464184 0.2072925 -0.120052665 -0.9622216 -0.51491994
0.7435903 0.71919376 0.5517418 -0.53526783 0.50533986 -0.73056924 0.115577 0.5011602
0.7676534 -1.6485286 1.1127132 0.42054617 -0.57342947 0.48309097 0.7552508 0.21185142
-0.03848254 -1.7244442 -1.2636794 0.6148276 -1.6232193 0.5256023 -0.07807033 0.72683567
-1.6718386 -1.4577833 -1.7839389 -1.0607601 0.4120008 -1.0604813 -1.7239534 -1.0658607
-0.3366907 -0.17560169 -1.1493509 -0.0025340908 0.7353953 0.44953376 -0.35515445 -0.23474117

bn.running_mean f4 [64]
00000000: 49ac b5bf e33d 83c0 6d1a 33be 42e5 1fbf
00000010: a714 9b3f 46a5 d9be c373 873e 12f1 35bf
00000020: 7a44 213e 48de 833e 9db6 29bf 4e86 00bf
00000030: e846 6f3f b167 f1be ca5c 963e fa3c 2640
00000040: e147 dc3e 8150 60be 0b2d 1c3e b350 b6bf
00000050: 9b4b 413e 32ad 77bf d71e 37bf 4736 e6c0
00000060: eba2 22bf 2ac5 22bf 546d 4cbf d1ac d03e
00000070: e306 8bbf eeb5 c2be 73c0 efbe 8735 553b
00000080: 9d68 293e 5902 a93f c575 6abf 175a 13be
00000090: 1437 21c0 6709 553e a50b 53be 62cb 4c3f
000000a0: 06d8 cdbe 61d1 4f3e 00fe d23e 5802 bbbf
000000b0: d700 a43f cab2 d8bf 89e2 403f be1e 0ac0
000000c0: 7d98 b73f 9911 ed3d 3f65 773f a786 48c0
000000d0: 3ac0 bbc0 2b66 89bf f2f8 043f 654c a9bf
000000e0: 926d 553e 4d0f d1bf 8b03 57ba 0729 75bf
000000f0: 77ab 3abf e98c d5bf 3d6a 03c0 adc8 8a3d
-1.4193202 -4.1013045 -0.1749055 -0.62459195 1.2115678 -0.42508906 0.26455507 -0.7107097
0.15748778 0.25755525 -0.6629427 -0.5020493 0.9346757 -0.47149423 0.29367667 2.5974717
0.4302359 -0.2190571 0.15251558 -1.4243377 0.18876497 -0.9674865 -0.7153143 -7.1941257
-0.63529843 -0.635821 -0.7985432 0.40756848 -1.0861477 -0.38029426 -0.46826515 0.0032533125
0.16543813 1.3203841 -0.9158595 -0.14389835 -2.5189867 0.20804368 -0.20609911 0.7999784
-0.40203875 0.20294715 0.41209412 -1.461009 1.2812756 -1.6929562 0.75345665 -2.1581264
1.4343411 0.11575622 0.96638864 -3.1332185 -5.867215 -1.0734304 0.5194236 -1.3226439
0.20842579 -1.6332794 -0.0008202127 -0.9576573 -0.72917885 -1.6683627 -2.0533593 0.06776557

bn.running_var f4 [64]
00000000: 24c4 8a41 c362 4841 54a3 9040 38cf b240
00000010: 0d17 9540 9575 0b41 d321 b940 20df 8940
00000020: 7a80 2540 0213 a140 0150 ba41 d85b 9b40
00000030: 011c cb40 e971 e440 f6df ae40 b283 c640
00000040: c20f 9641 d41e 8a40 9fad c940 cc3b b440
00000050: 9626 6d40 471a ee40 5021 c140 a6bc 0542
00000060: 4cb7 9540 5a9c bf40 7079 bc40 29ed f040
00000070: 36fc 9740 97ff c440 b732 b740 bfb1 a540
00000080: 223a ac40 3382 bc40 915d 9941 2ecb 9a40
00000090: 145d ad41 5f91 ab40 0af2 8441 3abd 8040
000000a0: 6323 5440 4ce7 1b40 8e4d 3841 9239 b040
000000b0: 87f3 e840 47ad bf40 03be 2941 c91d c340
000000c0: e683 7440 3db0 a240 1369 db40 8b06 0b42
000000d0: c62b 3241 c240 f340 d37d 7740 d812 ad40
000000e0: 936a d640 29d6 e440 89d5 6040 b850 9b40
000000f0: 5939 0041 6c7c 9d40 b0d1 7240 dd15 8240
17.345772 12.524112 4.5199375 5.5877953 4.659064 8.716207 5.785379 4.308487
2.5859666 5.0335703 23.289064 4.8549614 6.3471684 7.138905 5.464839 6.203576
18.757694 4.316263 6.302444 5.6322994 3.70548 7.4407077 6.0353165 33.434227
4.678625 5.987836 5.889824 7.52895 4.7495375 6.1562 5.724941 5.1779475
5.3820963 5.8908935 19.170687 4.837302 21.670448 5.3614955 16.618183 4.023099
3.3146598 2.4359922 11.518934 5.5070276 7.2797275 5.989902 10.60889 6.097386
3.8205504 5.0840135 6.8565764 34.75639 11.135687 7.601655 3.8670547 5.4085503
6.7005095 7.1511426 3.5130332 4.8536034 8.014001 4.921438 3.7940483 4.065169

residual_blocks.0.conv1.weight f4 [64, 64, 3, 3]
00000000: cc3a 20be 0c47 173f f863 78bf 8f75 c1be
00000010: 77be 1b3f e312 db3f f673 693e e5d1 5e3f
00000020: a93c c5bb c731 643f 0b63 843b c7af 76be
00000030: 466b 17bf d95c cf3e 6802 b43e e967 68bf
00000040: 2355 433f 880e 15bf 392a f9be 9915 3c3f
00000050: 2e20 9a3d cf1e 523f 5eae adbf e7df 34bf
00000060: f09d cabe df15 a8bf de00 9bbf c716 14bf
00000070: 241a cb3e dddb 0f3f d4f9 c03f 3077 c63f
00000080: 0ffd 98be 59a3 b13e 35e7 4940 307d 873c
00000090: 6573 82bf f498 0c3f 585a b93f ab82 a93e
000000a0: 4a07 bbbf 184f 7bbf dcef 06bf a75a 32c0
000000b0: e836 a6bf 0511 373f 2c17 1fbe d798 91be
000000c0: 413b 753d 731f a9bf 8bcf 59bf c09c 18bf
000000d0: 85d3 aabf f645 9dbf 1756 a33f 6ff0 983f
000000e0: 483e 19bf 6471 5abf f5e1 2140 8c3a 6d3f
000000f0: 47cd ec3f 8a86 943e a1d1 303f f29b 25bf
00000100: efa3 c63f d8d4 183f e6f0 10bf 316e 103f
00000110: 4ce8 8e3e b94e 443e 966d 9dbe dff8 0540
00000120: 2890 02be 9a9f f83e 8c19 7bbf 03cc 7abd
00000130: b6cc ee3f 7c9f c6bd 2e6c 253f ecc5 0740
00000140: 0f28 5a3e a56f 71bf 56d0 813f f963 18bf
00000150: 19de 973e 3baf 45bf 70c2 843f 3cc3 afbe
00000160: 8fa1 5bbf 1f31 9abf 9b3a f7bd 8385 92bf
00000170: c811 5ebf 424c 673f a3de a2bf 4b92 1ebf
00000180: cff3 683f 2698 333f 72a5 e63e 5ffb 943f
00000190: 9b72 48bf 5624 3ebf c846 603e e83f 8d3e
000001a0: f54f bbbf 8422 b2bf 6c3b ebbf ea5f babe
000001b0: 5dc5 8dbd cf98 b63f 689e 6bbf ab86 053f
000001c0: ed43 9f3f 9a87 3bbf ec2c 1bbf 9487 06bf
000001d0: b803 963f 4479 00bf b45c d13e f0e2 323f
000001e0: 28ac ffbe e986 8ebe 7117 adbf 2149 1dbf
000001f0: 8b22 d13f c6a8 aebf fcad 9fbf 2a3c b93e
00000200: c5f7 eb3e 8c30 4f3f ddfc 15c0 e51e a43e
00000210: f664 98be 5151 edbe 5818 a8bf 72ee 8fbe
00000220: c85e c73f b7c4 0d3f 1c96 923f 2bff dfbf
00000230: 40aa 43bf b55c 2abf acfa 2cc0 ca2f 9c3f
00000240: 3775 6d3b b499 923f e5ba b4be e5a7 1d3e
00000250: 7189 813f 3529 a6bd 1ddd 77bf 8c09 aabf
00000260: c4a7 b1bf c6c4 1cc0 7c10 5d3f d32c a93e
00000270: 0535 91bf 1409 debd a244 82bd b9b1 8cbf
00000280: 569a 76bf 6d68 a7bd 26ac 5ec0 1bd9 203e
00000290: 1554 ecbe fbe4 0e3f e035 1bbf 90dd f63e
000002a0: b24c b63e 7230 19bf 2a72 a0bf 50c2 c6bf
000002b0: c6f8 f2be a0e1 e53e eea7 a3bf bac3 11ba
000002c0: 0dab cc3e 14dd 853e f8df 143f a911 95bf
000002d0: afc4 0a40 ea0d 53bd f74b ecbc 0bf2 553f
000002e0: 7039 8b3e 2f7c 113e de5f 39be efdd 533e
000002f0: ea10 4c3e bfc8 8ebe ca92 6ebf 5a41 b8bd
00000300: f9c2 2cbf 1b56 c9be 25bd 243e 2927 c5be
00000310: 2971 78bf b292 aa3f 8dda 683f a6a0 f23e
00000320: adf1 a8bf f0b9 e73e 90d6 c73e afec 2fc0
00000330: df3a 1b40 4a5f 933d 5023 e03f d293 a0be
00000340: cbd3 87bf e275 bfbf 8123 8a3f e109 1bbf
00000350: aa62 53bf 10f9 803f 5695 133f e66c 82bf
00000360: b646 dabe 8940 c93f e359 78bf 05dd 82bf
00000370: afd6 b23e 5188 30bf 201d 37bf 1aba c6bf
00000380: 4c5b 4cbf bf3c 583e c995 493f b41c e2bf
00000390: 0ddd 0e3f de7d 2840 11fa 89bf 7315 f7bf
000003a0: 8bbf 6d3f 43a3 95bf 0d69 34be 5d04 98bf
000003b0: c2aa 31bd ab52 44bc 7909 0dbe 7b2c 7a3e
000003c0: e359 22bf c4a0 1cbf 80cc c8bf 564e ad3d
000003d0: 0c39 b73d 9cbe b2bf 48ab 9bbf 991c 8f3f
000003e0: 1058 1ebe 594a 193d 130f 013f 4644 193e
000003f0: 3e90 77bf 543c 11bf 4893 b6be 3fff 85bf
-0.15647429 0.59092784 -0.9702754 -0.37785003 0.608375 1.7115139 0.22798142 0.87039024
-0.006019194 0.89138454 0.004040127 -0.24090491 -0.5914806 0.40500525 0.35158086 -0.90783554
0.76301783 -0.582253 -0.48665026 0.73470455 0.07525669 0.8207826 -1.3568838 -0.7065415
-0.39573622 -1.3131675 -1.210964 -0.57847255 0.3966838 0.5619486 1.5076241 1.5505123
-0.29880568 0.34694937 3.1547368 0.016539186 -1.0191466 0.5492089 1.4480696 0.33107504
-1.46116 -0.9816756 -0.52709746 -2.786783 -1.2985506 0.71510345 -0.15536183 -0.2843692
0.059870962 -1.3212723 -0.8508231 -0.5961418 -1.3345801 -1.2286975 1.2760648 1.1948375
-0.5986066 -0.8532927 2.5294163 0.9266746 1.8500146 0.29008895 0.6906987 -0.6469108
1.5518779 0.59699774 -0.5661758 0.5641814 0.27911603 0.19170655 -0.3074767 2.093315
-0.12750304 0.48559266 -0.98085856 -0.061229717 1.8656223 -0.09698388 0.64618194 2.1214552
0.21304344 -0.9431098 1.0141704 -0.59527546 0.29661635 -0.77220505 1.0371838 -0.3432864
-0.85793394 -1.204624 -0.12071725 -1.1446995 -0.8674588 0.90350735 -1.2724193 -0.61941975
0.9099702 0.70154035 0.450481 1.1639212 -0.78299874 -0.74274194 0.21902001 0.2758782
-1.4633776 -1.3916783 -1.8377509 -0.36401302 -0.0692241 1.4265383 -0.92038584 0.5215861
1.2442604 -0.73253787 -0.6061542 -0.52550626 1.1719885 -0.50185037 0.4089104 0.6987753
-0.49936032 -0.27837303 -1.3522779 -0.6143971 1.6338667 -1.3645256 -1.2474971 0.36178714
0.4608747 0.8093345 -2.3435585 0.3205482 -0.29764527 -0.46351102 -1.3132429 -0.28111607
1.55758 0.5537829 1.145206 -1.7499746 -0.76431656 -0.6654771 -2.7027998 1.2202084
0.0036233196 1.1453156 -0.3529884 0.15396078 1.0120069 -0.08113328 -0.9682177 -1.3284163
-1.3879323 -2.44951 0.8635328 0.3304201 -1.1344305 -0.10841575 -0.06360747 -1.0991737
-0.9632925 -0.081742145 -3.479257 0.15707819 -0.461579 0.55818146 -0.6062908 0.48215914
0.3560539 -0.59839547 -1.253484 -1.552805 -0.47455424 0.448987 -1.2785623 -0.00055604766
0.3997425 0.26145232 0.5815425 -1.1646014 2.1682546 -0.05152694 -0.028844817 0.83572453
0.2719226 0.14207529 -0.18102977 0.2069013 0.19928327 -0.27887532 -0.9319273 -0.0899684
-0.67485005 -0.39323506 0.16087778 -0.3850644 -0.9704767 1.3326018 0.9095848 0.4738819
-1.3198754 0.45259047 0.39030886 -2.748821 2.4254682 0.07195909 1.7510777 -0.31362778
-1.0611509 -1.495785 1.0792085 -0.6056195 -0.82572424 1.0076008 0.57649744 -1.0189483
-0.42632073 1.572282 -0.97012156 -1.02237 0.34929416 -0.68958 -0.71528816 -1.5525544
-0.7982681 0.21116923 0.7874418 -1.766501 0.55806047 2.6326823 -1.0779439 -1.9303421
0.92870396 -1.1690449 -0.17618199 -1.1876332 -0.043375738 -0.0119826 -0.13773145 0.2443103
-0.63418406 -0.6118281 -1.5687408 0.08462207 0.08946428 -1.3964419 -1.2161646 1.1180602
-0.1546328 0.03742442 0.50413626 0.1496745 -0.9670447 -0.5673268 -0.35659242 -1.046852

residual_blocks.0.bn1.weight f4 [64]
00000000: d3b3 b33f 484f a43f c37e 6a3f 7fce d83f
00000010: 5aee 6f3f 7ba8 583f 8bbd bd3f 912e 733f
00000020: b27a fa3f aa04 c53f 59ab 943f 8d88 8a3f
00000030: 9be1 9c3f 59c1 7d3f 1d97 a93f ec3a a83f
00000040: 1bcd 0540 1def b73f e38b a93f de1d bc3f
00000050: 57f8 9c3f 837c 0540 4548 8f3f d031 e93f
00000060: f2ba 7d3f a844 a33f 419a f03f b5ac aa3f
00000070: 27c1 a63f 6153 883f f244 4f3f a0b6 d83f
00000080: d0ce e33f c046 733f 8dae 733f 2fa5 913f
00000090: 868a 713f 72fd 903f e1ed af3f d17d f13f
000000a0: 4076 e73f 82fa f83f 3f5d 3b3f 3960 e83f
000000b0: bf0a 0b40 7743 ad3f 590b e83f 3cf0 693f
000000c0: 3155 b23f ee73 ce3f d5fe aa3f 55ae f93f
000000d0: e010 bd3f f580 df3f acef 6b3f b74a b03f
000000e0: 23e9 983f c7ce d53f 066b 1e40 917d e63f
000000f0: fbd9 c93f 0d85 923f e4c5 873f b121 9c3f
1.4039253 1.2836695 0.91599673 1.6938018 0.9372307 0.8463208 1.4823469 0.9499293
1.9568694 1.5392048 1.1614791 1.0822922 1.2256349 0.9912315 1.3249241 1.3142982
2.0906436 1.4369847 1.3245815 1.4696615 1.2263287 2.0857246 1.119393 1.8218327
0.9911338 1.2755327 1.8797075 1.3333956 1.3027695 1.0650445 0.8096458 1.6930733
1.7797489 0.9502983 0.9518822 1.1378535 0.94351995 1.1327345 1.374447 1.8866521
1.8082962 1.9451449 0.7318916 1.8154365 2.172531 1.3536214 1.8128463 0.91382194
1.3932248 1.6129129 1.3359019 1.9506327 1.4770775 1.746123 0.92162585 1.3772801
1.1946148 1.6703728 2.4752822 1.800707 1.5769647 1.1446854 1.0607266 1.2197782

residual_blocks.0.bn1.bias f4 [64]
00000000: 4581 07bf e1b6 5dbf c817 0e3f f326 03bf
00000010: 32e0 61bd 5b66 2c3d ec56 48bf c5d1 d33e
00000020: 8fec 82bf 2fd3 fabf 52bf 37be 13af eb3e
00000030: 2149 b93d c903 d33e 355f a7bf b7fa 08bf
00000040: d8a5 94bf 5bdb 84bf 9c8b e2bd 94e4 c2be
00000050: a80a 73be d6e1 d4bf 1212 2e3f 0dd7 bcbf
00000060: 4b14 953e 24c5 c5be f577 d7be a3b4 38bf
00000070: a5c1 a33d cd32 f53c 3f76 f63e a053 93bf
00000080: 9be5 e0bf c673 bf3d 5c05 ac3e 231c 9fbe
00000090: db55 143f d549 b63e cf9c 8d3e 6d83 51be
000000a0: d22f 8bbf 65d1 09c0 c6e2 c43f ea42 a0bf
000000b0: f454 f8bf f02e f8be 4193 70bf c4fa 6ebd
000000c0: db07 74bf 8568 94bf 9224 6dbf e1a5 c6bf
000000d0: 5b64 5cbf f929 f1bf 7377 a63e eb14 89bf
000000e0: ba70 99bd 0930 8bbf ce85 19c0 1bd0 a9bf
000000f0: 00a8 14bf 4fb0 ec3d 0931 21bd 6fd1 743d
-0.52931625 -0.86607176 0.5550504 -0.51231307 -0.05514545 0.0420898 -0.7825763 0.4137098
-1.0228442 -1.9595698 -0.17944077 0.4603201 0.09047151 0.41213825 -1.307593 -0.5350756
-1.1613111 -1.0379442 -0.110617846 -0.38065016 -0.23734534 -1.663142 0.67996323 -1.4753128
0.29117045 -0.3862697 -0.42083707 -0.7215063 0.07995919 0.02993145 0.4813709 -1.1509895
-1.757007 0.09348254 0.3359784 -0.31076154 0.57943505 0.35603204 0.27658698 -0.20460291
-1.0873969 -2.1534054 1.5381706 -1.252042 -1.9400926 -0.4847331 -0.9397469 -0.058344617
-0.95324486 -1.1594397 -0.92633927 -1.5519372 -0.8609063 -1.8840934 0.32513008 -1.0709509
-0.07492204 -1.0874034 -2.3987918 -1.3266634 -0.5806885 0.11557066 -0.039353404 0.059770044

residual_blocks.0.bn1.running_mean f4 [64]
00000000: 4e87 e6c1 8759 123f 9662 c83f 9fee bdc1
00000010: f2dd edbf b1d1 f9c0 a114 89c1 d4e0 53c1
00000020: 7bce 8ec1 b7ae 5d41 c8ac 9b40 17cc 56c1
00000030: 23cc 38c0 720a 03c1 1fde 2740 63de 2dc1
00000040: 501a 6dc1 d961 8dc1 ce1e 45c1 4cea 3cc1
00000050: bd64 95c1 deeb 9bc1 54a9 7940 9bb9 54c1
00000060: fb19 8b41 58eb 8fc1 30c1 73c2 7ea3 a9c0
00000070: 1b31 a4c1 2f6e 9f40 8678 2741 4ca6 85c1
00000080: b964 f4c1 ac67 a8c1 e1b7 45c0 2764 02c2
00000090: f4cb 4bc1 3045 8e40 5806 0e40 c8dc ecc1
000000a0: 268d 00c2 9cbb 2dc2 b9a3 0d42 5cca ccc0
000000b0: 1981 b2c1 8eeb 68c1 5000 eac1 f46c d13c
000000c0: 8eea a33f 65ef 9741 02b6 bbc0 0776 11c2
000000d0: a670 a3c1 976a 18c1 e03d 0f41 27f3 8dc0
000000e0: 7788 cdbf 0645 57c1 e5a1 29c1 8aee fbc1
000000f0: 1b93 e6c1 3257 8ac0 4b1b 7fc1 f8c2 3dbf
-28.816067 0.5716786 1.5655086 -23.741514 -1.8583357 -7.806847 -17.135073 -13.24239
-17.85082 13.855155 4.8648415 -13.424827 -2.8874595 -8.19005 2.6229322 -10.866794
-14.818924 -17.672777 -12.320021 -11.807201 -18.674189 -19.49017 3.90096 -13.295314
17.387686 -17.989914 -60.93866 -5.3012075 -20.523977 4.9822 10.466925 -16.7062
-30.549181 -21.050621 -3.089348 -32.597805 -12.737293 4.4459457 2.2191372 -29.607803
-32.13784 -43.433212 35.409885 -6.399702 -22.313036 -14.557508 -29.250153 0.025564648
1.2805955 18.991892 -5.8659678 -36.36526 -20.430004 -9.526023 8.952606 -4.4359317
-1.6057271 -13.454351 -10.602025 -31.491474 -28.821829 -4.323144 -15.944163 -0.74125624

residual_blocks.0.bn1.running_var f4 [64]
00000000: c9c0 9043 a1e1 4643 6e00 5043 a2d6 d943
00000010: 456d d243 0710 5343 5721 7b43 7167 8b43
00000020: 2e72 a543 7281 4143 c6cd 8b43 053b bb43
00000030: 37aa c143 102f 6643 6a88 5643 a71a 7e43
00000040: 6338 8943 8c5c 9743 7824 cb43 3458 9243
00000050: 917c c743 9968 c743 db02 7543 b92b 7e43
00000060: 3a6d 7e43 8301 5e43 1935 1744 fbe4 8c43
00000070: fb59 7a44 9f0a e743 c04a 6243 ad32 8e43
00000080: 26a7 9f43 1abe 7e43 c882 7243 7c81 9d43
00000090: 1ff1 8643 a4e9 b143 6a5e 8743 9424 ba44
000000a0: dcb8 b543 d286 ac43 d089 2e44 469e 7a43
000000b0: a4e4 af43 9c8b 6b43 1b75 c543 c8bc 7c43
000000c0: d23d 8b43 fcf9 0444 d73c 2e43 7f0e a043
000000d0: 2be6 8f43 e170 9143 4cb7 9743 65ad 2943
000000e0: 6c6a b443 10a1 8943 069b 9343 c83b c343
000000f0: 8ac4 a243 0419 dd43 1a2c 8d43 292f a843
289.50613 198.88136 208.00168 435.67682 420.85367 211.0626 251.13023 278.80814
330.89203 193.50565 279.6076 374.4611 387.3298 230.18384 214.53287 254.10411
274.44052 302.72302 406.2849 292.6891 398.97318 398.81717 245.01115 254.17079
254.42667 222.0059 604.82965 281.7889 1001.40594 462.08298 226.29199 284.3959
319.30585 254.74258 242.51086 315.0116 269.88376 355.82532 270.7376 1489.1431
363.4442 345.05328 698.1533 250.61826 351.78625 235.54535 394.9149 252.73743
278.48297 531.906 174.23766 320.11325 287.7982 290.88187 303.432 169.67732
360.83142 275.2583 295.21112 390.46704 325.53546 442.19543 282.34454 336.36844

residual_blocks.0.conv2.weight f4 [64, 64, 3, 3]
00000000: bf5d 553f 6e9a 9e3f cd8d 0fc0 9cc1 953f
00000010: 16dc ff3e 4b5c 77bf 146e babe bf12 b13f
00000020: c1ad f13d 778d 41be e2f1 0540 99c6 ec3e
00000030: eef4 e03e 2541 ad3d 02b6 fb3f 126d ee3f
00000040: d864 0b3d cf20 25bf f1e6 d93e 453a 213f
00000050: 314c 943e 8920 b9bf 7619 a83f 81da b9bf
00000060: 1a1c d3be f174 f23d 8aeb d8bf 2340 d0bf
00000070: b924 903f 146a b8bf c5fc 5fbe 3ecb 823d
00000080: 0cc2 95bd 06aa 07c0 c5ce 273f 0660 e8be
00000090: 185b 90bb c2bb 8b3f 30d4 843e 7283 9abf
000000a0: 129b 87bf f331 6a3c 1904 94bf ef01 85bf
000000b0: 06c0 003f 9ff2 87bf 0ebd 7fbf 67f3 aebc
000000c0: 4b9e 51bf 0312 23bf 9715 3fbf 2ecc 93bf
000000d0: dcd8 09c0 21bd 3d3f 15bf 10bf 718d 3437
000000e0: baed 213f 3222 c73f 3f46 3c40 5b6d e53f
000000f0: 80cf 543f 6a0d 0940 c7ed 38bf 3277 afbf
00000100: e8ae 233e 0062 833e 1f67 1040 05cf afbf
00000110: 38cb eabd 6ab0 a5bf 2bc5 92be b706 ecbf
00000120: 6c8a 69bd 4733 ad3e 873f e7bf 46e5 af3e
00000130: 0974 2ebf 7b1a 993e b882 a33e 3b53 993c
00000140: 3301 c1be 208e 6fbf a43f 1d3e 2da6 8ebf
00000150: 3155 c0bf dccb d7be 2f0e 613d ff88 13c0
00000160: ab5d 403f 156c 86bf 65a3 023f 9dcb 5a3f
00000170: 6a25 03c0 f9ea d33e 42a2 ebbe 38ab e33e
00000180: ce9c 65bf 16e8 813f d9d7 acbf 6ca1 813f
00000190: 628a 8bbe 19d6 9cbd 801e fcbe 8efb 84bf
000001a0: 1bd1 a4bf 59b8 78be 8fe0 1bbd dca4 20bf
000001b0: b3b5 aabe 424e d03e b1c9 5abf e999 84bf
000001c0: 0c80 09bd 7df1 123f 43c4 50c0 11b8 9abf
000001d0: d212 dabf 9dd5 24bf 00e2 90bf c748 14bf
000001e0: 8ab9 873e 288e c33f dcdf 27bf 5b3e 3bbf
000001f0: a772 4fbf 5476 8ebe f019 87be 26b6 2b3f
00000200: 5ea9 f4be ceb0 b73f d8b3 f7be 388a b5be
00000210: 0f59 403f a5a5 b53e e8a6 f13f 00a0 83bf
00000220: 5851 243f 1965 e63e 3c8e 973e e2cf 933f
00000230: ddfb db3d bdcc ed3f 98f8 2bbf f5fc c13f
00000240: 0986 823f a509 7b3e 1386 a03f c597 38be
00000250: ac43 50bf 197c 0cbf 9a7a e73d 5eeb 63bf
00000260: c62b 613f 7add 04c0 b417 063f 26c0 113f
00000270: fff4 a13e 04b6 a0bf b707 2f3f ad87 93bf
00000280: 32d4 453f f511 f7be 4ab3 7bbe 4aaf 89bf
00000290: c2a0 223d 7ec9 70be 8ce6 14bf e4b4 413f
000002a0: b187 8bbf 4b32 653c 2cb0 94bf 4e6a 2b40
000002b0: d4c6 e23f be01 3bc0 3941 ac3b d627 8f3d
000002c0: 1510 6fbf 1ce7 7d3f 2da2 0e3e de35 1f40
000002d0: 664a 88bf 4d9f 9e3f 1ad1 c03e 80af 00c0
000002e0: d075 3f3d c020 14bf d74f 35bf 2565 dbbe
000002f0: c342 873e e1e1 fcbe 0b6f cebe 035e adbd
00000300: 9533 4bbf 5bb5 74be 85bc 35bf a8ca 833e
00000310: 4aa5 243f 1289 02c0 4bb2 023f ef69 1fbf
00000320: 39ef 58be 5410 b7be c700 8c3f 95ee 8f3f
00000330: 9854 dbbe a423 1f3f f339 a83f 17f1 b03f
00000340: f198 683f a779 aebe ae95 a73f 973d e83f
00000350: d312 5abf 8b1b 693f b6ac 03bf 8b8c 53be
00000360: 721a 2abf f960 c1be bda0 1ebf ce7d e0bd
00000370: 9565 1f3f a70f d1bd 805b bebf 83a1 4dbf
00000380: 00f5 f2be f81a 1dbf 6abc 133f 9443 3340
00000390: 64c6 82bf d382 893f a92a 683f d2fc dc3f
000003a0: fac7 c93f 95d2 acbd f7d7 3abf da40 883b
000003b0: d3da 86bf b2e6 e33f e2c6 703f 534c 66be
000003c0: 92c3 333e 060d 6c3f 606a 873e 3f1d 5b3f
000003d0: a4b7 9a3e 1320 a73e b54b 09bf 6dbf 583f
000003e0: 6980 913f ef38 4bbe f052 da3f d74f 5abe
000003f0: 8adb 39bf 824a a4bf 5acb 183f 26a3 a0bf
0.8334617 1.2390878 -2.2430298 1.169971 0.499726 -0.966252 -0.36412108 1.3833846
0.11800719 -0.18901621 2.0928884 0.46245268 0.43936867 0.08459691 1.9664919 1.8627036
0.03403172 -0.64503187 0.42559007 0.6297954 0.2896438 -1.4463054 1.313277 -1.4519807
-0.41232377 0.11838711 -1.6946881 -1.6269573 1.1261207 -1.4407372 -0.21873768 0.063864216
-0.07312402 -2.1197524 0.6554988 -0.4538576 -0.0044053905 1.0916674 0.25943136 -1.2071364
-1.0594199 0.014294135 -1.156375 -1.0391215 0.50293005 -1.0620917 -0.9989785 -0.021356298
-0.8188216 -0.6369936 -0.7464232 -1.1546686 -2.153861 0.7411671 -0.5654157 1.0761768e-05
0.63253367 1.555731 2.9417875 1.7923998 0.8312912 2.1414437 -0.7223782 -1.370825
0.1598469 0.25660706 2.256294 -1.3735052 -0.11464542 -1.2944462 -0.28666052 -1.8439549
-0.057016775 0.33828184 -1.8066262 0.3435461 -0.68145806 0.29903015 0.31935668 0.018716445
-0.37696227 -0.9357624 0.15356308 -1.1144463 -1.5025998 -0.4214772 0.054945167 -2.3052366
0.75142926 -1.0501734 0.5103057 0.8546694 -2.0491586 0.41390207 -0.4602223 0.44466567
-0.8969239 1.0148952 -1.3503371 1.0127387 -0.27254015 -0.076580234 -0.4924202 -1.0389268
-1.2876314 -0.24289073 -0.038055953 -0.62751555 -0.3334175 0.40684706 -0.85464007 -1.035947
-0.03356938 0.5739973 -3.2619789 -1.2087423 -1.7036994 -0.6438845 -1.131897 -0.5792355
0.26508743 1.5277758 -0.6557596 -0.7314202 -0.8103432 -0.27824652 -0.26386976 0.6707481
-0.47785467 1.4350832 -0.48379397 -0.35457015 0.7513589 0.3547794 1.8879061 -1.0283203
0.6418662 0.44999006 0.29600704 1.1547816 0.107413985 1.8578106 -0.671762 1.5155321
1.0197154 0.24515398 1.2540916 -0.18026645 -0.8135326 -0.5487686 0.11302681 -0.89031017
0.8795742 -2.0760179 0.5237992 0.5693382 0.3163223 -1.2555547 0.68371147 -1.152578
0.7727691 -0.48255888 -0.24580112 -1.0756619 0.03970409 -0.23514363 -0.58164287 0.7566664
-1.0900785 0.013989042 -1.1616263 2.6783633 1.7716928 -2.9219813 0.0052567986 0.0699002
-0.93383914 0.9918077 0.13929053 2.4876628 -1.0647705 1.2392365 0.37659532 -2.0107117
0.046743214 -0.5786247 -0.7082495 -0.42850605 0.26418123 -0.49391082 -0.40319094 -0.08465197
-0.7937558 -0.23897307 -0.7099078 0.25740552 0.6431471 -2.039616 0.51053303 -0.62271017
-0.21185006 -0.35754645 1.0937737 1.1244684 -0.42837977 0.6216376 1.3142685 1.3823575
0.9085837 -0.34077188 1.3092554 1.8143796 -0.85184973 0.9105765 -0.5143541 -0.20659082
-0.664466 -0.37769297 -0.6196402 -0.10961495 0.62264377 -0.102080636 -1.4871674 -0.8032457
-0.47452545 -0.61369276 0.5770937 2.8009996 -1.0216794 1.0743049 0.90690094 1.7264655
1.5764153 -0.08438603 -0.72985786 0.0041581215 -1.053553 1.7804778 0.9405347 -0.22490053
0.17555073 0.9220737 0.26448345 0.855915 0.30218232 0.32641658 -0.53631145 0.8466709
1.1367313 -0.19845937 1.705656 -0.21319519 -0.72600615 -1.2835238 0.5968529 -1.2549789

residual_blocks.0.bn2.weight f4 [64]
00000000: e3b6 bd3f cabf ad3f 6353 d03f dfe6 a13f
00000010: 56f1 e23f eb00 613f e570 953f ea86 6e3f
00000020: aa41 693f 9ec0 a43f c52a 383f 0e2d 893f
00000030: 9ca4 a33f 27c5 9b3f 61c6 e93f 5b13 1340
00000040: 32da 2f3f 92c6 7e3f 8d36 e93f c266 0a40
00000050: 2861 b63f 66b0 a23f 7b3f ac3f b1d4 b43f
00000060: 7fd7 c23f 35d6 7d3f 1f9e 853f 4af9 533f
00000070: 7fc8 ae3f 2e99 d03f 7d50 9a3f 08da d33f
00000080: cf11 8b3f 8793 a23f 66ce 363f e25f de3f
00000090: e2a1 e23f ea83 9a3f 2b81 a73f 51d4 b03e
000000a0: e502 913f 3f96 883f 608b ae3f 9c2a 0640
000000b0: 7f2d c93f 3c68 d23f e871 8a3f f253 bd3f
000000c0: bd52 953f 68d3 0f40 b692 b73f 5855 a03f
000000d0: 2d0b 1a3f cf20 833f cdd6 e23f 3803 993f
000000e0: d926 ce3f 10ce d63f f47f eb3f d6da d03f
000000f0: 073d 8f3f 6e7d cd3f 9ba4 b83f 7f8a be3f
1.4821438 1.3574154 1.6275448 1.2648581 1.77299 0.87892026 1.1675078 0.9317461
0.9111582 1.2871282 0.7194026 1.0716875 1.278461 1.2169541 1.8263665 2.2980564
0.68692315 0.99521744 1.8219773 2.1625218 1.42484 1.2710083 1.3456873 1.4127408
1.5222014 0.9915498 1.043888 0.8280226 1.3654937 1.6296747 1.2055813 1.6550913
1.086481 1.2701272 0.7140869 1.7373011 1.7705653 1.2071507 1.3086294 0.34536985
1.1329008 1.0670851 1.3636284 2.0963507 1.5717009 1.643806 1.0816011 1.4791243
1.1665875 2.2472782 1.4341648 1.2526045 0.601733 1.0244387 1.7721802 1.1954107
1.6105605 1.6781635 1.8398423 1.6316783 1.1190499 1.6053903 1.4425234 1.4886016

residual_blocks.0.bn2.bias f4 [64]
00000000: 596b dfbe abfd 0abf 7341 0dc0 72c9 a6be
00000010: 55f8 c4bf d1af 8e3e a0e3 a4bd d710 8abe
00000020: 0f8e 993e 38ea f1be 0c11 2c3d 4dd7 e33c
00000030: 4a8e 3dbd 29be 84bf 1769 ccbf 0798 05c0
00000040: 1a14 5f3e b195 123e bdea bcbf d804 0dc0
00000050: 2e90 bfbf 3f29 31bf 41f7 f9be 36f8 82bf
00000060: e2c0 82bf ce54 97be 1f6d 99be dc28 d03e
00000070: e0c1 f9be 0759 6cbf 95ce d2be c4e4 a2bf
00000080: 791e 21bf f87c febe 3a12 d93e 3bdb d2bf
00000090: b833 04c0 dbc1 30bf 683f 1abf 9c88 913e
000000a0: 9044 1abf f6c0 2abd 9983 93bf fd26 cfbf
000000b0: d8cc 72bf 4a7c 56be 3f29 24bf 8da3 493e
000000c0: ce74 823d 2f13 edbf 8282 02c0 0f73 31bf
000000d0: 1b85 2c3f 076c 033e cf05 35c0 ca66 f4bd
000000e0: 34e3 b1bf f047 88bf 7857 b3bf be91 acbf
000000f0: 2ed0 c6be 0afb 95bf 971a a7bf 7e4e a5bf
-0.43636587 -0.54293317 -2.2071197 -0.32575566 -1.5388285 0.27868512 -0.080512285 -0.26965973
0.29991195 -0.47249007 0.042008445 0.027812624 -0.046278276 -1.0370532 -1.5969571 -2.087404
0.21785012 0.14314915 -1.4759136 -2.2034206 -1.4965875 -0.6920356 -0.48821452 -1.0231998
-1.0215113 -0.29556888 -0.29966065 0.40656173 -0.48780727 -0.92323345 -0.41173235 -1.2726064
-0.6293712 -0.4970472 0.42396718 -1.6473154 -2.0656567 -0.690458 -0.60253 0.28424537
-0.6026087 -0.04168793 -1.1524535 -1.6183773 -0.94843817 -0.2094585 -0.64125437 0.19691296
0.06369935 -1.8521479 -2.0392156 -0.6931619 0.673906 0.12834178 -2.8284795 -0.11933668
-1.3897462 -1.0646954 -1.4011068 -1.3481977 -0.38830703 -1.1717236 -1.305499 -1.2914579

residual_blocks.0.bn2.running_mean f4 [64]
00000000: 5422 cfc1 f84d f4c0 05d2 c240 21ae 89c1
00000010: c45b 24c1 c8c0 98c1 a73f bac0 601f b83f
00000020: ccb2 3dc0 bb5a 98c1 9124 38c0 1004 33c1
00000030: 5a71 a8c1 cef2 90c1 e02c 14c1 53a0 a3c1
00000040: 1a4e 46c1 eb28 e8bf 6f19 93c1 711b e3c1
00000050: 50bd 52c1 f6ca e1bf 5e82 2fc0 7a73 0fc1
00000060: 5e78 dec1 1377 07c1 d547 31c1 5643 bec0
00000070: e961 33bf 94c8 35c0 8bc7 59c0 ef3d f5c1
00000080: 3b66 9fc0 8d62 8bc1 ec1b 0942 69c9 36c1
00000090: 4752 bbc0 34cd 803f 855f 24c2 aa5e 0942
000000a0: 734c 6ac1 24c4 6741 375e 88c1 9c53 5cc1
000000b0: 2c43 b2c1 7236 2ac1 eab9 aec1 c453 a241
000000c0: 2efe b8c1 c765 abc0 47b3 07c1 d82f d1c1
000000d0: 3ceb 703f 38fc 9b41 8b54 a4be 0843 cc3c
000000e0: 3f52 a8c0 24fc 4cc1 e0d8 5bc1 a893 83c0
000000f0: 84f6 d4bf 6ff4 d1c1 459b 3dc1 f854 b83f
-25.891762 -7.6345177 6.088137 -17.210024 -10.272404 -19.094131 -5.82027 1.4384575
-2.964038 -19.044302 -2.8772318 -11.188492 -21.055347 -18.118557 -9.260956 -20.453283
-12.394068 -1.8137487 -18.387419 -28.3884 -13.171219 -1.7640064 -2.742332 -8.9656925
-27.808773 -8.466571 -11.080037 -5.9457197 -0.70071274 -2.8403673 -3.4028041 -30.655241
-4.9812293 -17.42312 34.277267 -11.424172 -5.8537936 1.0062623 -41.09328 34.342445
-14.643664 14.485386 -17.046003 -13.770412 -22.282799 -10.638292 -21.840778 20.290901
-23.124111 -5.356174 -8.481269 -26.148361 0.9410894 19.498154 -0.3209575 0.024934307
-5.26004 -12.811558 -13.740448 -4.1117744 -1.6637731 -26.244352 -11.850408 1.440093

residual_blocks.0.bn2.running_var f4 [64]
00000000: c438 0444 3134 e343 d8d1 c343 c93c 9243
00000010: ebfd b343 dd3d ba43 5cfe 9d43 e648 9b43
00000020: f276 c043 24f4 c043 5eb8 3d44 7ec1 d843
00000030: 1a5c ac43 0209 8443 9175 cd43 8d10 ea43
00000040: 8373 0744 1a58 b343 79fe c643 3c85 f543
00000050: ca51 9543 3838 a943 4676 da43 3559 f543
00000060: 0b39 c143 b1d3 e243 8e39 d743 977d a643
00000070: 0a53 c143 6ff9 9b43 a658 b443 16a1 0544
00000080: 4056 ca43 0369 c843 9888 3644 e7cf a443
00000090: eeb1 a943 43ac cf43 b82d 0444 2388 3944
000000a0: 0e42 a243 f771 a343 c9a1 c543 11e6 e043
000000b0: 17d8 e243 54fc cf43 db96 b143 9b47 2e44
000000c0: 729e 0244 c3c4 bd43 11db a743 9851 7c43
000000d0: a343 1c44 a886 c943 b02e fc43 a6b1 ad43
000000e0: 68c8 1644 1eb6 e943 f944 d243 7ee5 b543
000000f0: 3462 0944 79af ec43 e4a2 b843 5486 0744
528.88696 454.40775 391.6394 292.47488 359.98373 372.4833 315.98718 310.56952
384.92926 385.90735 758.88074 433.51166 344.71954 264.07037 410.9185 468.1293
541.8049 358.6883 397.98807 491.0409 298.63898 338.4392 436.924 490.69693
386.44565 453.65384 430.44965 332.98117 386.64874 311.9487 360.69257 534.51697
404.67383 400.8204 730.1343 329.62424 339.39008 415.3458 528.71436 742.12714
324.51605 326.89035 395.26395 449.7974 453.6882 415.9713 355.17856 697.11884
522.4757 379.5372 335.71146 252.31873 625.0568 403.052 504.36475 347.38788
603.13135 467.4228 420.53885 363.7929 549.5344 473.37088 369.27258 542.0989

residual_blocks.1.conv1.weight f4 [64, 64, 3, 3]
00000000: fe38 923e 82da a6bd a25c 9a3e d2ea c03f
00000010: 0a56 0ebe d0e0 5fbf 4840 a8be 8397 26bf
00000020: 1b52 013f 910f 1bbf 07a9 2fbe 8876 1abf
00000030: 522d 023c a072 bf3e f46f 6d3f 0e94 74bf
00000040: b6d4 7c3f 59c6 ae3f 9af4 3c3e ccc9 2440
00000050: 4f80 1cbf 3b02 cc3d 20b0 053f 1d25 ae3e
00000060: f813 183f e4eb 093f 2e1d 17bf 4248 b1bf
00000070: ff49 3ebd 7c04 f23d 0edf 0b3f bff1 e5bf
00000080: 523e 753f 4746 143f d4c7 8cbf 88f6 16bf
00000090: 36c3 eb3f d3ba 503f 0b5c cdbe 84bc b7bf
000000a0: 4d6a da3e 3c22 2abf 94b4 febf db23 803f
000000b0: 4abb b53f 4330 7fbf 4afb 6c3f 71af c13e
000000c0: c65c 94be 0157 15bf f560 c03e 31df bdbf
000000d0: da39 a53f 7b29 61bf 58e4 7dbf 248b 8abf
000000e0: 7cea d63e 33e5 c53f dd4b 6e3f 65c6 2a3e
000000f0: f20b 37c0 3737 423f 20a2 96be bd01 683f
00000100: a43f 9a3f e1b9 e93e aa45 38bf a453 16bf
00000110: aa84 b3be 9a14 8ebf 6f78 82bf 5b20 18be
00000120: 3d9f b83e a043 80be 8b5a 963e 3c11 373f
00000130: 8171 233f cbca a5bf 2d8d 253f f352 cdbf
00000140: 9d8d 6b3f 2de6 133f 830f e7be 7338 5a3f
00000150: 1f16 20be 60ec 64bf 9071 37bf 5ce8 b63e
00000160: 85e7 e2bf 9e06 98be 9714 043d b1af 4b3f
00000170: 1ecb 793e bee9 f03d 23fd 06be 5300 4f3f
00000180: 7455 fcbb 6f9a d8be a2bd 22bf 37d9 963e
00000190: 70a6 3d3f 4b65 65bf 4dfd 10bf 7ce5 06bf
000001a0: 39b9 01c0 d35f 6b3f 5853 fdbf 1f61 073f
000001b0: 11f0 b9bf c7e5 2b3f 8843 f33f 8ebe adbf
000001c0: 33ab c73e 9421 1440 8f11 fcbe a60b 06bf
000001d0: 4d9c a13e 088a abbe 8e82 43bf 63ef bd3f
000001e0: 8618 dabf 9ddc 8c3f 9388 0dbe 0446 8b3f
000001f0: b421 50bc cca9 593f ae7c 89bf a16c 1f3e
00000200: a972 0d3e 20d1 96bf 19f7 34c0 36d2 043e
00000210: 2c43 923f 48da 96be fd2c c13f b27f 5cbf
00000220: 2154 6ebf 919b 893f 4fde 7ebf 621a 273f
00000230: f1d3 c3bf a154 46bd a61f 713f 1087 62bf
00000240: fa90 0bbf c336 0a3e aa11 703f e7a8 af3e
00000250: 7ec7 9a3e bcdc 393f e713 4d3e fbf8 7bbd
00000260: 2db1 4fbf ab48 49bf 3e8b ffbe c0a6 0dbf
00000270: 659e 963f 50ae 3bc0 6d36 8ebe fb97 723f
00000280: bcb3 9bbe d1f4 783d 0ec5 b2be 6fca 183e
00000290: 7366 243f d80e fd3e b2a6 4440 d65a 983e
000002a0: d515 9a3f dcc7 01c0 ff1a 5c3f 1fdc e6bf
000002b0: b571 153f 8ae6 f83e d8ea 9cbf e643 09c0
000002c0: cf45 d03f effa 7dbf 80a3 b73f f1e0 bf3e
000002d0: 8a16 503e f293 96be 8901 063f ac8e 19bf
000002e0: 6ff9 1fc0 99ee 06bd 9470 9a3e 7880 2b3f
000002f0: 33cc 28be 491b 59bf dcbd e63f dca6 793f
00000300: bf98 15bf bae2 f53e 06e1 9cbf aa7a 8cbf
00000310: c066 533f 5a6e f03f 33a6 743f a28b 0440
00000320: 6672 9f3e 7121 e9be 0dbb 053e 0f16 91bd
00000330: 8180 99bf 17a3 59bf f7b9 5e3f 2ea2 103e
00000340: 54f3 c23f 7262 04bf 991a 903f 41f2 e6bf
00000350: cd52 53bd 31dc 14bf 778d 85bd efaf 42bf
00000360: 5e01 b6be 6e1d 08bf 5be7 013d cb3f e13e
00000370: 095d 00c0 ecc1 34bf d560 1b3f 76a6 a23f
00000380: f075 4dbf 6df8 ff3e a35d 703f f9fe 023e
00000390: cf59 2dbf 3222 67be 1c80 413f a4cd 5b3e
000003a0: b322 64bf c939 473f 9fca 0abf 3bac 1abf
000003b0: 92df 89bf 2da8 04c0 d87e 053f 02d4 adbf
000003c0: d083 263f e5c8 4d3f 59d8 dd3e bd30 9e3f
000003d0: 633b 9ebf 77bc c13f 3313 a3bf 5556 d7be
000003e0: 87d9 0340 14ae e1be e825 d3be a79a aa3f
000003f0: 39bd a9bf 579a 92bc 2331 6f3f a909 a0bd
0.28559107 -0.08147146 0.30148798 1.5071661 -0.13900009 -0.8745241 -0.32861543 -0.6507494
0.5051591 -0.6057063 -0.17154323 -0.60337114 0.0079453755 0.3739214 0.9274895 -0.95538414
0.9876207 1.3654281 0.18452683 2.5748167 -0.61133283 0.09961363 0.5222187 0.3401269
0.5940547 0.53875566 -0.590289 -1.3850176 -0.046457287 0.118172616 0.5463723 -1.79644
0.9579822 0.57919735 -1.0998483 -0.58969927 1.8418949 0.8153507 -0.40109286 -1.4354405
0.42659226 -0.6645849 -1.9898858 1.0010942 1.4197781 -0.99683017 0.92570937 0.37829164
-0.2897703 -0.5833588 0.37573972 -1.4833738 1.290828 -0.8795392 -0.9917655 -1.0823712
0.41975772 1.5460571 0.9308451 0.16677244 -2.860104 0.758655 -0.29420567 0.9062765
1.2050672 0.45649627 -0.719813 -0.58721375 -0.35062152 -1.1100037 -1.0193003 -0.14856093
0.3605899 -0.25051594 0.29365954 0.7151067 0.6384507 -1.2952513 0.6466854 -1.6040939
0.9201296 0.57773095 -0.45129022 0.85242385 -0.15633439 -0.8942318 -0.7165766 0.3572415
-1.7726904 -0.2969255 0.0322462 0.7956496 0.2439389 0.11763333 -0.13182501 0.8085987
-0.0077006165 -0.42305323 -0.63570607 0.29462597 0.7408209 -0.89607686 -0.56636506 -0.52693915
-2.02693 0.9194309 -1.979106 0.5288257 -1.4526387 0.6714749 1.9004984 -1.3573778
0.38997802 2.3145494 -0.49232146 -0.52361524 0.3156456 -0.33503747 -0.76371086 1.483868
-1.7038734 1.1004826 -0.1382163 1.0880742 -0.012703348 0.85024714 -1.0741174 0.15568782
0.1381327 -1.178257 -2.8275816 0.12970814 1.1426749 -0.2946341 1.5091854 -0.8613235
-0.9309712 1.07506 -0.99557966 0.6527463 -1.5299054 -0.048420552 0.94188917 -0.8848734
-0.5451809 0.13497452 0.93776953 0.3430855 0.30230325 0.7260244 0.20027123 -0.061516743
-0.81129724 -0.7862651 -0.4991092 -0.55332565 1.1767088 -2.9325142 -0.277759 0.94763154
-0.30410564 0.06078035 -0.34915966 0.14920972 0.64218825 0.49425387 3.0726743 0.29756802
1.2037913 -2.0278234 0.8597869 -1.8035926 0.5837663 0.48613387 -1.2259169 -2.1447692
1.6271304 -0.9921102 1.4346771 0.37476304 0.20321098 -0.29409748 0.5234609 -0.59983325
-2.4995992 -0.03294239 0.30164015 0.669929 -0.16484146 -0.8480726 1.802669 0.9752023
-0.584362 0.4802454 -1.2256172 -1.0974934 0.8257866 1.8783677 0.955661 2.0710225
0.31141967 -0.45533326 0.13059635 -0.070842855 -1.1992341 -0.8501448 0.8700251 0.14124367
1.5230508 -0.51712716 1.1258117 -1.804268 -0.051592637 -0.58148485 -0.06521123 -0.76049703
-0.35547918 -0.53169906 0.03171478 0.43993983 -2.0056784 -0.706084 0.6069463 1.270705
-0.80258083 0.4999422 0.9389288 0.12792577 -0.6771516 -0.22571638 0.75586104 0.21465164
-0.89115447 0.7782255 -0.54215425 -0.6041905 -1.0771353 -2.0727646 0.52146673 -1.3580325
0.6504488 0.80384666 0.43329123 1.2358624 -1.2361873 1.513564 -1.2740234 -0.42058054
2.0601518 -0.44078124 -0.41239858 1.3328446 -1.3260871 -0.01789586 0.9343435 -0.078143425

residual_blocks.1.bn1.weight f4 [64]
00000000: 42b2 a73f 70b0 913f fde3 bb3f 66e2 af3f
00000010: 0f93 b23f a55d e23f d4b3 993f dba7 733f
00000020: d21d c23f c9e5 793f 03ed 803f 19dd c33f
00000030: f153 f53f ba88 a03f 020d ab3f 569e e43f
00000040: b673 a33f af45 fa3f 5e5c a43f 0292 563f
00000050: 7d04 be3f 5e9a 663f d26b e73f d412 243f
00000060: 0872 aa3f d4cb aa3f e155 8b3f 5627 a03f
00000070: cd6e ac3f 4385 8a3f 5e1f 7c3f 9213 ce3f
00000080: ba02 e13f b44e ea3f 659b 993f 362b d43f
00000090: 132d d33f d722 b83f 8a73 ae3f 7556 c43f
000000a0: 2490 893f 67ef af3f d1b7 d83f 4dcd f73f
000000b0: 8ed9 3f3f 2c79 0a3f dd83 ea3f adc3 803f
000000c0: 8003 fb3f 9b9a 0140 5eb7 ad3f a315 c93f
000000d0: 8083 503f 6f8e 473f 95b2 d83f 397e 873f
000000e0: bc1a a23f 0da8 c83f d234 823f 6257 d73f
000000f0: 101c cc3f 8519 8b3f 1228 643f 5b18 543f
1.3101275 1.138197 1.4678952 1.3740966 1.3951129 1.7684828 1.2008004 0.95178
1.516535 0.9761625 1.007233 1.5301849 1.9166242 1.2541726 1.3363345 1.786082
1.2769687 1.9552516 1.2840688 0.8381654 1.484512 0.90079296 1.8079779 0.6409123
1.331605 1.3343453 1.0885583 1.2512004 1.3471314 1.0821918 0.9848536 1.6099722
1.7578957 1.8305268 1.2000548 1.6575687 1.649813 1.4385632 1.362901 1.5338885
1.0747113 1.3744935 1.6931096 1.9359528 0.7494134 0.54091144 1.8321491 1.0059716
1.9610443 2.0250614 1.3571584 1.5709728 0.81450653 0.7795171 1.6929499 1.0585395
1.2664409 1.5676285 1.017237 1.6823542 1.5946064 1.0867163 0.8912364 0.82849663

residual_blocks.1.bn1.bias f4 [64]
00000000: 30fd 22c0 b5dd 76bf cf2e 92bf 3243 51bf
00000010: 71c6 85bf f536 1cc0 01da b5be de6d b1bd
00000020: a761 48be 1207 fd3e 6346 453e 93b1 d2bf
00000030: e8b8 e7bf 21c8 d4be bbb9 27bf e419 fabf
00000040: 784c 9dbe 4044 00c0 446e a6bf df17 cb3e
00000050: 6429 d2bf 378a 4bbd 69d7 d5bf 4fb1 8d3e
00000060: 97f1 4cbf 81ec 72bf 8d47 033d 762d 0ebf
00000070: c491 08bf 938a abbe f2bd 753e 58e2 f3bf
00000080: df96 acbf 356c 14c0 9901 46bf 124e d6bf
00000090: e727 a0bf 95af 96bf fb23 1ebf 95bc aebf
000000a0: b081 76bf b456 20bf 9fea 17c0 5f82 fcbf
000000b0: c676 a83e a099 f73e 8aaa ddbf d476 5d3e
000000c0: 65cc c0bf 0cad 25c0 59a6 2fbf 1f47 d5bf
000000d0: 63b1 a5bd 48d1 d93e d33c 21c0 5b8c 94be
000000e0: e969 c6bf a578 d7bf 0e3e 233e 25bf c2bf
000000f0: 4c06 00c0 bb00 f8bd 4a07 c03d 1ae9 5a3d
-2.5467033 -0.9643205 -1.1420535 -0.81743157 -1.0451185 -2.4408543 -0.35517886 -0.08663534
-0.19568501 0.49419457 0.19265132 -1.6460441 -1.8103304 -0.41558936 -0.6551778 -1.9539151
-0.30722404 -2.0041656 -1.30024 0.3966665 -1.6418881 -0.04969236 -1.6706363 0.27674338
-0.80056137 -0.94892126 0.032050658 -0.5553812 -0.5334742 -0.3350416 0.2399824 -1.905345
-1.3483542 -2.3191044 -0.7734619 -1.6742575 -1.2512177 -1.1772333 -0.6177365 -1.3651301
-0.9629164 -0.626323 -2.3736951 -1.9727286 0.32903117 0.48359394 -1.7317669 0.2162736
-1.5062376 -2.588687 -0.686132 -1.666233 -0.080904745 0.4254248 -2.5193374 -0.29013333
-1.5501071 -1.6833693 0.1594164 -1.5214583 -2.0003843 -0.12109514 0.0937639 0.05344496

residual_blocks.1.bn1.running_mean f4 [64]
00000000: 5827 1cc1 b85b 7b41 27de b1c0 eb69 4bc0
00000010: 0520 34c0 b728 b8c1 77b1 d1bf ce1c 44c1
00000020: e415 f9c1 f69b 03c1 c6d6 13c1 ba1d 85c1
00000030: 56d8 34bf 2bc8 f2c1 7875 f9c1 f735 66c1
00000040: 482c b5c1 c714 69c1 547f e0c0 a7ee fbbf
00000050: 9f6e ef40 5f00 9a41 587e b0c1 bee5 cbc0
00000060: 173b 2240 778b 89c0 ad1e 5541 598b 4c41
00000070: b39d 8a41 d7fe 23c0 c312 dac1 d868 cec1
00000080: 3ea8 16c2 7117 01c2 5248 afc0 286e 8340
00000090: 3306 3bc1 26ce f3c0 6cd2 ec40 ff0d 2cc1
000000a0: 6906 b740 2d0d 4bc1 1e4c c5c0 9162 b7c1
000000b0: f555 1742 8f58 8040 2d8b bbc1 b081 eb3f
000000c0: cb84 d3c1 75ec bfc1 5394 6041 6ec7 7dc1
000000d0: a832 8641 50e1 3141 de32 a4c0 386f d341
000000e0: 2d49 6bbf e1a6 2541 a1b2 9941 e6e2 27c1
000000f0: 4c3d 86c1 c964 c93f ffe6 babf aebb 0f42
-9.759605 15.709892 -5.558368 -3.1783397 -2.8144543 -23.01988 -1.6382283 -12.257032
-31.135689 -8.225576 -9.239935 -16.639515 -0.706426 -30.347738 -31.182358 -14.388175
-22.646622 -14.567573 -7.015543 -1.9682206 7.4822536 19.250181 -22.061691 -6.3717947
2.5348566 -4.2982745 13.319989 12.78402 17.327002 -2.5624292 -27.259161 -25.801193
-37.6643 -32.272892 -5.477578 4.107197 -11.6890135 -7.6189146 7.4006863 -10.753417
5.7195325 -12.690717 -6.1655416 -22.923128 37.833942 4.0108104 -23.442957 1.8398952
-26.43984 -23.990458 14.036212 -15.861189 16.774734 11.117508 -5.1312094 26.429306
-0.9190853 10.353242 19.212221 -10.492895 -16.77993 1.5733882 -1.4601744 35.93328

residual_blocks.1.bn1.running_var f4 [64]
00000000: 3c7c b643 488d e643 3692 c543 37f7 f043
00000010: a4a6 d543 eba8 d243 dc4c 1844 934e 7d44
00000020: 1211 f743 9bc4 0144 a8df 0744 8831 2144
00000030: 5664 ca43 71d1 f843 e3f5 5844 d3ff e843
00000040: f653 0e44 0fb6 0c44 e6fc aa43 0efd 8444
00000050: 230e ce43 fd3c 6d44 b3f4 d443 8540 0144
00000060: 9a37 c143 edd0 0f44 8773 ce43 b453 f043
00000070: de60 c643 03bc 1144 f8dd 6544 0f15 eb43
00000080: e340 f743 890a e643 3c01 2344 5589 0544
00000090: be8f fa43 a876 0844 a83b 0144 8111 c543
000000a0: 65e8 a243 738f de43 9266 aa43 f27e c943
000000b0: 8fb1 6344 5228 c043 44cd df43 946e 0444
000000c0: e75e e243 273c 0444 53cc 1744 1e7a e143
000000d0: ea51 fe43 dc14 f543 ffaa 1244 45e4 0d44
000000e0: f0a5 c843 7c50 c243 1a20 ef43 ef51 d043
000000f0: 063e c743 2687 1b44 680e 0044 6aa7 6544
364.97058 461.10376 395.14227 481.93137 427.30188 421.31967 609.2009 1013.2277
494.13336 519.07196 543.4946 644.7739 404.78387 497.63626 867.842 465.99863
569.3119 562.84467 341.97577 1063.908 412.11044 948.95294 425.9117 517.0081
386.4344 575.26447 412.90256 480.65393 396.75677 582.9377 919.46826 470.16452
494.50693 460.0823 652.0193 534.1458 501.123 545.854 516.9321 394.13675
325.81558 445.1207 340.80133 402.99176 910.77435 384.315 447.60364 529.7278
452.74142 528.9399 607.19257 450.95404 508.63995 490.16296 586.6718 567.5667
401.2964 388.62878 478.2508 416.6401 398.48456 622.1117 512.2251 918.61584
