backend_engine/ml/models/session_1764623817/epoch_2_64ch_3resblocks.pth (torch, 990055 bytes, 39 tensors)

conv.weight f4 [64, 20, 3, 3]
0	0x3ee0fda7	0.4394352
1	0xbecee4c4	-0.4040891
2	0x3e387974	0.1801508
3	0x3f1a9e71	0.6039801
4	0x3e88a887	0.26691076
5	0x3fc78970	1.5588818
6	0xc01062e2	-2.2560353
7	0x400366bf	2.0531461
8	0xbffb7fd7	-1.9648389
9	0x400ceba6	2.2018828
10	0xc00573b3	-2.0851867
11	0x3efe6d7a	0.496929
12	0xbe97b184	-0.2962762
13	0xbff78b70	-1.9339428
14	0x3f1a9c3e	0.60394657
15	0x40742462	3.8147206
16	0x3fa8990c	1.3171706
17	0x3fb2736b	1.3941473
18	0xbfd7b6b2	-1.6852629
19	0xbea6c88c	-0.3257488
20	0x3f4bd881	0.79627234
21	0xbf41b39b	-0.7566468
22	0xc01ea260	-2.4786606
23	0x3f25ca1e	0.6476153
24	0xc00ab728	-2.167429
25	0xbf1b509a	-0.60669863
26	0xbef033d9	-0.46914557
27	0xbe9a67b2	-0.30157238
28	0xbf611dcd	-0.879361
29	0x3ee27f70	0.44237852
30	0x400b9f7c	2.1816092
31	0x3f7bbfd7	0.983396
32	0x4025dbd0	2.5915413
33	0xbf3e2729	-0.74278504
34	0xbfa86a2d	-1.3157402
35	0x3fd21d4f	1.6415194
36	0xbfe9b1e0	-1.8257408
37	0xbfbf3f39	-1.4941169
38	0xbe466a26	-0.1937643
39	0x3fb79014	1.4340844
40	0xc06828ce	-3.6274905
41	0xbe787e33	-0.24266891
42	0xbf08884b	-0.53332967
43	0xbfeb6ee3	-1.8393215
44	0x4063294b	3.5493953
45	0xbf2fa489	-0.68610436
46	0x3f612496	0.8794645
47	0x3fe1bb35	1.7635256
48	0x3f3cc0dd	0.73731786
49	0x40393d7b	2.8943775
50	0xbfb04c3e	-1.3773267
51	0x3f0232ed	0.50858957
52	0xbe68ab7e	-0.22721669
53	0x3f2f1826	0.6839622
54	0xbf2beb8e	-0.671563
55	0x3f21e0ab	0.6323344
56	0xbeef58ab	-0.46747336
57	0x3f030075	0.5117257
58	0xc05b67a2	-3.4282002
59	0x3e1e2ca8	0.15446723
60	0xbf3aaae8	-0.7291703
61	0x3f35fb23	0.7108633
62	0xbfbc77ae	-1.4724023
63	0xbf32cafa	-0.6984097
64	0x40c661ec	6.1994534
65	0x3f897d3b	1.0741342
66	0x40a3b1b0	5.1154404
67	0xc08fc574	-4.492853
68	0x40413b95	3.0192616
69	0xbe04c844	-0.1296702
70	0x3fd0750c	1.628572
71	0x40463ca7	3.097452
72	0x4071b62f	3.7767446
73	0x3fef027f	1.8672637
74	0xc0743576	-3.815763
75	0x40a58a5c	5.1731396
76	0xc0721c59	-3.7829802
77	0x404cb918	3.1987972
78	0xbe8b41d5	-0.27198663
79	0x40c2fa65	6.0930657
80	0xc062d42b	-3.5441997
81	0xbf29d61a	-0.6634232
82	0x40055316	2.0831962
83	0x3f2998e8	0.6624894
84	0xc0599bac	-3.4001265
85	0xc003e3f3	-2.060788
86	0xc01c4ea8	-2.4423008
87	0xc003c743	-2.059037
88	0x3f97de0d	1.186464
89	0xbf281610	-0.65658665
90	0xbe4b2365	-0.1983772
91	0xbf53403b	-0.8251988
92	0xc08a3523	-4.3189864
93	0xc042ecba	-3.0456986
94	0xc0b10856	-5.5322676
95	0xc0675cc8	-3.615038
96	0xc094ea25	-4.653582
97	0xbf677249	-0.9040876
98	0xc01dccbf	-2.4656217
99	0xc04e5c37	-3.2243783
100	0x3f559bac	0.8344066
101	0x3de39c5f	0.1111381
102	0xbf856474	-1.0421281
103	0x3dc203af	0.09473359
104	0x3f2870de	0.6579722
105	0xbf67215b	-0.9028527
106	0xbfa18104	-1.2617497
107	0xbed3276d	-0.41241017
108	0xbede07ad	-0.4336523
109	0xbf1bba36	-0.6083101
110	0xbdf595b9	-0.11991448
111	0x3e24bb79	0.1608714
112	0xbf26797c	-0.6502912
113	0x3ec05d51	0.37571195
114	0x3eb0e9c5	0.34553352
115	0xbe3a20ed	-0.18176623
116	0x3ea80ff9	0.32824686
117	0x3e49a1a6	0.1969057
118	0x3eab7ea7	0.33495066
119	0x3d922ea8	0.07137805
120	0xbe1f00e2	-0.1552768
121	0x3dfca8ab	0.12336858
122	0xbed08e70	-0.4073367
123	0xbe4a8b2a	-0.1977965
124	0x3e0d64b0	0.1380794
125	0xbe5ff01d	-0.2186894
126	0xbe72c174	-0.23706609
127	0x3c866435	0.016405204
128	0x3e260bb4	0.16215402
129	0xbea706dc	-0.3262242
130	0x3e2b5f5a	0.16735592
131	0x3d7cd90e	0.061730437
132	0xbf367096	-0.7126554
133	0x3ddba8e8	0.10725576
134	0xbd263a58	-0.040582985
135	0xbe249c48	-0.16075242
136	0x3e5e1db1	0.21691014
137	0x3e491f0b	0.19640748
138	0xbed31430	-0.4122634
139	0x3d2e9d6c	0.042630598
140	0xbd19f790	-0.03758961
141	0xbf2572e0	-0.6462841
142	0xbd41b176	-0.04728838
143	0x3cc1dea8	0.023665741
144	0x3eea40f6	0.45752686
145	0x3f1f757c	0.6228864
146	0x3ead333d	0.33828154
147	0xbebda739	-0.37041643
148	0x3e93e2d5	0.28883997
149	0xbe7bf743	-0.24606042
150	0xbf1d8581	-0.61531836
151	0xbe10d67a	-0.14144316
152	0xbe5fb931	-0.21847989
153	0x3fa08cbe	1.2542951
154	0x3ff9c525	1.9513289
155	0x3e0be0a8	0.13659918
156	0x3fba4295	1.4551569
157	0x3f9c7b3d	1.2225109
158	0x3f43bf73	0.76464003
159	0xbea0341f	-0.31289765
160	0x3f4867d1	0.7828341
161	0xbf4b112b	-0.7932307
162	0xbfb38753	-1.4025673
163	0xbf220e0c	-0.63302684
164	0x3ebee1c9	0.37281635
165	0xbdb26438	-0.087105215
166	0x3f3769f8	0.7164607
167	0x3fb00bc0	1.3753586
168	0xbe7a89a1	-0.24466564
169	0x3e170dea	0.14751402
170	0x3f21aaea	0.6315142
171	0xbed50689	-0.41606548
172	0xbf3ba4b9	-0.7329822
173	0x3f9e8765	1.2385069
174	0x3df67258	0.12033528
175	0xbf9937a9	-1.1970111
176	0x3f649c87	0.8930134
177	0x3dd26aa5	0.10274247
178	0xbf87423b	-1.0567087
179	0x3edc4bcd	0.4302658
180	0xbed5a46e	-0.41727012
181	0x3ea347fd	0.3189086
182	0xbf225f2c	-0.6342647
183	0xbeb70714	-0.35747588
184	0xc06a1756	-3.6576743
185	0x3ecee90f	0.40412185
186	0x3d496624	0.049169675
187	0x3eb15d04	0.34641278
188	0x3d849396	0.06473462
189	0xbe2bb384	-0.16767699
190	0x3f79e45f	0.9761409
191	0xbf25c161	-0.647482
192	0x3f397923	0.72450465
193	0xbe23bea5	-0.15990694
194	0xbdfad298	-0.12247199
195	0x3fbe7bba	1.4881508
196	0x3e6a59a7	0.22885762
197	0xbd180a98	-0.037119478
198	0x3f9c3ff4	1.2207017
199	0x3dbe5825	0.09294156
200	0x3e21451a	0.15749016
201	0x3f913ba4	1.1346326
202	0xbfcd45e9	-1.603696
203	0x40023b99	2.0348876
204	0xbf81f606	-1.0153205
205	0x401ca7b8	2.4477367
206	0xbf8c80b1	-1.0976774
207	0x3f1bc419	0.60846096
208	0x3ea5f923	0.3241664
209	0x3fabae84	1.3412633
210	0xbf585a53	-0.84512824
211	0xc0050fe6	-2.0790954
212	0xbe174035	-0.14770587
213	0xbd323ed0	-0.043516934
214	0xbea34e5a	-0.31895715
215	0x3e99ea57	0.300616
216	0xbe1d09c2	-0.15335754
217	0xbf348fa1	-0.7053166
218	0xbd9c7094	-0.0763866
219	0xbec13b3f	-0.37740514
220	0xc09bf9c7	-4.8742404
221	0x3ec2ab84	0.3802148
222	0xc0177ee8	-2.3671207
223	0x3f20e59f	0.62850374
224	0x3f10d9aa	0.5658213
225	0x3e163d92	0.14671925
226	0x40232a1d	2.5494454
227	0x3f50e210	0.81594944
228	0x3fe0b53d	1.755531
229	0x40f77923	7.733537
230	0x40817c2e	4.0464087
231	0x3fcaa2ed	1.5830971
232	0x407f98e6	3.9937072
233	0x40a7c2cd	5.2425294
234	0xbef8010e	-0.48438305
235	0x3f0f7b70	0.56047726
236	0xbfc52099	-1.5400573
237	0x3e51f78d	0.2050459
238	0x3f327eb0	0.6972456
239	0x3fc9b42a	1.5758107
240	0x3f58ff49	0.84764534
241	0xbf0243fa	-0.50884974
242	0x3f927f0e	1.1445024
243	0x3e287e63	0.16454463
244	0xbfb2d308	-1.3970652
245	0xbf9803a7	-1.1876115
246	0xbf7fbe5d	-0.99899846
247	0xbfa48189	-1.2852031
248	0x3f9b409d	1.2129093
249	0xbe1aed8e	-0.15129682
250	0x3dda787c	0.10667512
251	0x3e4b647c	0.1986255
252	0xbf220733	-0.63292235
253	0x3ebe37b7	0.37151882
254	0xbfb66e0d	-1.4252335
255	0xbf20fae2	-0.62882817

bn.weight f4 [64]
0	0x3f1611cc	0.58620906
1	0x3f971f49	1.1806422
2	0x3f9791ec	1.1841407
3	0x3ffa855f	1.9571952
4	0x3f4cfdb9	0.8007465
5	0x3f833051	1.024912
6	0x400b25c2	2.1741796
7	0x3fa665ec	1.2999854
8	0x3f960c87	1.1722573
9	0x3fca96f5	1.5827318
10	0x3f558387	0.8340382
11	0x3f828161	1.0195733
12	0x3f441f70	0.7661047
13	0x3f4ea36e	0.80718124
14	0x3f71ba31	0.9442473
15	0x3f898466	1.074353
16	0x3fcd36e1	1.6032373
17	0x3f215900	0.6302643
18	0x3f3b7f02	0.73240674
19	0x3f099d34	0.537555
20	0x3f6798a4	0.90467286
21	0x3fda0c67	1.7035035
22	0x3f8e44a8	1.1114702
23	0x3f8b8dbb	1.0902628
24	0x3f9637fb	1.1735834
25	0x3f29c8a4	0.6632178
26	0x3f438b5a	0.7638451
27	0x3f2e1577	0.680015
28	0x3f8e4c2e	1.1116998
29	0x3f792d40	0.9733467
30	0x3f04e28e	0.51908195
31	0x400b810e	2.1797519
32	0x3fc04f55	1.502421
33	0x3f5f47f2	0.87219155
34	0x3f896095	1.07326
35	0x3f895195	1.0728022
36	0x3f8490f7	1.035674
37	0x3fb7a41d	1.4346958
38	0x401716cd	2.3607666
39	0x3fbfe83d	1.4992748
40	0x3f5156ab	0.8177287
41	0x3f475f1c	0.778795
42	0x3fc13c85	1.5096594
43	0x3f36bcaa	0.7138163
44	0x3f457225	0.77127296
45	0x3f57386c	0.8407047
46	0x3f390527	0.72273487
47	0x3f94754b	1.1598295
48	0x3fb64ac5	1.4241568
49	0x3f204afc	0.6261442
50	0x3f29264b	0.66074055
51	0x3fa5a9d4	1.2942452
52	0x3fb58a54	1.4182839
53	0x3f2c931f	0.6741199
54	0x3f317b5f	0.69328874
55	0x3fa00611	1.2501851
56	0x40076129	2.1153052
57	0x3f975987	1.1824197
58	0x3f397d14	0.7245648
59	0x3f0352d3	0.51298255
60	0x3fd72c06	1.681031
61	0x3f72f180	0.9489975
62	0x3f7cdccc	0.9877441
63	0x3f8b8061	1.0898553

bn.bias f4 [64]
0	0x3f0248ce	0.5089234
1	0xbf279339	-0.6545902
2	0xbe4ca1d5	-0.19983609
3	0xbf56850d	-0.8379677
4	0x3ea0639e	0.31326002
5	0xbefb9717	-0.4913871
6	0xbfaa66b9	-1.3312598
7	0x40273960	2.612877
8	0x3f9a6151	1.2060949
9	0xbdf07fdd	-0.11743138
10	0xbf7ca51f	-0.98689455
11	0xbeb96359	-0.3620861
12	0x3f82eaa3	1.0227855
13	0xbf3dc450	-0.74127674
14	0x3f1702f0	0.5898886
15	0xbe712b9c	-0.23551792
16	0xbf98c11c	-1.1933932
17	0x3cd8437f	0.026399372
18	0x3f92fd22	1.14835
19	0x3f24d905	0.64393646
20	0x3edb4025	0.42822376
21	0xc01bb6fc	-2.4330435
22	0xbf1d9818	-0.615602
23	0xbf0bed10	-0.54658604
24	0x3e9ceb68	0.3064835
25	0x3f58a10b	0.8462073
26	0x3e29234a	0.16517368
27	0x3edd43e0	0.43215847
28	0xbfa2e6f0	-1.2726727
29	0xbf8033f1	-1.0015851
30	0x3fb6adc9	1.4271785
31	0xbf44aafb	-0.76823395
32	0xbf91da5b	-1.1394762
33	0x3f30a880	0.6900711
34	0xbf3079c0	-0.68935776
35	0x3e8010b4	0.25012743
36	0xbf70b955	-0.94032794
37	0xbf4379bf	-0.76357645
38	0xc09e7f1f	-4.9530177
39	0x4035415a	2.8321137
40	0x3c1f4549	0.009721109
41	0xbd4f4de3	-0.050611388
42	0xbf99540a	-1.1978772
43	0x3f029217	0.51004165
44	0x3df56215	0.11981598
45	0xbe874cdf	-0.26425835
46	0xbdac60dd	-0.08416913
47	0xbf5c3bbc	-0.8602865
48	0xbf3965f8	-0.72421217
49	0x3ee587d1	0.44830182
50	0x3f61590d	0.88026506
51	0xbfb6bf8b	-1.4277204
52	0xbf83067c	-1.0236354
53	0x3f65e5dd	0.8980387
54	0x3f8d81af	1.1055201
55	0xbfc4d905	-1.5378729
56	0xc00b7859	-2.1792204
57	0xbf979bf9	-1.1844474
58	0x3e72b3bf	0.2370138
59	0x3ef05240	0.46937752
60	0xc07792ed	-3.8683426
61	0xbec7513d	-0.38929167
62	0xbe99e1b5	-0.30055013
63	0xbf28cda9	-0.6593881

bn.running_mean f4 [64]
0	0xbfb06ce2	-1.3783228
1	0xc011e8ed	-2.2798417
2	0x3f3f115c	0.74635863
3	0xbef99a56	-0.4875056
4	0xc00781d5	-2.1172993
5	0xbf9be275	-1.2178484
6	0xc09ef630	-4.967552
7	0x3d7f664a	0.06235341
8	0xc026886c	-2.6020765
9	0xbfc56ca7	-1.5423783
10	0x3ff1c5d1	1.8888494
11	0xbf6c6824	-0.92346406
12	0xbfd7fe21	-1.6874429
13	0xbf73903c	-0.9514196
14	0xbfe1df4d	-1.7646271
15	0xbfca50ca	-1.5805905
16	0xbe2a2f4c	-0.16619605
17	0x3f824341	1.0176774
18	0xc0093eda	-2.1444612
19	0xbfac7838	-1.3474188
20	0xc0131928	-2.2984104
21	0x3fa23851	1.2673436
22	0xc05cd025	-3.4502041
23	0xc0f1555a	-7.541669
24	0xc05f81e6	-3.4923034
25	0xbf2ce17c	-0.6753156
26	0xbe658250	-0.22412992
27	0xc0beca62	-5.962205
28	0x3f052240	0.52005386
29	0xbf53d72f	-0.8275022
30	0xc0186232	-2.3809934
31	0xc1222f00	-10.136475
32	0xbf8d5c99	-1.1043884
33	0xbf913159	-1.1343185
34	0xbd481c7b	-0.048855286
35	0xc0194b03	-2.3952034
36	0x3e3d0a44	0.18460947
37	0xc01abd8b	-2.4178188
38	0x400d2ed8	2.205984
39	0xbfd7a65a	-1.6847641
40	0x3e332fb2	0.17498663
41	0xc07c8532	-3.9456296
42	0xc0b50948	-5.657383
43	0xbf8a06ab	-1.0783285
44	0x4044317e	3.0655208
45	0xbf03b2f1	-0.5144492
46	0xc065abaa	-3.5886025
47	0xbfa2d5dc	-1.2721515
48	0xbe830872	-0.2559238
49	0x3fc0ab68	1.5052309
50	0x3fae101b	1.3598665
51	0x401e6ad1	2.4752696
52	0xc022522e	-2.5362659
53	0xbefd4d9e	-0.4947328
54	0x3ff385e4	1.9025235
55	0xbf5e0445	-0.86725265
56	0xbfd528e1	-1.66531
57	0x4033fcd5	2.8123066
58	0xbeb114b6	-0.34586114
59	0xc03562fc	-2.8341665
60	0x4042034a	3.0314507
61	0xbf972f18	-1.1811247
62	0xc08d83bf	-4.4223323
63	0xc005c6c8	-2.0902576

bn.running_var f4 [64]
0	0x41000d43	8.003238
1	0x40e08f15	7.017466
2	0x4181c97b	16.22338
3	0x41b972fc	23.181145
4	0x411e0ad6	9.8776455
5	0x41749a8a	15.287729
6	0x42a364c6	81.69682
7	0x41d883b5	27.06431
8	0x4219338d	38.300343
9	0x417ecf8e	15.925673
10	0x41000554	8.001301
11	0x411ac73a	9.673639
12	0x411c40bc	9.765804
13	0x410b27c3	8.697207
14	0x41905b3a	18.044544
15	0x40be6b4f	5.950599
16	0x41893e1e	17.15533
17	0x40d49d0b	6.6441703
18	0x4109a382	8.602419
19	0x4121804a	10.093821
20	0x41578ce8	13.471901
21	0x411e9a4f	9.912673
22	0x4138bc4a	11.545969
23	0x421e4c24	39.574356
24	0x416e7f6e	14.906111
25	0x40f8640f	7.762214
26	0x40fbc1e2	7.8674173
27	0x415dfe98	13.874657
28	0x413766b1	11.462571
29	0x40c1ae3c	6.052519
30	0x413b5607	11.708503
31	0x4272a20b	60.658245
32	0x4127f3dc	10.497036
33	0x411025c7	9.009223
34	0x412e5bdc	10.897427
35	0x419ce4b1	19.611666
36	0x4157137d	13.442258
37	0x411298c4	9.162296
38	0x40913489	4.537663
39	0x4215d6a2	37.459602
40	0x40b6a24a	5.7073107
41	0x41734518	15.204369
42	0x4107e755	8.493978
43	0x412bcc24	10.737339
44	0x4172b8d3	15.170123
45	0x413e94fc	11.911373
46	0x41403b2b	12.014445
47	0x40dec6c1	6.961762
48	0x4102fd94	8.186909
49	0x40bdff13	5.937387
50	0x412a4422	10.641634
51	0x416aaa0c	14.666515
52	0x411656e6	9.396215
53	0x4112113b	9.129207
54	0x411d6fa9	9.839761
55	0x415f9308	13.973396
56	0x4191a207	18.204115
57	0x4147a09c	12.476711
58	0x411b0ae3	9.690158
59	0x4125d17b	10.363643
60	0x4143ee0f	12.24562
61	0x41466545	12.399724
62	0x417345c4	15.204533
63	0x41499542	12.59894

residual_blocks.0.conv1.weight f4 [64, 64, 3, 3]
0	0x3f32352c	0.69612384
1	0xbc515c01	-0.012778283
2	0xbfd2fac2	-1.6482775
3	0x3e9f5eed	0.3112711
4	0x3ed15f1d	0.40892878
5	0x3f8134b4	1.0094209
6	0xbf595b46	-0.849049
7	0x407454c1	3.817673
8	0xbffa2b9e	-1.9544561
9	0x3f78e373	0.9722206
10	0x4048f466	3.139917
11	0x3ffd0967	1.9768494
12	0x40139aad	2.3063157
13	0x3fca28de	1.5793722
14	0x3f262a40	0.6490822
15	0xbff4a9c5	-1.911431
16	0x3f8a5808	1.0808115
17	0x3f9a92d3	1.2076057
18	0xc0118703	-2.2738655
19	0x3f84f141	1.0386125
20	0xbfd2b2aa	-1.6460774
21	0xc05b5806	-3.4272475
22	0xbf868530	-1.0509396
23	0xbffbc67e	-1.966995
24	0xbf9808b3	-1.1877655
25	0xc00d9e23	-2.212777
26	0xbf3033d5	-0.6882909
27	0x3fe64c46	1.7992027
28	0x402083c9	2.5080435
29	0x3fc583b1	1.5430814
30	0x4060dbd7	3.513418
31	0xbfea46d3	-1.8302864
32	0xbf653e46	-0.89548147
33	0xbd9f580a	-0.07780464
34	0x3ebc0b2d	0.36727276
35	0xbfbdf834	-1.484137
36	0xbf3b70b5	-0.7321885
37	0xc00f3160	-2.2373886
38	0x3ece3c62	0.40280443
39	0xbff7ab84	-1.9349217
40	0xbe31d55d	-0.17366548
41	0x3ef7c59f	0.4839296
42	0x3fbfc857	1.4983014
43	0x3ea118b7	0.31464168
44	0x3f9941e2	1.1973231
45	0xc08dcd61	-4.4313207
46	0x3f83b3b4	1.0289216
47	0xc06f097e	-3.7349544
48	0x3c102536	0.008797934
49	0x3eba1367	0.36342928
50	0xbfa8cc08	-1.3187265
51	0xbd9929c0	-0.07478666
52	0x3e39e79f	0.18154763
53	0xbd911c75	-0.07085506
54	0xbf8fa2e9	-1.1221591
55	0xbfe85443	-1.8150715
56	0x3e8b8d0f	0.27256057
57	0x3d087230	0.033312023
58	0x3f1252db	0.5715768
59	0xbf2f56f5	-0.6849206
60	0x3e9fb5f4	0.31193507
61	0xbfbfb608	-1.4977427
62	0x3f35683f	0.7086219
63	0xbf84a5a6	-1.0363052
64	0x3e587422	0.21138051
65	0x3fb104ac	1.3829551
66	0xbf1dac88	-0.61591387
67	0xbfc54d15	-1.5414149
68	0xbd8ca02f	-0.0686649
69	0x3eecb2f8	0.46230292
70	0xbf70a386	-0.93999517
71	0x400643da	2.0978913
72	0x3e889a47	0.26680204
73	0xbf694c43	-0.9113199
74	0x3f672957	0.90297455
75	0xbc21aaa9	-0.009867349
76	0xbf5f4528	-0.872149
77	0x3e9c6507	0.30545828
78	0x3fe12eec	1.7592444
79	0x3e82109b	0.25403294
80	0xbd9dd2da	-0.07706232
81	0xbfda725c	-1.706615
82	0xbe9ee436	-0.31033486
83	0xbfe543e0	-1.7911339
84	0xbf120b10	-0.5704813
85	0xbfd75c9a	-1.6825135
86	0xbf503007	-0.81323284
87	0xbeaa47bf	-0.33257863
88	0x3e9ea999	0.30988768
89	0x3eb0f3ca	0.34560996
90	0x3fe7b7f2	1.8103011
91	0x3fba9ffa	1.4580071
92	0x4063cb6e	3.5592914
93	0x3eb671d8	0.3563373
94	0xbe4874c1	-0.19575788
95	0xbf78d827	-0.9720482
96	0x3f378bb9	0.71697575
97	0x3f1eeab7	0.62076896
98	0x40059f99	2.087866
99	0x3f446ae9	0.7672563
100	0xbfe4b40f	-1.786745
101	0x3f68717c	0.90798163
102	0xbe220243	-0.15821175
103	0x3f8ddf0a	1.1083691
104	0x3f60d5d6	0.8782629
105	0xc00b176e	-2.173305
106	0xbfb35950	-1.4011631
107	0xbfa0fc61	-1.257702
108	0x405d84a4	3.4612207
109	0x3f839099	1.0278503
110	0x3eefd3e6	0.46841353
111	0x3fa30f59	1.2739059
112	0x3d8bf0ff	0.06833076
113	0x3f6bf2ac	0.9216716
114	0x3f429302	0.76005566
115	0x40557dce	3.3358035
116	0xbebf5a84	-0.37373745
117	0x40031ac2	2.0485082
118	0x3f9c8ebe	1.2231061
119	0xbf51117e	-0.81667316
120	0x3f376e09	0.71652275
121	0xbf309423	-0.6897604
122	0x3eca28fd	0.39484397
123	0xbf0196dc	-0.5062082
124	0x40aaa0ee	5.3321447
125	0x3d93a796	0.07209699
126	0x4009d5e9	2.153681
127	0x406e58f7	3.72418
128	0x3f63c31c	0.8896959
129	0x3e8a3bdf	0.26998803
130	0xbd0dbecc	-0.034605786
131	0x3fd11c25	1.6336714
132	0x402d595f	2.7085798
133	0x3e7395de	0.23787639
134	0xbdf4d1d9	-0.11954088
135	0xbf9cb2ed	-1.2242104
136	0x3f990a06	1.1956184
137	0x3ee9e8f1	0.45685533
138	0x3e728216	0.23682436
139	0xbf242200	-0.6411438
140	0x3f9f8d60	1.2465019
141	0x3c522230	0.012825534
142	0xbf7cd86a	-0.9876772
143	0xbf92df62	-1.1474421
144	0xc0511727	-3.267038
145	0xbfe60571	-1.797041
146	0xc08e16c9	-4.4402814
147	0xc090d318	-4.5257683
148	0xbf531422	-0.82452595
149	0x3f7e6566	0.9937347
150	0x3e9eac40	0.3099079
151	0xc0190d08	-2.3914204
152	0xc08ae323	-4.3402267
153	0x3fc2d7ba	1.5222085
154	0xbf2fdd31	-0.68696886
155	0xbd37d767	-0.044883158
156	0xbfc85154	-1.5649819
157	0xc02eb110	-2.729557
158	0x3ef98f47	0.48742124
159	0x3e16186b	0.14657752
160	0xbf81daaf	-1.0144862
161	0xbf418ec3	-0.7560846
162	0xbef2bfa3	-0.47411832
163	0x3f1ffdcd	0.62496644
164	0x3e812e2c	0.2523054
165	0xbf41b434	-0.75665593
166	0x3fa40780	1.2814789
167	0xbdc0689d	-0.093949534
168	0xbf07585c	-0.528692
169	0x3ef704bc	0.482458
170	0x3fba22ad	1.4541832
171	0xbf1cba61	-0.6122189
172	0xc015f29b	-2.3429325
173	0x3fccafd5	1.599116
174	0x3fbd74a0	1.4801216
175	0xbefe7032	-0.49694973
176	0x3f0e80b0	0.5566511
177	0x3efc9934	0.49335635
178	0x3fa0ab21	1.2552224
179	0x4027641e	2.6154857
180	0xc04a9cf3	-3.1658294
181	0xbde5c8a9	-0.112199135
182	0xc00ba766	-2.1820922
183	0xbf192a11	-0.59829813
184	0xbf062ec0	-0.52415085
185	0x3f3ca326	0.73686445
186	0xbf1c8449	-0.6113935
187	0x3dc7fdd5	0.097652115
188	0x401d6d66	2.4598022
189	0x3fe7994d	1.8093659
190	0xbfb5bb90	-1.4197865
191	0xbf8205d7	-1.0158032
192	0x3f953f28	1.1659899
193	0x3ede0865	0.4336578
194	0xbedd832a	-0.43264133
195	0x402c6867	2.6938722
196	0x3f833d1a	1.0253022
197	0xbf88c9e5	-1.0686613
198	0x3fc2873f	1.5197524
199	0xbf0a42d6	-0.54008234
200	0x3ed513cc	0.41616666
201	0xbe05ba35	-0.13059314
202	0xbfed13a9	-1.8521625
203	0xc01680b3	-2.3516052
204	0x40036fc8	2.0536976
205	0xbf70925b	-0.9397332
206	0x40348eff	2.8212278
207	0x4018de22	2.388558
208	0x400b205a	2.1738496
209	0x4031e7ca	2.7797723
210	0xbd7b1263	-0.06129683
211	0xbf690674	-0.9102547
212	0xbf1904b2	-0.5977279
213	0x3e90fc35	0.2831742
214	0xbd046593	-0.03232343
215	0x3fc9a077	1.5752095
216	0x3ef17009	0.4715579
217	0x3f2c2bbe	0.67254245
218	0x3e7ab3ac	0.24482602
219	0xc03d22af	-2.955242
220	0xbfa31624	-1.2741132
221	0x3fa4ed6f	1.2884959
222	0x3fdad3d5	1.7095896
223	0x3faa36df	1.3297995
224	0x3e0e01c9	0.13867868
225	0xbef9099b	-0.4864014
226	0xc02842e6	-2.6290832
227	0xbe1dd315	-0.15412553
228	0xbda530b8	-0.08065933
229	0xbdb50da2	-0.08840491
230	0x3f227a81	0.63468176
231	0x40009e76	2.0096717
232	0x4024b93a	2.5738053
233	0x3e843442	0.2582112
234	0xbf4732f5	-0.7781213
235	0x3d2de953	0.042458843
236	0xbe1c8af4	-0.15287381
237	0x3e5f49be	0.21805474
238	0xbfa11817	-1.2585477
239	0x3f92045f	1.1407584
240	0xbeba7716	-0.3641898
241	0x3f94387a	1.1579735
242	0x3f9681b2	1.175833
243	0x3fd8ca5a	1.6936753
244	0x3f0d3e04	0.55172753
245	0xbe80899a	-0.25104982
246	0x3ddfe2d3	0.10931935
247	0x3f43e719	0.765245
248	0x3f219830	0.63122845
249	0x3fd6eb9a	1.679065
250	0x3f134fbe	0.5754355
251	0x401052f6	2.2550635
252	0x3fd2bd5a	1.6464036
253	0xc0409182	-3.008881
254	0x3eeb23fe	0.45925897
255	0xbf3e9da0	-0.74459267

residual_blocks.0.bn1.weight f4 [64]
0	0x3fb11eb4	1.3837495
1	0x3feac540	1.8341446
2	0x3fd601f3	1.6719345
3	0x3fea53c2	1.8306811
4	0x3f94ef3e	1.1635511
5	0x3fa21564	1.2662778
6	0x3fed3e40	1.8534622
7	0x3fbf4127	1.4941758
8	0x402328ee	2.5493731
9	0x400b472f	2.1762197
10	0x3f86f48a	1.0543377
11	0x3fab3d5d	1.3378102
12	0x4033baa6	2.808267
13	0x4033419a	2.800879
14	0x3fc73a17	1.5564603
15	0x4014534f	2.3175848
16	0x40080db4	2.1258364
17	0x4033caee	2.8092608
18	0x3fdfe980	1.7493134
19	0x3fcbda34	1.5925965
20	0x3fbed8b1	1.4909879
21	0x3fd8540c	1.6900649
22	0x3fa335a6	1.2750747
23	0x3fd0285c	1.6262317
24	0x40113240	2.268692
25	0x3fb7cb9b	1.435901
26	0x400c28c5	2.1899884
27	0x3fe0ec29	1.757207
28	0x3fc07524	1.5035748
29	0x3fe5de6e	1.7958505
30	0x402da674	2.7132845
31	0x3fc98b59	1.574565
32	0x3fc8efd3	1.5698189
33	0x3fd54225	1.6660811
34	0x3fab57cf	1.3386172
35	0x3ff66ab9	1.9251319
36	0x3fbb2418	1.462039
37	0x3fbec792	1.4904654
38	0x3fa870fa	1.3159478
39	0x402ea30a	2.728701
40	0x3fad1786	1.3522804
41	0x402a201a	2.6582093
42	0x3fa5e04f	1.2959079
43	0x4009312c	2.1436262
44	0x402dbf63	2.7148063
45	0x3ffcb881	1.9743806
46	0x3fd2bb80	1.646347
47	0x3f8cdfae	1.1005762
48	0x40015967	2.0210817
49	0x3fbaadea	1.4584324
50	0x40262250	2.5958443
51	0x3fece455	1.8507181
52	0x4025d06d	2.5908463
53	0x4020bef4	2.5116549
54	0x40001c5d	2.0017312
55	0x3fd2329b	1.6421694
56	0x3fdb521e	1.7134435
57	0x3fc6fea9	1.5546466
58	0x3ff30338	1.8985357
59	0x400236ba	2.0345902
60	0x3faeba22	1.3650553
61	0x3fc9ded3	1.5771126
62	0x4015322a	2.3311868
63	0x3fbf81c8	1.4961481

residual_blocks.0.bn1.bias f4 [64]
0	0x3e7ffa7c	0.24997896
1	0x3d9aa806	0.07551579
2	0xbee7e042	-0.45288283
3	0xbfb55eae	-1.4169519
4	0x4010b2b8	2.2609081
5	0x3e184bb6	0.14872631
6	0x3dcce9af	0.10005509
7	0x3ee087d2	0.43853623
8	0xbfc43bdc	-1.5330768
9	0xbfa3eb07	-1.28061
10	0x3f7ba042	0.9829141
11	0xbf06fbe8	-0.5272813
12	0xc01fceb0	-2.4969902
13	0xbf92a40a	-1.1456311
14	0xbfb0b602	-1.3805544
15	0xc0058c46	-2.0866866
16	0xbfdcbbe4	-1.724484
17	0xbfc86796	-1.5656612
18	0xbf938140	-1.1523819
19	0x3f10d017	0.5656752
20	0xbeb34415	-0.3501288
21	0xbf5669d5	-0.83755237
22	0x3c440e64	0.011966322
23	0xbfa4b5e4	-1.2868009
24	0xbfdd0944	-1.7268453
25	0xbf8014ee	-1.0006387
26	0xbfb2a2ea	-1.3955967
27	0xbf716968	-0.9430146
28	0x3eed2ee4	0.46324837
29	0xbe1ca82f	-0.15298532
30	0xbffbbc2e	-1.9666803
31	0xbf56acc4	-0.8385737
32	0x3f0b556e	0.5442723
33	0xbf404269	-0.75101334
34	0xbe3906f2	-0.18069056
35	0xbe73f943	-0.23825555
36	0xbf1c3c91	-0.61029917
37	0xbe137c2e	-0.1440284
38	0xbca1bbfe	-0.019742962
39	0xbf158523	-0.58406276
40	0xbedf3a0a	-0.43598968
41	0xbfe2ec87	-1.7728432
42	0x3ed21aec	0.41036165
43	0xbf974c94	-1.1820245
44	0xc062a7b4	-3.5414858
45	0x3df98e95	0.121853985
46	0xbf947e88	-1.1601114
47	0x3d67d59b	0.056600194
48	0xbe9b26f5	-0.3030316
49	0xbf13d053	-0.5773975
50	0xbfe2604d	-1.7685639
51	0x3ee40710	0.44536638
52	0xc03ec537	-2.980787
53	0xbfa74559	-1.3068038
54	0xbef21ce5	-0.4728767
55	0xbf459da6	-0.7719368
56	0xbdced2b0	-0.10098779
57	0xbdc28658	-0.0949828
58	0xbfa838b1	-1.3142301
59	0x3e91fdfc	0.28514087
60	0xbe0c2cd3	-0.13688974
61	0xbe524e99	-0.20537795
62	0xc0126d64	-2.2879267
63	0xbe866186	-0.2624628

residual_blocks.0.bn1.running_mean f4 [64]
0	0x4183fc32	16.498142
1	0xc21ac57d	-38.69286
2	0xbfe3a00b	-1.7783216
3	0x41b34559	22.408861
4	0xc0e19eb5	-7.0506234
5	0xc0a2d849	-5.088902
6	0xc27a6862	-62.601936
7	0x41d66136	26.797466
8	0xc2b1ef6b	-88.96761
9	0x41a208bb	20.254263
10	0x41eea08d	29.828394
11	0xbfdc8580	-1.7228241
12	0xc2153772	-37.304146
13	0xc2c209f3	-97.01943
14	0x41e878fe	29.059078
15	0xc003ba29	-2.0582373
16	0xc26cc19e	-59.18908
17	0xc01ff6ce	-2.4994388
18	0x41d1fb5d	26.247736
19	0x41d510ec	26.633263
20	0xc0a0b6a0	-5.022293
21	0xc1bcfd79	-23.623766
22	0x4203f787	32.991726
23	0xc20d1f08	-35.280304
24	0xc213e703	-36.975597
25	0x40651699	3.5795043
26	0x4154888f	13.2833395
27	0xc1a6b0fe	-20.836422
28	0x41a5687b	20.676016
29	0xc134df42	-11.304506
30	0xc240527a	-48.080544
31	0xc110ebd2	-9.057573
32	0x41053131	8.32451
33	0x400a2708	2.1586323
34	0x41276051	10.461015
35	0xc238d954	-46.212234
36	0xc1827fb7	-16.31236
37	0xc1eb13a8	-29.384598
38	0xc1a9dcd4	-21.232826
39	0xc273a4b1	-60.91083
40	0x4106cbc7	8.42475
41	0xc1b34388	-22.407974
42	0xbfdd108c	-1.7270675
43	0xc23516a3	-45.272106
44	0xc1002bdc	-8.010708
45	0x41b1470a	22.159687
46	0x4152154c	13.130199
47	0xc0bed4d0	-5.963478
48	0xc1a86c90	-21.053009
49	0x3f880d90	1.0629139
50	0xc18fdc28	-17.982498
51	0xbf4b97dd	-0.795286
52	0xc22b7176	-42.8608
53	0xc27edabb	-63.713604
54	0xc256d6c5	-53.709736
55	0xc14eb1b2	-12.918383
56	0x41c9b92d	25.215418
57	0xc1004c3f	-8.018615
58	0xc2679a52	-57.900703
59	0x3f75e0d9	0.96046215
60	0x41f044e8	30.033646
61	0x412b6e75	10.714467
62	0xc12f9b1f	-10.975371
63	0x3f1cffdf	0.6132793

residual_blocks.0.bn1.running_var f4 [64]
0	0x4431e576	711.5853
1	0x448b31fb	1113.5619
2	0x4415e346	599.55115
3	0x441e3e52	632.97375
4	0x441d0b8f	628.1806
5	0x441664ae	601.5731
6	0x4480a405	1029.1256
7	0x4465ee12	919.71985
8	0x44a88eeb	1348.4662
9	0x4442f64b	779.8483
10	0x445735e0	860.8418
11	0x44081e4e	544.4735
12	0x443813bb	736.3083
13	0x44f119f5	1928.8112
14	0x4429def2	679.4835
15	0x4412f78d	587.868
16	0x44698bad	934.18243
17	0x444e99b4	826.4016
18	0x44697427	933.8149
19	0x448d927a	1132.5774
20	0x4407cd12	543.2042
21	0x441814c8	608.3247
22	0x449d2071	1257.0138
23	0x4424a0ff	658.51556
24	0x445eed0c	891.70386
25	0x4408142c	544.3152
26	0x446707e6	924.1234
27	0x4417a22a	606.5338
28	0x442f372f	700.86224
29	0x4457f257	863.78656
30	0x447afe70	1003.9756
31	0x440ecfc1	571.24615
32	0x4514f6f8	2383.4355
33	0x4425fc9c	663.947
34	0x4427e718	671.61084
35	0x4463d17c	911.2732
36	0x440b2535	556.58136
37	0x43f65bed	492.71817
38	0x4402d4ad	523.32306
39	0x44aa5d3b	1362.9135
40	0x442b4492	685.0714
41	0x4452f4cf	843.82513
42	0x440561f2	533.5304
43	0x445ad005	875.2503
44	0x4407215d	540.5213
45	0x446c49f1	945.15533
46	0x43f6eb65	493.83902
47	0x44314580	709.08594
48	0x44f94adb	1994.3392
49	0x44107181	577.7735
50	0x444629c8	792.65283
51	0x449fb1b6	1277.5535
52	0x44396ce4	741.7014
53	0x4488b10d	1093.5328
54	0x445ace74	875.2258
55	0x4425cba1	663.1817
56	0x44448676	786.10095
57	0x4439725a	741.78674
58	0x4479a38e	998.55554
59	0x44e2a97a	1813.2961
60	0x44324533	713.08124
61	0x44399f13	742.48553
62	0x4408a686	546.6019
63	0x44172948	604.645

residual_blocks.0.conv2.weight f4 [64, 64, 3, 3]
0	0xbedac830	-0.42730856
1	0xbfd5bb06	-1.66977
2	0x3fe1700a	1.7612317
3	0x3f81de60	1.0145988
4	0x3e22a124	0.15881783
5	0xbe81d8a4	-0.25360596
6	0xbf0cc38a	-0.5498587
7	0x3fa95bc5	1.3231131
8	0x3f053548	0.52034426
9	0x400d2f28	2.2060032
10	0xbe2fdb08	-0.17173398
11	0xbefc825e	-0.49318212
12	0x406fd10e	3.7471347
13	0xbfa828fc	-1.3137507
14	0xbebb74b0	-0.36612463
15	0xbf19d266	-0.6008667
16	0x3f715900	0.9427643
17	0xbfb5cef9	-1.4203788
18	0x3faa21a1	1.3291513
19	0xbf972e17	-1.181094
20	0x3d55f6eb	0.052237432
21	0x3f8302f5	1.0235277
22	0xc00b7479	-2.178984
23	0x3ecec056	0.40381116
24	0xc03e2eef	-2.9716146
25	0x3f7d30b1	0.9890242
26	0xbf350b9c	-0.7072084
27	0xbff724c3	-1.9308094
28	0x3fe8d941	1.8191301
29	0xc016d233	-2.3565795
30	0x3fcc0d0b	1.594148
31	0x3fc79c26	1.5594528
32	0xc0161de1	-2.3455737
33	0xbebd1989	-0.36933544
34	0x3f70f7c3	0.94128054
35	0x3f31b1ce	0.69411933
36	0xbe24978b	-0.16073434
37	0xbff52413	-1.9151634
38	0x3ffd76bb	1.9801859
39	0xbf210ea1	-0.62912947
40	0x3edc22e2	0.42995363
41	0x3e8c4ad7	0.27400848
42	0x40363f45	2.8476117
43	0xc0435c00	-3.0524902
44	0xbfacdfc4	-1.3505788
45	0x3d727748	0.059195787
46	0x400ce593	2.201512
47	0xc03207f3	-2.7817352
48	0x3fee0948	1.8596582
49	0xbbdb5dcf	-0.0066945325
50	0x4005041d	2.078376
51	0xbf8cf664	-1.1012692
52	0x3f8b8fd7	1.0903271
53	0xbd7595b3	-0.059957217
54	0x4083cd10	4.118782
55	0xc04c13bc	-3.1887045
56	0xc01be8c0	-2.436081
57	0x3fef2e60	1.8686028
58	0x3fe738b1	1.8064176
59	0xbee955de	-0.45573324
60	0x403c042b	2.9377544
61	0x4014a765	2.322717
62	0xc0091954	-2.142171
63	0xbfee96ac	-1.8639731
64	0x3e3e0967	0.18558274
65	0x3e165cec	0.14683884
66	0x3d1db74f	0.038504895
67	0xbdf024cf	-0.11725771
68	0x3ed7cc93	0.42148265
69	0xbf5d5951	-0.8646441
70	0xbede694c	-0.4343971
71	0xc04180ac	-3.0234785
72	0x3e8f0c1a	0.2793892
73	0xc02978bc	-2.647994
74	0x3f810151	1.0078527
75	0x3f909937	1.1296757
76	0x3f9195d4	1.1373849
77	0x3fb64b41	1.4241716
78	0x4014a437	2.3225229
79	0x3f876e57	1.0580548
80	0x3f89ce5d	1.0766102
81	0xbf0fdd6f	-0.56197256
82	0xc015dfdc	-2.3417883
83	0x3f8f9f6a	1.1220524
84	0xbdca9a5d	-0.09892724
85	0xbfd38cad	-1.6527306
86	0x3f472b6e	0.77800643
87	0x3e060ab5	0.13090022
88	0x3fd4de8d	1.6630417
89	0x3f77cb3b	0.9679448
90	0xbff63069	-1.9233524
91	0xbd6a2e52	-0.05717308
92	0x3f813f40	1.0097427
93	0xbfdd6303	-1.7295841
94	0xbf0f917e	-0.5608138
95	0xbf3fe1a6	-0.7495369
96	0x3fab3a96	1.3377254
97	0xbf8b172c	-1.0866446
98	0xc0056acc	-2.0846434
99	0x3f2362cd	0.63822633
100	0x3f6c5a0d	0.92324907
101	0xbf68d402	-0.909485
102	0xc012d319	-2.2941344
103	0x3f0b25b8	0.5435443
104	0xbf54ec6f	-0.8317327
105	0xbf7124e5	-0.9419692
106	0xbf569273	-0.83817214
107	0xc049695e	-3.147056
108	0xbec8f625	-0.39250293
109	0x3f9cdcfe	1.2254941
110	0xbf9a3f14	-1.20505
111	0xbe075037	-0.13214193
112	0xbfa5a630	-1.2941341
113	0xbfaa82d8	-1.332118
114	0xbf4b23aa	-0.79351294
115	0xbe3a93a4	-0.18220383
116	0xbfd94ef8	-1.6977224
117	0xbf7333bb	-0.9500081
118	0xbffd8fc9	-1.9809505
119	0xbf85e9aa	-1.0461934
120	0x3e96685f	0.29376504
121	0x3e59a838	0.21255577
122	0xbf043469	-0.5164247
123	0x3edb2222	0.4279948
124	0x3dadce6c	0.084866375
125	0x3fdd2bd4	1.7279
126	0x3f4ae558	0.792562
127	0x3f1d2b51	0.6139422
128	0x4024a47e	2.5725398
129	0x3f4753b4	0.77862096
130	0x3fb6a4f0	1.4269085
131	0xc004ffec	-2.0781202
132	0xbf80ab07	-1.0052193
133	0xbfb1b5eb	-1.3883642
134	0x3e20c6cc	0.15700835
135	0x3f940730	1.1564693
136	0x3ffbeda5	1.9681898
137	0x3fa3af12	1.2787802
138	0xbeef7bbe	-0.46774095
139	0x3f53c019	0.8271499
140	0x3f877732	1.058325
141	0xbfa84f83	-1.3149265
142	0x3f3cf25b	0.73807305
143	0x3fade05a	1.3584092
144	0x3f877e86	1.0585487
145	0x3f014d52	0.50508606
146	0x3f8ae1f4	1.0850205
147	0x3e867874	0.26263773
148	0xc03a10ee	-2.9072833
149	0xbe98a5da	-0.29814035
150	0xbf2e64e2	-0.68122685
151	0x40080900	2.1255493
152	0xbea6886a	-0.3252595
153	0x3f1d01e4	0.6133101
154	0x3fc391fc	1.5278926
155	0xbfc321ba	-1.5244668
156	0xbf8fbd8b	-1.1229719
157	0xbec08ea8	-0.37608838
158	0xbf0ed193	-0.55788535
159	0xc004209a	-2.0644898
160	0xbe1f1ac4	-0.15537554
161	0xbf14b3b5	-0.5808671
162	0x3f79433a	0.97368205
163	0xbeddcbae	-0.43319458
164	0xbfddae91	-1.7318898
165	0xbd4b4d8c	-0.0496345
166	0x3fbb95c1	1.4655076
167	0xbf021b42	-0.5082284
168	0x3f63f99b	0.8905274
169	0xbfd02aa8	-1.6263018
170	0x3e95f9b8	0.29292083
171	0x3e8525e7	0.2600548
172	0x3fcd9434	1.6060853
173	0x3f892136	1.071326
174	0x40092baa	2.14329
175	0x3f7f98dc	0.9984262
176	0xbf8961a7	-1.0732926
177	0xbf527ce7	-0.82221836
178	0xbff59003	-1.9184574
179	0xc02eb291	-2.7296488
180	0x3f97adaf	1.1849879
181	0x3f7ea49c	0.99469924
182	0xbf2a2781	-0.6646653
183	0x400cf8c2	2.202683
184	0x3e4e8c78	0.20170772
185	0x3f92f2a7	1.1480302
186	0xbfb9bad6	-1.4510143
187	0xc03f2562	-2.9866567
188	0x3faef0a8	1.3667192
189	0xbef76266	-0.4831726
190	0xbfbbba98	-1.4666319
191	0xc013e706	-2.3109756
192	0xbfa91c10	-1.3211689
193	0xbfdf92d7	-1.7466687
194	0x3dae4ac7	0.085103564
195	0xc0266fd6	-2.600576
196	0x3ecc14d6	0.39859647
197	0xc0600901	-3.5005496
198	0x3f2c91d2	0.67410004
199	0x3d7a25f6	0.06107136
200	0x3ece13ee	0.4024958
201	0x3ee3046d	0.44339314
202	0xbf53346c	-0.82501864
203	0x3e092499	0.13392867
204	0x3f000f40	0.5002327
205	0xbed62e30	-0.41832113
206	0xbe2f5f81	-0.17126276
207	0xbed86741	-0.42266276
208	0x3e906222	0.2819987
209	0x402984dc	2.648734
210	0xc03c8b9d	-2.9460213
211	0x3eaab322	0.33339792
212	0x4011a92c	2.2759504
213	0xc0191934	-2.3921633
214	0xc017e6d4	-2.3734636
215	0xbf3943f6	-0.72369325
216	0x3ff445a4	1.9083753
217	0xbe459f64	-0.19299084
218	0xbfa6fece	-1.304651
219	0x3fa26073	1.2685684
220	0x3f7b9d49	0.98286873
221	0xbfc41293	-1.5318168
222	0xbfbb5b20	-1.4637184
223	0xbe257ab7	-0.16160093
224	0xbf6841fc	-0.90725684
225	0xbfa1d1a2	-1.26421
226	0xbf9b992b	-1.2156118
227	0x3fb259fd	1.3933712
228	0x3f6dd4a2	0.92902577
229	0x3fd09b8d	1.629747
230	0x3f168818	0.5880141
231	0x3f8e4d72	1.1117384
232	0xbbe4f6f0	-0.006987445
233	0x3fea6078	1.831069
234	0x3fb07dde	1.3788412
235	0x403e8c33	2.977307
236	0x3e9c0e86	0.3047983
237	0xbeff2899	-0.4983566
238	0xbf9666be	-1.1750104
239	0xbe3b29f8	-0.18277729
240	0xbeb9cae0	-0.36287594
241	0xbf382e4a	-0.7194563
242	0xc012bf6e	-2.292934
243	0xbefe2806	-0.4963991
244	0x3f03c202	0.5146791
245	0xbfe555fb	-1.7916864
246	0xbf2ef2aa	-0.68339026
247	0x3d39be02	0.04534722
248	0x3fa4c516	1.2872646
249	0x3e2f3785	0.17111023
250	0x3f144609	0.57919365
251	0x405103ea	3.265864
252	0xbde0f95d	-0.10985062
253	0xbefa08d3	-0.48834857
254	0xbf8b9bdd	-1.0906941
255	0x3f0c5758	0.54820776

residual_blocks.0.bn2.weight f4 [64]
0	0x3ffaad78	1.9584188
1	0x3f9dc670	1.2326183
2	0x3fdb8e4f	1.7152804
3	0x3fa8e435	1.3194643
4	0x3fd454fe	1.6588438
5	0x3feca32a	1.8487294
6	0x3fa6495c	1.2991138
7	0x3f1e85e3	0.61923045
8	0x3f4094f7	0.752273
9	0x400641bc	2.097762
10	0x3f8bf630	1.0934505
11	0x3f6e726b	0.9314334
12	0x3f8619b7	1.0476598
13	0x3f9c7557	1.2223309
14	0x3fc2258b	1.5167707
15	0x3f32fe83	0.69919604
16	0x3f5cced2	0.8625308
17	0x3fc83bff	1.5643309
18	0x3fbf1fad	1.4931542
19	0x3f94cad1	1.1624395
20	0x3fcc0e9e	1.5941961
21	0x3fead1c4	1.8345265
22	0x4012fa97	2.2965448
23	0x3ffd8711	1.9806844
24	0x3fb4f5d1	1.4137517
25	0x3fc15563	1.5104183
26	0x3fe2a67b	1.7707056
27	0x3fc912e8	1.5708895
28	0x3fd987dd	1.6994587
29	0x3fea766a	1.8317387
30	0x3f747c92	0.9550258
31	0x3f694001	0.9111329
32	0x400a8c2a	2.164805
33	0x400e8681	2.2269595
34	0x3fbd0dc6	1.4769828
35	0x3fc1c95b	1.5139574
36	0x3fc60496	1.547015
37	0x3fc855a7	1.5651139
38	0x40178686	2.3675857
39	0x3f6bdb08	0.9213109
40	0x3f6dacea	0.9284197
41	0x3f792d08	0.9733434
42	0x3fc8be85	1.5683142
43	0x3fb6987d	1.4265286
44	0x3f97fb83	1.187363
45	0x3fe2400b	1.7675794
46	0x3fa8b901	1.3181459
47	0x3feec444	1.8653646
48	0x3fab3264	1.3374753
49	0x3f8bf257	1.0933331
50	0x3f96913c	1.1763072
51	0x4005ff9c	2.0937262
52	0x3fc78e27	1.5590256
53	0x3fc51bca	1.5399106
54	0x3fc81056	1.5629985
55	0x400a674e	2.1625552
56	0x3fbc547a	1.471328
57	0x3fcdfbd6	1.6092479
58	0x4000774e	2.0072818
59	0x3f750fa7	0.9572701
60	0x3fec1a43	1.8445514
61	0x40086489	2.1311362
62	0x3fe23cb8	1.767478
63	0x40010bc1	2.0163424

residual_blocks.0.bn2.bias f4 [64]
0	0xc021061e	-2.5159984
1	0x3e925a1e	0.2858438
2	0xbfe2af52	-1.7709754
3	0x3b2cf375	0.002639023
4	0xbf21503a	-0.6301304
5	0xc008d7a8	-2.1381626
6	0x3d558fd9	0.052139137
7	0xbeb0afb6	-0.34509057
8	0xbd9a08d7	-0.07521217
9	0xbfdcf2cf	-1.7261599
10	0xbea63070	-0.3245883
11	0xbe3fc43d	-0.18727203
12	0xbf041d4c	-0.51607203
13	0xbe7aea08	-0.24503338
14	0xbf8d0eca	-1.1020138
15	0x3f9f2a12	1.2434714
16	0x3f3a5a24	0.72793794
17	0xbf8ca17a	-1.0986779
18	0xbf6a836c	-0.91606784
19	0x3e56da42	0.20981696
20	0xbe8578f0	-0.2606883
21	0xbfc33f87	-1.5253762
22	0xc014fb87	-2.327852
23	0xc015af3d	-2.3388207
24	0xbeafcdb7	-0.34336635
25	0xbf929f04	-1.1454778
26	0xbff1de51	-1.889597
27	0xbd7fb878	-0.062431782
28	0xbf8ab7fb	-1.0837396
29	0xbfaa3cf4	-1.3299851
30	0xbf23533f	-0.637989
31	0xbd9ec7b1	-0.07752932
32	0xc02e03d1	-2.718983
33	0xc02f64ad	-2.7405198
34	0xbfd046e5	-1.6271635
35	0xbfa7d83a	-1.3112862
36	0xbeeecdee	-0.46641487
37	0x3e5803be	0.21095178
38	0xc0117418	-2.2727108
39	0xbd89cb6f	-0.06728255
40	0x3f8c3fec	1.0957007
41	0x3f7435e1	0.9539471
42	0xbf9bc285	-1.2168738
43	0xbf409165	-0.75221854
44	0x3ece08bc	0.4024104
45	0xbf947320	-1.1597633
46	0x3eab0c5c	0.33407867
47	0xbfcef505	-1.6168524
48	0x3e03caac	0.12870282
49	0xbfb7a316	-1.4346645
50	0xb9596d60	-0.00020735478
51	0xbfde824a	-1.7383511
52	0xbdea06a2	-0.11427046
53	0xbfc3d98b	-1.5300764
54	0xc00a2939	-2.158766
55	0xc00fb9c2	-2.2457128
56	0xbe6d7fbd	-0.2319326
57	0xbfdb6cea	-1.7142613
58	0xbfd065e4	-1.6281095
59	0x3fb7638b	1.4327253
60	0xbfb20c8c	-1.3910079
61	0xbff2518c	-1.8931136
62	0xbfbffc6d	-1.4998909
63	0xbfec32ad	-1.8452965

residual_blocks.0.bn2.running_mean f4 [64]
0	0xc1a9c2d6	-21.220135
1	0xc1661c36	-14.381887
2	0xc21f23a6	-39.784813
3	0x41100c96	9.003073
4	0xc24e3fda	-51.562355
5	0xc10a54c0	-8.645691
6	0xc1b1323f	-22.149534
7	0xc111b155	-9.105794
8	0xc0ab23a2	-5.3480997
9	0xc25c008a	-55.000526
10	0xbf937ca4	-1.1522412
11	0xc227a59d	-41.91173
12	0xc11f9978	-9.974968
13	0xc11331d4	-9.199665
14	0x401150c2	2.270554
15	0x40b6f279	5.7170987
16	0x41a9216c	21.14132
17	0xc1285839	-10.521539
18	0xc21fe617	-39.974697
19	0x4009df6b	2.1542614
20	0xc1656456	-14.336996
21	0xc0e18c9a	-7.0484133
22	0xc208e8e4	-34.227432
23	0xc1775028	-15.457069
24	0x3f058a7f	0.52164453
25	0xc1ab7e29	-21.436602
26	0xc13f9379	-11.973504
27	0xc0f9e155	-7.8087564
28	0x42264f6c	41.57756
29	0xc23d8dfa	-47.38865
30	0xc14794c7	-12.473823
31	0xc16f4977	-14.955436
32	0xc2488e9b	-50.139263
33	0xc2142be8	-37.042877
34	0x40a9b1b3	5.302942
35	0xc21fa9f4	-39.91597
36	0xc1f3e436	-30.486431
37	0x40b8c4ea	5.7740374
38	0xc1d3d8c8	-26.48085
39	0x41d49014	26.57035
40	0xbde9208a	-0.113831595
41	0x420be2cb	34.971478
42	0x4041b7da	3.0268464
43	0xc212d2ac	-36.705734
44	0xc08fdd2d	-4.495749
45	0x41b2a78d	22.331812
46	0x41c767ce	24.925686
47	0xc1ec8432	-29.564548
48	0xc1ca16d8	-25.261154
49	0xc044120e	-3.063602
50	0xc0067314	-2.1007738
51	0xc24baedf	-50.920773
52	0xc2226f1b	-40.6085
53	0xc274af6f	-61.17132
54	0xc1af3f1e	-21.905819
55	0xc1b4aeda	-22.585377
56	0xbdee6aad	-0.116414405
57	0x41bb7bc4	23.435432
58	0xc2640ddc	-57.013535
59	0x4109b5ce	8.606886
60	0xc2519733	-52.397655
61	0xbfac88ce	-1.347925
62	0xc11226d8	-9.134483
63	0xc26baa81	-58.916508

residual_blocks.0.bn2.running_var f4 [64]
0	0x44d29aa4	1684.8325
1	0x44a4fe27	1319.9423
2	0x44967ae2	1203.8401
3	0x451c61e9	2502.1194
4	0x450c6d5e	2246.8354
5	0x449a6160	1235.043
6	0x4433624a	717.53577
7	0x44ff57be	2042.742
8	0x44ee9108	1908.5322
9	0x44dcbdd0	1765.9316
10	0x44abffca	1375.9934
11	0x44e5b25b	1837.5736
12	0x445cbfa2	882.99426
13	0x4483dde1	1054.9337
14	0x44c70721	1592.2228
15	0x44d1b349	1677.6027
16	0x449813fe	1216.6248
17	0x44825c2e	1042.8806
18	0x44dc7d69	1763.9191
19	0x44a4eaf8	1319.3428
20	0x448cbdd2	1125.9319
21	0x448f630b	1147.0951
22	0x44d7134b	1720.6029
23	0x44963891	1201.7677
24	0x448f6928	1147.2861
25	0x44a76824	1339.2544
26	0x44a32ccb	1305.3998
27	0x45350746	2896.4546
28	0x44bfa16b	1533.0443
29	0x44c62664	1585.1997
30	0x449361d0	1179.0566
31	0x4498f7bb	1223.7416
32	0x44694ec3	933.23065
33	0x44c05fa3	1538.9886
34	0x44950ce5	1192.403
35	0x446d5a8c	949.4148
36	0x4488c68b	1094.2045
37	0x44c7d2ee	1598.5916
38	0x44c29e95	1556.9557
39	0x45556bca	3414.7368
40	0x44776e77	989.726
41	0x44a415d7	1312.6825
42	0x44f4351f	1953.66
43	0x44db7cdd	1755.902
44	0x44bbcca0	1502.3945
45	0x449efb83	1271.8597
46	0x44d405cb	1696.181
47	0x449d0202	1256.0627
48	0x44a876d4	1347.7134
49	0x44b393c2	1436.6174
50	0x449750e0	1210.5273
51	0x44c4a2bf	1573.0858
52	0x44efbdfc	1917.937
53	0x44eaa55c	1877.1675
54	0x448c4025	1122.0045
55	0x449da75f	1261.2303
56	0x44c96fd6	1611.4949
57	0x44b5e58d	1455.1735
58	0x44b75469	1466.6378
59	0x44a0e4b4	1287.147
60	0x44ee6d78	1907.4209
61	0x44a7aff9	1341.4991
62	0x448f77ba	1147.7415
63	0x44b7ce27	1470.4423

residual_blocks.1.conv1.weight f4 [64, 64, 3, 3]
0	0xc02f5ab7	-2.7399118
1	0x3f5364f0	0.82575893
2	0x3f981f79	1.1884605
3	0x3d9d3d71	0.07677735
4	0xbf2019f9	-0.6253963
5	0x3ff04980	1.877243
6	0xbfe9b334	-1.8257813
7	0xbfdee073	-1.7412246
8	0xbe58199b	-0.21103518
9	0xbdd9b580	-0.106303215
10	0xbfeca778	-1.8488607
11	0xbf6d74f0	-0.9275656
12	0xbee75886	-0.45184726
13	0xbf71c6a7	-0.94443744
14	0x3eb7712d	0.35828534
15	0xbfd97f58	-1.6991987
16	0x4003e891	2.0610697
17	0x3b2362fe	0.002493083
18	0xbffffe9f	-1.9999579
19	0xc05f79b7	-3.491804
20	0xbe2c48e7	-0.16824685
21	0xc084c0bc	-4.148527
22	0xbfb4c491	-1.4122487
23	0xbf88111a	-1.0630219
24	0x4002b15e	2.0420756
25	0x3e5d4cb1	0.21611287
26	0xbf0c6c68	-0.54852915
27	0x40113084	2.2685862
28	0xbdce595b	-0.10075637
29	0x3fb4daae	1.4129236
30	0x3fd192e7	1.6372956
31	0x3fa3360e	1.2750871
32	0x3f295cb1	0.6615706
33	0xbf0d002a	-0.55078375
34	0xbf8ba1f9	-1.0908805
35	0xbf33d254	-0.7024281
36	0xc00652f4	-2.098813
37	0xbfbc6620	-1.4718666
38	0x3f1b92c8	0.60770845
39	0x3daeb7cc	0.0853115
40	0x3f8078b2	1.0036833
41	0x3f5c6532	0.8609191
42	0x3ee7296e	0.45148796
43	0xbf1b0cbc	-0.60566306
44	0x3d68546d	0.05672114
45	0x3e98fc37	0.29879925
46	0x3f1ee623	0.6206991
47	0x3fb15cd4	1.3856454
48	0x3fb14dc8	1.3851862
49	0x3fe82ff7	1.8139638
50	0xbedb46dd	-0.42827502
51	0x3de87236	0.11349909
52	0xbfcb6829	-1.5891162
53	0x3fbbe703	1.4679874
54	0x3f918f86	1.1371925
55	0x3eb7a271	0.3586612
56	0x3e917574	0.28409922
57	0xbf25f1d1	-0.6482211
58	0xbebd9b10	-0.37032366
59	0x3f2a30d8	0.6648078
60	0xc02e8bee	-2.7272906
61	0xc02061d2	-2.5059705
62	0x3eb6b720	0.35686588
63	0x3eade474	0.33963358
64	0xbe645f4b	-0.22301976
65	0x3ca709f9	0.020390498
66	0xbf4ac218	-0.79202414
67	0x3f24ed49	0.6442457
68	0x4015bdb6	2.339704
69	0x3e8a82a6	0.27052802
70	0xbe3ce9a7	-0.18448506
71	0x3f8be49a	1.0929139
72	0x3ef6bd8f	0.48191497
73	0xbd54d75e	-0.051963203
74	0xbf4a3235	-0.7898286
75	0xbf939b76	-1.1531818
76	0xbe93f788	-0.2889979
77	0xbe4a281f	-0.19741867
78	0xc030d09b	-2.7627323
79	0xbdc4d177	-0.09610265
80	0xbfb428d7	-1.4074963
81	0x3ffc14ff	1.9693907
82	0x3fab81c1	1.3398973
83	0x3f10208f	0.5629968
84	0x3e93f32b	0.2889646
85	0x400e4529	2.2229712
86	0x3f3c05b8	0.73446226
87	0x3e2fceba	0.17168704
88	0xbe67af0d	-0.2262537
89	0x3f78c845	0.9718059
90	0x3fc7e11c	1.5615573
91	0x3faad96c	1.3347602
92	0x3ed8ac2d	0.4231886
93	0x3f0dfe58	0.5546622
94	0xbf869122	-1.0513041
95	0xbfa5bfe8	-1.294919
96	0x3f848809	1.0354015
97	0xc0081878	-2.1264935
98	0x3ea4ae5d	0.3216428
99	0xbfea4bc4	-1.8304372
100	0xbf9b40ab	-1.212911
101	0xbfbe2dd3	-1.4857734
102	0xbf7847c1	-0.9698449
103	0xbf374209	-0.71585137
104	0xbeceff32	-0.40429074
105	0xc04f4d54	-3.2390947
106	0xc00873a1	-2.1320574
107	0xc05e9a78	-3.478178
108	0x3f90e001	1.131836
109	0xbf0196af	-0.5062055
110	0xbe88541f	-0.2662668
111	0x3f8f120e	1.1177385
112	0x3edbc7be	0.4292583
113	0xbda65f16	-0.08123605
114	0x3eeb9042	0.46008497
115	0xbdcb91e6	-0.09939937
116	0x3f9ea14e	1.2392976
117	0x3ec1b25e	0.37831396
118	0x3faaf184	1.3354955
119	0x3f0507a2	0.5196477
120	0x3f68878d	0.90831834
121	0xbf07bf30	-0.53026104
122	0xbf4347d3	-0.7628147
123	0xbfa1b7e8	-1.2634249
124	0xc0125b4e	-2.2868228
125	0x3ff34170	1.9004345
126	0x4008b9cb	2.13634
127	0x3f0fda10	0.5619211
128	0x4013ed5e	2.3113627
129	0xbf093f57	-0.53612274
130	0xc001af94	-2.0263414
131	0x3fe36317	1.7764615
132	0x3ee95b5f	0.45577523
133	0xbf204f05	-0.62620574
134	0x3f92cdbf	1.1469039
135	0xbf51fc2e	-0.8202542
136	0xbef01c35	-0.4689652
137	0xbf8da269	-1.1065189
138	0x3d23784e	0.039909653
139	0x3daeb782	0.08531095
140	0xbe80805f	-0.2509794
141	0x3f9f9e61	1.2470208
142	0x3b8d5eee	0.004314295
143	0x3fd23ebe	1.6425397
144	0x3f143a32	0.579013
145	0x3e9592be	0.29213518
146	0x3f0b8706	0.54502904
147	0x3f827af1	1.0193769
148	0x3ff0d754	1.8815713
149	0x3f1007e1	0.5626202
150	0x4015aa2a	2.338511
151	0x3f0e913b	0.55690354
152	0x3fec4a09	1.8460094
153	0xbd3194f8	-0.04335496
154	0x3d84d57c	0.064860314
155	0xbedfab7f	-0.4368553
156	0xc00a3e9a	-2.160071
157	0x3f35bce9	0.7099138
158	0xbeffbb08	-0.4994738
159	0x3f074b9e	0.5284976
160	0xbf8eb97c	-1.1150355
161	0x3f41f11a	0.75758517
162	0xbff7d360	-1.9361382
163	0xc01c4456	-2.441671
164	0xbf8509c3	-1.0393604
165	0x3febb3ef	1.8414286
166	0x3f55936b	0.83428067
167	0x3f22770d	0.6346291
168	0x3fe890d3	1.8169197
169	0xbff35bfe	-1.9012449
170	0x40073c78	2.1130657
171	0xbf333334	-0.70000005
172	0x40017e6f	2.023342
173	0x3f3dd235	0.74148875
174	0xbf3c6c68	-0.73602915
175	0xc00572e0	-2.0851364
176	0xbf9102e3	-1.1329006
177	0xbf4c4d6a	-0.79805624
178	0x3fd97fed	1.6992165
179	0x3f600d92	0.87520707
180	0xbfdb612b	-1.7139028
181	0x3f3ddfc2	0.7416955
182	0xbfdbedc7	-1.7181939
183	0xbef7bbf1	-0.48385575
184	0xbf0f4f40	-0.559803
185	0x3feae0b5	1.8349825
186	0x3fbe3daf	1.4862574
187	0xbfca68c7	-1.5813226
188	0x3f168ace	0.5880555
189	0x3ee01e6d	0.43773213
190	0x4001ae75	2.026273
191	0xbe68293b	-0.22671978
192	0x400523b2	2.0803037
193	0x3fec2340	1.8448257
194	0x3f85c008	1.0449228
195	0x3fcb3723	1.5876201
196	0x4002b961	2.0425646
197	0x3ff83b2f	1.9393061
198	0x40307c6f	2.7575948
199	0xc0014797	-2.0199945
200	0xc00ad44d	-2.1692078
201	0xbf25e8b1	-0.64808184
202	0xc0784a97	-3.8795526
203	0x3f990406	1.1954353
204	0x3f376349	0.7163587
205	0x3ebc60b2	0.36792523
206	0xbf7544e9	-0.95808274
207	0xc031aba1	-2.7761004
208	0xbf238347	-0.6387219
209	0x3f659285	0.89676696
210	0xc02e00bf	-2.7187955
211	0xbe8e6d60	-0.27817822
212	0x3f3c77d3	0.7362034
213	0xbed71b04	-0.420128
214	0xc00c4bf6	-2.1921363
215	0xbe12fe07	-0.14354716
216	0xbe8080b0	-0.2509818
217	0x3f31f90c	0.6952064
218	0x3fb5725a	1.4175522
219	0xbf933d35	-1.1503054
220	0xbf4b6e91	-0.79465586
221	0x3f38a049	0.72119576
222	0xbeb79ed0	-0.35863352
223	0xbf415dfc	-0.75534034
224	0x3edf23b1	0.43581918
225	0xbf8dceb8	-1.107871
226	0x3e8cc67e	0.27495188
227	0xbf36b69a	-0.7137238
228	0xbd2e164d	-0.042501736
229	0xbfb776b3	-1.4333099
230	0xbfcd11b2	-1.6021025
231	0x40213b2d	2.5192368
232	0x3fa8e752	1.3195593
233	0x3ec106aa	0.37700397
234	0xc09ef1c4	-4.9670124
235	0xbf80348a	-1.0016034
236	0xbfd57892	-1.667742
237	0xbfee4aaa	-1.8616536
238	0x3e51d088	0.20489705
239	0x3ecec014	0.4038092
240	0xbf3a39b6	-0.7274431
241	0x3facbe79	1.3495628
242	0xbf516709	-0.81797844
243	0xc08a3785	-4.3192773
244	0xc07caa9c	-3.9479132
245	0xc00feef4	-2.2489595
246	0xbf38427d	-0.71976453
247	0xbfa02e6f	-1.251417
248	0x3f7b51c2	0.9817163
249	0xbfd3fcd6	-1.6561534
250	0xbfb812d6	-1.4380748
251	0xc013b846	-2.3081222
252	0xbe440cff	-0.19145583
253	0x3eb839d1	0.3598161
254	0xbefc43c5	-0.49270454
255	0xbfb21a5b	-1.3914293

residual_blocks.1.bn1.weight f4 [64]
0	0x3fb77a55	1.4334208
1	0x3fd96fce	1.6987245
2	0x3fdf1ae8	1.7430086
3	0x3fc9948f	1.5748461
4	0x3fd569fd	1.667297
5	0x3fafa464	1.3722043
6	0x3fd69aa5	1.6765944
7	0x40056d3f	2.0847929
8	0x4000fc5a	2.0154023
9	0x3fb3989e	1.403095
10	0x3fe1a9a6	1.7629898
11	0x401757de	2.364738
12	0x3fc68ba2	1.5511363
13	0x3fab311e	1.3374364
14	0x3fdd1ba8	1.7274065
15	0x3faf4c46	1.3695152
16	0x3fea3550	1.829752
17	0x400faa65	2.244775
18	0x3faaf366	1.3355529
19	0x3ffd5e31	1.979437
20	0x3fb80611	1.4376851
21	0x4001c141	2.0274203
22	0x3f8e5964	1.112103
23	0x4003f164	2.0616083
24	0x3fa7a92d	1.3098503
25	0x3ffb7a37	1.9646672
26	0x3ff4c353	1.9122108
27	0x3fb50571	1.4142286
28	0x3faa2f9f	1.3295783
29	0x3fd1cc12	1.6390402
30	0x401cf686	2.4525466
31	0x3fa8fcbc	1.3202128
32	0x400225da	2.0335603
33	0x3fd1549d	1.6353947
34	0x3f9ff6c0	1.2497177
35	0x401f6f90	2.4911842
36	0x3f9c3ea1	1.2206613
37	0x3fe09d9e	1.7548101
38	0x3ffdb05a	1.9819443
39	0x3f9d9091	1.2309743
40	0x3fbe5d94	1.4872308
41	0x3fcf1549	1.6178371
42	0x3fe51340	1.78965
43	0x3ffd8c4f	1.9808444
44	0x400a34fc	2.159484
45	0x3f859176	1.0435016
46	0x3fa65a08	1.2996225
47	0x3ff6890e	1.9260576
48	0x3fbd31d2	1.4780829
49	0x3fc328d2	1.5246832
50	0x3ffc24e8	1.9698763
51	0x40162959	2.3462737
52	0x3febd1ff	1.8423461
53	0x40107631	2.2572138
54	0x3fcfdae3	1.6238674
55	0x3fe3a87d	1.7785794
56	0x3fa55bd1	1.2918645
57	0x3fba1355	1.453715
58	0x3fd20d55	1.6410319
59	0x4025f67b	2.593169
60	0x3fe6f51e	1.8043554
61	0x400faf31	2.2450678
62	0x3f73e88e	0.95276725
63	0x400b15ab	2.1731975

residual_blocks.1.bn1.bias f4 [64]
0	0xbe419c01	-0.18907167
1	0xbf969126	-1.1763046
2	0xbfaeb835	-1.3649966
3	0xbf1c0a8d	-0.609536
4	0xbe819f46	-0.25316828
5	0xbefa18a6	-0.4884693
6	0xbfaa01d6	-1.328181
7	0xbfa225f2	-1.266783
8	0xc02f012b	-2.7344463
9	0xbf23d7fc	-0.6400144
10	0xbfb1a046	-1.3877037
11	0xc02f8cc1	-2.742966
12	0xbf2f3626	-0.68442
13	0x3e50943b	0.20369045
14	0xc0008a20	-2.0084305
15	0x3e4be555	0.19911702
16	0xbfed42da	-1.8536026
17	0xbfec9088	-1.8481607
18	0xbf88461b	-1.0646394
19	0xc0124d91	-2.2859843
20	0x3e867169	0.262584
21	0xc065ce9f	-3.5907362
22	0x3ef899d9	0.48554876
23	0xbfdebb15	-1.7400843
24	0x3eb7e568	0.3591721
25	0xc01f8928	-2.4927464
26	0xbf9458b8	-1.1589575
27	0x3ff85e50	1.9403782
28	0x3f9c19c0	1.2195358
29	0xc0213e11	-2.5194132
30	0xc03f5d1b	-2.9900577
31	0x3cdc0be7	0.026861144
32	0xc01458e4	-2.3179255
33	0xbe97ebe3	-0.29672155
34	0x3e8eb45b	0.27871975
35	0xc023ab3f	-2.557327
36	0x3e3fabb6	0.18717846
37	0xbfa569be	-1.2922895
38	0xbecea788	-0.4036219
39	0x3f4b4df3	0.79415816
40	0xbfb6e7dc	-1.4289508
41	0xbfc89030	-1.5669003
42	0xbeeef20c	-0.46669042
43	0xc00b0d6e	-2.1726947
44	0xc000bbd4	-2.011464
45	0x3f137ae3	0.57609385
46	0x3fa1e4ff	1.2648009
47	0xc01917ac	-2.3920698
48	0x3f1231a1	0.5710698
49	0xbf801e16	-1.0009181
50	0xc022f7f4	-2.5463839
51	0xc02f9579	-2.743498
52	0xbf6a778d	-0.9158867
53	0xbfd79185	-1.6841284
54	0xbfb5f77c	-1.4216151
55	0xc04f697b	-3.240813
56	0xbe9d6419	-0.3074043
57	0xbf833629	-1.0250903
58	0x3f11b109	0.5691076
59	0xc00fd8db	-2.2476108
60	0xc00b22e5	-2.1740048
61	0xc03880e4	-2.8828669
62	0x3f552070	0.8325262
63	0xc00fb2d2	-2.2452893

residual_blocks.1.bn1.running_mean f4 [64]
0	0xc1db00b2	-27.37534
1	0xc19283f1	-18.314425
2	0xc066f1f2	-3.6085172
3	0xc1591412	-13.5674
4	0x41f3eb66	30.48994
5	0xc1860e4e	-16.756985
6	0xc2647654	-57.115555
7	0xc2c6fbcd	-99.4918
8	0xc12dd992	-10.865618
9	0x400a827e	2.1642146
10	0x4201e6b6	32.475304
11	0xc2d85922	-108.17409
12	0xc1a7c7a7	-20.972486
13	0x42667abc	57.619858
14	0x421e1bb7	39.527065
15	0xbfe03f1d	-1.7519261
16	0xc06e08d3	-3.7192886
17	0xc2369ba4	-45.651993
18	0xc1f2d5a9	-30.354326
19	0xc19721f7	-18.891584
20	0x420bb314	34.92488
21	0xc1e871b6	-29.055523
22	0x41827539	16.307238
23	0xc26464f5	-57.09859
24	0x411ebe7b	9.921504
25	0xc2388120	-46.1261
26	0xc28db49e	-70.85277
27	0x4264c1b5	57.189167
28	0x426b21ee	58.783134
29	0x4153b9c4	13.232853
30	0xc26df0e4	-59.485245
31	0x424fb05a	51.92222
32	0xc13c2b53	-11.760577
33	0xc1d72f49	-26.898088
34	0x405b97ee	3.431148
35	0xc29151b5	-72.659584
36	0x4191f41d	18.244196
37	0xc0b6ec65	-5.7163568
38	0xc2ec8a54	-118.27017
39	0x401469be	2.318954
40	0xc16e1beb	-14.881816
41	0xc18d3b19	-17.653856
42	0xc2509410	-52.144592
43	0xc0c335e5	-6.100329
44	0xc1cf9905	-25.949717
45	0x4120539a	10.020411
46	0xc0b3dc0c	-5.620611
47	0xc20ead38	-35.66916
48	0x41a167d5	20.1757
49	0xc0db540d	-6.85401
50	0xc0056103	-2.0840461
51	0xc2683581	-58.05225
52	0xc240a894	-48.164627
53	0xc246572c	-49.58513
54	0xbf472c3c	-0.7780187
55	0xc220238f	-40.034725
56	0xc1f0f662	-30.120304
57	0x4184965a	16.573414
58	0x420d6f9a	35.358986
59	0xc2ca3d46	-101.119675
60	0xc0c6cf14	-6.212778
61	0xc27eb9da	-63.681496
62	0x414a3eaf	12.640304
63	0xc29a0875	-77.01652
