backend_engine/ml/models/session_1764623817/epoch_1_64ch_3resblocks.pth (torch, 990055 bytes, 39 tensors)

conv.weight f4 [64, 20, 3, 3]
000000 17 47 08 3f 26 b6 ce bd 97 83 43 bf 7c e3 0a 3f
       0.53233474 -0.10093336 -0.76372665 0.54253364
000010 b5 47 42 3e 72 f6 35 3f 23 22 9b bf 37 f5 9e 3f
       0.18972667 0.7107917 -1.2119793 1.2418584
000020 13 29 ac bf 1a ac 40 3f 29 84 c4 bf cf 46 98 be
       -1.3450035 0.75262606 -1.5352832 -0.29741523
000030 6b d6 40 bf 26 bc 67 bf 34 36 ac 3f 98 bc 50 40
       -0.75327176 -0.90521467 1.3454041 3.2615108
000040 00 04 80 3f 23 6f 07 3f a2 fc c3 be b3 f4 aa bf
       1.0001221 0.52903956 -0.3827868 -1.3355926
000050 74 b2 9b 3e c5 14 9f be 45 70 19 bf b8 50 18 3f
       0.30409586 -0.31070533 -0.59936935 0.5949817
000060 9c 00 03 c0 bf 74 3f bf f4 78 bc be 3f ef aa be
       -2.0469122 -0.74787515 -0.3681103 -0.33385655
000070 97 f4 09 be de 63 cc 3e d8 ae b3 3f fb 61 e4 3d
       -0.1347221 0.39919943 1.4037733 0.11151501
000080 5c e9 11 40 03 3a 5c bf db c7 67 bf a3 62 13 3f
       2.2798681 -0.8602602 -0.9053933 0.5757238
000090 f6 47 bb bf fd ec af bf 9c 6b 6c be f6 61 de 3f
       -1.4631336 -1.3744198 -0.23087925 1.7373645
0000a0 f5 6f a6 bf 77 6f 69 bd da b2 37 bf fa a9 08 c0
       -1.3002917 -0.056991067 -0.7175728 -2.1353745
0000b0 e8 75 3f 40 d1 e2 25 3f 4b f0 ac 3f 6c 3a f2 3f
       2.9915714 0.6479922 1.3510832 1.8924079
0000c0 e7 3f 97 3f 31 06 a9 3f 76 74 57 bf 59 fb 1f 3f
       1.1816376 1.3205014 -0.8416208 0.624929
0000d0 79 c7 93 3e 04 b3 08 3f 6d 50 04 3c 63 9d 4d 3f
       0.28863123 0.53398156 0.008075816 0.8031828
0000e0 bd cc 10 bf 40 0b 59 3d b1 2b 3f c0 04 1b 09 be
       -0.56562406 0.052989244 -2.9870417 -0.13389212
0000f0 43 cd b8 be b7 d2 4a 3f 36 32 af bf ff 4d a2 be
       -0.36094102 0.79227775 -1.3687198 -0.3170013
000100 6d 1b 65 40 e1 5c c5 bd 58 44 41 40 eb 24 06 c0
       3.579799 -0.09636856 3.0197964 -2.0960033
000110 7e 05 b3 3f 23 97 a3 3c 84 cc a9 3f 6f 44 11 40
       1.3986051 0.019969529 1.3265538 2.2698019
000120 17 e9 96 3f b6 87 84 3f d1 0b 47 c0 b9 fa 88 40
       1.1789883 1.0353916 -3.1100962 4.280606
000130 8a fb 99 bf a1 3e e3 3f ea 15 07 bf 78 0a 8a 40
       -1.2029889 1.7753488 -0.52767813 4.313778
000140 e0 44 3d c0 3c cf a6 be 34 7a 93 3f 51 d8 b4 3f
       -2.9573288 -0.32579982 1.1521668 1.4128515
000150 9c 77 93 bf 4c 36 36 bf 57 af 17 c0 0f bd bf bf
       -1.1520877 -0.711766 -2.370077 -1.4979571
000160 80 0f b4 be fe e2 2a bf 6c 40 00 bf 9e 0b 29 be
       -0.35168076 -0.6675261 -0.500983 -0.16508338
000170 bf b5 80 c0 67 4f be bf 82 de 3f c0 ae 67 56 c0
       -4.022186 -1.4867982 -2.9979558 -3.350078
000180 82 b9 08 c0 69 27 3a bf db bc 29 c0 7e 55 1f c0
       -2.1363225 -0.72716385 -2.6521518 -2.489593
000190 53 80 25 3f 1b 09 93 bf e8 62 e1 be 39 ff e0 bd
       0.6464893 -1.1487154 -0.44020772 -0.1098618
0001a0 d2 ee 95 3f 71 04 ac bf 05 0f 24 bf fd ac 0e be
       1.1713507 -1.3438855 -0.6408542 -0.13933177
0001b0 0e 54 a1 bd 5f b6 3f 3d ec f8 a9 3d 6f f2 d4 bd
       -0.0787736 0.046804782 0.08299431 -0.10397803
0001c0 6a 0a fa bd 57 98 ba 3c 6c 01 6e 3e b9 d0 a2 bc
       -0.122090176 0.02277772 0.2324273 -0.019874917
0001d0 96 d9 31 3d 68 a4 49 3c d4 a2 23 bd ed a6 23 be
       0.043420397 0.012307264 -0.039950207 -0.15981646
0001e0 46 44 9b bd 90 af c8 bd 23 e7 f2 be bb 42 00 be
       -0.075813815 -0.09799111 -0.47441968 -0.12525456
0001f0 6a 30 84 be de f8 05 bf c3 42 df bd b5 b1 2f be
       -0.25818187 -0.52332866 -0.10901406 -0.17157634
000200 98 67 9e 3d 98 f7 b5 3c 7e 05 9e 3d 5c 8b 46 3b
       0.07734603 0.022212788 0.07715891 0.0030295467
000210 3f 45 99 be 7e 48 5e bd ab 2b 1b be 0e 36 3d 3d
       -0.29935643 -0.054268353 -0.15153377 0.04619413
000220 17 02 12 3f 62 d6 ed 3e fd b9 a3 be b2 c3 28 3e
       0.5703444 0.46452624 -0.31977835 0.16480902
000230 9c 84 b5 3d f5 af 39 bf d6 64 42 be 1f ef 35 be
       0.08863184 -0.72534114 -0.18983778 -0.17766999
000240 2c 09 09 3f cd 6b e3 3e cc ad 21 3e e5 d2 b8 bc
       0.5352962 0.44418183 0.15788954 -0.0225615
000250 68 95 43 3e 2a 4c af be f9 35 c9 be 3c 7e cc be
       0.19099963 -0.34237796 -0.3929899 -0.3994006
000260 77 4a 0a bf c4 db 29 3f f9 43 65 3f b5 ff 66 be
       -0.54019874 0.6635096 0.89556843 -0.22558482
000270 cb f0 95 3e 49 07 1b 3f f7 b2 45 3f 08 03 9f bf
       0.29285273 0.6055799 0.77226204 -1.24228
000280 1f 59 54 3e 01 40 df be e7 3f 3e bf cd 38 3b be
       0.20737122 -0.4360352 -0.7431626 -0.18283387
000290 4a 89 26 3f e3 5d 51 be d2 50 a7 3e fc 8f 60 3f
       0.65053236 -0.20445971 0.32678849 0.877197
0002a0 b2 58 10 bf ea 99 95 3d 4e c0 d8 3e 98 8a bb be
       -0.5638534 0.073047474 0.42334217 -0.36629176
0002b0 0b ae 41 bf 5e e7 65 3f da e2 f0 3b ae 25 65 bf
       -0.75656193 0.89806163 0.0073512616 -0.8951062
0002c0 cc a4 47 3f 15 aa eb bd 95 d1 2c bf 82 e1 02 3f
       0.77985835 -0.1150705 -0.67507297 0.5112535
0002d0 33 f3 27 bf 54 04 5d 3f 5d 4b 8c bf 2d e1 8c bf
       -0.6560547 0.8633473 -1.0960499 -1.1006218
0002e0 ba d4 f9 bf 7e ed 49 3f 7c db 3a 3f fc d7 20 be
       -1.9518044 0.7887801 0.72991157 -0.15707392
0002f0 f5 17 d5 be cd 72 91 bf dc ce 70 be bb 08 39 bf
       -0.4161984 -1.136316 -0.2351641 -0.72278947
000300 17 ce 7d 3f ed 65 19 3f 3a 77 c6 be 5f 1e 0c 3f
       0.99142593 0.5992115 -0.38762838 0.5473384
000310 d3 23 02 3e b9 33 01 3f 55 a2 35 3f 89 64 f3 3d
       0.12708978 0.5046955 0.70950824 0.1188441
000320 11 fe 78 bf de 65 c6 3e 4b 8f bc 3f 8f e7 04 40
       -0.97262675 0.38749593 1.473123 2.0766332
000330 c7 ec 93 be dd ad a6 3f 5a 87 d3 be d2 39 68 3f
       -0.28891584 1.3021809 -0.41314203 0.90713227
000340 30 1f 24 3f 5c c2 b7 3e 6f 04 aa be 24 f9 cf be
       0.6411009 0.35890472 -0.33206508 -0.40619767
000350 fb 6d 95 3e ed 4c 0f bf fa b5 27 3d 2d 11 ab 3e
       0.2918547 -0.55976754 0.04094503 0.33411542
000360 58 3d 8f 3e 29 51 7f bf ab 17 65 be 61 2f 12 be
       0.2797649 -0.99733216 -0.2237231 -0.14275886
000370 5a d2 44 bf f1 34 c4 3e 79 02 5e c0 cc 4c 30 3e
       -0.7688347 0.3832164 -3.468901 0.17216796
000380 4e 9b 2c be 63 23 ac be 4c 96 20 40 d6 b5 17 3f
       -0.16856119 -0.33620748 2.5091734 0.59261835
000390 44 2b 80 3f 2f 6a 95 40 87 af 43 40 56 0f 56 3f
       1.0013204 4.669212 3.0575883 0.8361715
0003a0 ab 08 11 40 0d e0 1e 40 83 06 7c bf 41 3f 9a be
       2.266154 2.482425 -0.98447436 -0.30126384
0003b0 1e 82 e6 bf c4 ca 24 bf e7 5d 29 3f b2 9c 7f 3f
       -1.8008459 -0.64371896 0.6615891 0.99848473
0003c0 76 4b 2a 3e 74 47 fe 3d c3 80 8a 3f ad 45 92 bf
       0.16630349 0.12415972 1.0820545 -1.1427513
0003d0 46 6e 52 bf ea cf bc bf e1 ba 3a bf 91 73 d2 bf
       -0.82199514 -1.475095 -0.72941405 -1.6441518
0003e0 6f e4 22 3e 68 ec 3e be 03 11 90 bf df f2 69 3d
       0.15907453 -0.1864487 -1.1255192 0.057116386
0003f0 82 52 59 bf dd d0 7e 3f 5b 26 06 c0 92 e8 8c bd
       -0.8489152 0.9953745 -2.096091 -0.06880297

bn.weight f4 [64]
000000 77 67 f4 3e a7 32 4c 3f 28 9b 9c 3f 54 9e e0 3f
       0.47735187 0.7976479 1.223485 1.7548318
000010 20 ef 36 3f 6e 4b 85 3f 39 33 c1 3f 79 73 67 3f
       0.71458626 1.0413644 1.5093757 0.9041057
000020 b4 aa 4d 3f 49 b1 91 3f e7 e6 3c 3f ef 29 58 3f
       0.803386 1.1382228 0.7378983 0.84438986
000030 b5 57 1b 3f 0f 59 52 3f ac b4 5a 3f a9 58 60 3f
       0.60680705 0.8216714 0.85431933 0.87635285
000040 19 32 b7 3f fb cc 2e 3f 92 32 14 3f 5f dd cc 3e
       1.4312164 0.68281525 0.57889664 0.40012643
000050 5b fe 12 3f 66 77 b3 3f f5 be 83 3f a2 5e 9b 3f
       0.57419366 1.4020813 1.029265 1.2138255
000060 32 88 7b 3f b7 83 0e 3f 83 97 18 3f dd 71 13 3f
       0.9825469 0.5566973 0.5960619 0.57595617
000070 e1 4d 89 3f 4f 11 6a 3f bc ae bc 3e 14 07 d7 3f
       1.0726892 0.9143266 0.36852062 1.6799035
000080 37 e4 86 3f ed f4 1c 3f be af 72 3f 1a 6b 79 3f
       1.0538396 0.6131123 0.9479941 0.9742905
000090 c3 aa 77 3f cd 66 84 3f 77 4c c6 3f 4c 88 8a 3f
       0.96744937 1.0343872 1.5492085 1.0822845
0000a0 c9 2e 20 3f ad 28 0a 3f bb 2a 9d 3f 37 be 34 3f
       0.6257139 0.53968316 1.2278665 0.70602745
0000b0 fa 65 37 3f d8 f9 4b 3f 27 4e 3e 3f 37 68 84 3f
       0.7163998 0.79678106 0.74338 1.0344304
0000c0 de 9a 7d 3f 4d a5 16 3f ec 7c 15 3f 78 6e a7 3f
       0.99064434 0.5884598 0.5839374 1.3080587
0000d0 1a 74 9e 3f 63 d2 f8 3e ea 74 19 3f d9 55 85 3f
       1.2379181 0.48598012 0.5994402 1.0416824
0000e0 f0 67 ad 3f 50 a5 89 3f 16 cd 1c 3f aa c0 0f 3f
       1.3547344 1.0753574 0.61250436 0.5615336
0000f0 44 e4 b9 3f b0 4f 53 3f 7e 09 5d 3f 79 5d 75 3f
       1.4522786 0.8254347 0.8634261 0.9584575

bn.bias f4 [64]
000000 fd 4a a0 3e 21 79 09 bf eb 0f 6e be f7 80 6a bf
       0.31307212 -0.53700453 -0.2324826 -0.91603035
000010 47 4f 8e 3d e1 96 92 be 7c 09 86 bf f4 d4 c6 3f
       0.06948715 -0.28630736 -1.0471644 1.5533738
000020 51 2a 6f 3f 9c 99 22 be a7 b1 69 bf 28 22 b9 be
       0.93423945 -0.1587891 -0.912867 -0.36158872
000030 4a c3 5d 3f 51 d5 81 bf 43 0b d9 3e 48 a1 af be
       0.8662611 -1.0143224 0.42391405 -0.34302735
000040 bf f0 71 bf e0 6d 28 be 0c 1f 32 3f 7a 57 14 3f
       -0.94507974 -0.16448164 0.69578624 0.5794598
000050 ad fb 85 3e f4 06 0c c0 30 62 3f bf 2f 8a d5 be
       0.26168576 -2.1879244 -0.747592 -0.41706988
000060 78 16 b0 3e 0e 1a 10 3f 3a a8 13 bd 72 28 a2 3e
       0.34392142 0.56289756 -0.036049105 0.31671482
000070 5f de a9 bf be 42 32 bf 80 46 51 3f 2e 23 fa be
       -1.3270987 -0.6963309 0.817482 -0.48854965
000080 c5 65 2d bf f0 36 02 3f d2 7d 23 bf c5 2a 85 3e
       -0.67733413 0.5086508 -0.6386386 0.26009193
000090 03 2a 63 bf dc cc 08 bf 2f c2 61 c0 49 62 e5 3f
       -0.8873598 -0.5343759 -3.527477 1.7920619
0000a0 d9 a3 f2 bd 46 b8 b7 3d d9 99 7d bf 62 e9 32 3e
       -0.11847658 0.08970694 -0.9906288 0.17471841
0000b0 03 38 46 bc 67 c6 92 be 68 ab 52 be f5 d6 8c bf
       -0.012098315 -0.28666994 -0.20573199 -1.10031
0000c0 d1 76 3c bf 44 27 c1 bd 14 cc 52 3f 59 fd 9d bf
       -0.736188 -0.094313174 0.8234265 -1.234294
0000d0 2f 25 73 bf dd 6a 32 3f e6 29 7b 3f 18 1e b0 bf
       -0.9497861 0.6969431 0.98110807 -1.3759184
0000e0 45 67 c4 bf b5 eb 60 bf 0b c3 89 3e 1b 53 bf 3c
       -1.5344015 -0.8785966 0.26906618 0.023355057
0000f0 f1 9b 53 c0 87 e6 b7 be c1 0f 8b bd ee a4 2d bf
       -3.306393 -0.35918066 -0.06790114 -0.6782979

bn.running_mean f4 [64]
000000 1e 79 46 bf 77 c4 99 bf 99 e3 e8 3e 10 ff 90 3d
       -0.7752856 -1.2013081 0.45486143 0.07079899
000010 98 aa a2 bf ba 1a 08 be 17 03 8f c0 1c e7 85 3e
       -1.2708311 -0.13291445 -4.469127 0.26152885
000020 ad a5 d7 be 38 84 bf bf 71 65 ff 3f 47 5b 81 be
       -0.42118588 -1.4962225 1.9952832 -0.25264952
000030 5a bb 01 bf 95 28 b2 3e f7 d7 95 bf c5 87 c7 bd
       -0.506765 0.34796587 -1.1706532 -0.09742693
000040 6a 64 39 bf ea 8b 2b 3f ea 75 b0 bf 31 55 ec bf
       -0.72418845 0.67010367 -1.3785985 -1.8463498
000050 03 39 66 bf 09 a3 e1 3f 42 1c 9f bf b5 7f 28 c0
       -0.8993074 1.7627879 -1.2430499 -2.6327946
000060 f2 05 f4 bf 56 60 09 bf df 9f f2 3d 83 32 86 c0
       -1.9064314 -0.5366262 0.11846899 -4.193666
000070 27 f5 c1 bf 5c 28 f4 be a8 4c 59 c0 20 33 b7 c0
       -1.515294 -0.47687042 -3.3953037 -5.724991
000080 56 fa de 3e 1b e3 13 bf 39 3c 1a be ca 3b 43 bf
       0.43550366 -0.5776841 -0.15062036 -0.76263106
000090 38 fa 45 bf 99 5e 26 be f0 b7 a3 3f 20 47 80 bd
       -0.7733493 -0.16247024 1.2790508 -0.06263566
0000a0 79 7a 77 3f 0e 2d 89 bf b3 02 01 c0 b3 45 76 bf
       0.96671253 -1.0716875 -2.0157897 -0.962001
0000b0 91 9d c9 3e 40 e1 35 3f f9 a2 e5 bf ca 3c 99 bf
       0.39378026 0.7104683 -1.794036 -1.1971676
0000c0 3f 2c 33 bf 43 61 85 3f b1 7e 56 bf 58 e7 3b bf
       -0.6998939 1.0420307 -0.83787066 -0.7339988
0000d0 9e 4c c6 be 00 ca 49 bf d1 ab b2 3d 45 f2 88 3e
       -0.3873033 -0.7882385 0.08724178 0.26747337
0000e0 85 b0 28 3f e0 37 ad 3f e6 24 2c be 93 c0 88 c0
       0.6589435 1.3532677 -0.1681095 -4.2735076
0000f0 c9 fb 39 40 76 cd c7 bf ae 3f 73 bf df 28 17 c0
       2.9059927 -1.5609577 -0.9501904 -2.3618696

bn.running_var f4 [64]
000000 7d 5d 9c 40 25 9d 78 40 71 5c 00 41 dc 76 3e 41
       4.886412 3.8845913 8.022569 11.904018
000010 cf 86 ac 40 b0 dc fb 40 90 71 39 42 20 55 69 41
       5.391456 7.8706894 46.3609 14.583282
000020 3d b3 97 41 42 d0 fc 40 18 df a7 40 f4 28 b6 40
       18.962519 7.900422 5.245983 5.692499
000030 ce 49 9d 40 aa f7 a1 40 3e 86 18 41 7a 66 36 40
       4.9152594 5.0614824 9.532774 2.8500047
000040 60 43 1d 41 1a 83 95 40 aa 3a 8e 40 eb 67 b3 40
       9.828949 4.6722536 4.444661 5.6064353
000050 3c 83 e0 40 49 d5 a7 40 aa ac 92 40 e5 20 b6 41
       7.01602 5.244786 4.583577 22.766062
000060 df b0 ea 40 24 bf 86 40 f1 c3 86 40 86 e3 f1 40
       7.3340907 4.2108326 4.2114186 7.559024
000070 9c f9 fc 40 3e 12 93 40 ad 8e f4 40 0d 76 d7 41
       7.90547 4.595977 7.6424165 26.932642
000080 30 e6 c1 40 a2 30 96 40 62 af b5 40 3d 35 33 41
       6.059349 4.6934366 5.677659 11.200498
000090 11 0c e2 40 2a 10 86 40 7a 93 5b 40 b2 80 a2 41
       7.063973 4.189473 3.4308763 20.31284
0000a0 fe 9d 2a 40 5a d7 2d 41 09 6a 60 40 de a1 06 41
       2.665893 10.865076 3.5064719 8.414518
0000b0 6e e3 ee 40 00 82 bd 40 b0 0f f0 40 3e ac 9a 40
       7.4652624 5.922119 7.501915 4.8335257
0000c0 6b ae c9 40 04 0a 58 40 a8 e7 b9 40 91 be da 40
       6.3025413 3.3756113 5.8095284 6.8357625
0000d0 e6 10 bc 40 62 46 9c 40 57 8d 9f 40 7c 7c 01 41
       5.877063 4.8835917 4.9860034 8.092892
0000e0 f4 1f 24 41 35 5a bd 40 65 4b 9f 40 f6 ee 2c 41
       10.257801 5.9172616 4.9779534 10.80834
0000f0 85 59 b0 40 67 19 de 40 ac 6d d6 40 26 9f bc 40
       5.5109277 6.940601 6.7008877 5.8944273

residual_blocks.0.conv1.weight f4 [64, 64, 3, 3]
000000 6b 7d 00 3f 1d 03 37 3f d4 29 2a bf e9 52 34 3e
       0.5019137 0.71489125 -0.66470075 0.17609753
000010 8a 08 8d be 19 0c 90 3e 57 f0 6c bf 9c 1d 03 40
       -0.27545577 0.2813423 -0.9255423 2.0486822
000020 b7 06 73 bf ab 1c 2f 3f 50 ae 04 40 8e 68 a7 3f
       -0.9493212 0.6840312 2.0731392 1.3078783
000030 d2 ee aa 3f f5 6b f5 3e 82 b7 cc bd 0d 0c af be
       1.3354132 0.47933927 -0.09995939 -0.34188882
000040 2f 29 a1 3e db 3d 29 3f 32 a8 0a c0 42 9d 87 3f
       0.31476733 0.6611001 -2.1665158 1.0594866
000050 ab 41 c4 bf e2 d7 20 c0 04 83 9b bf 7f f8 03 bf
       -1.533254 -2.5131764 -1.2149358 -0.5155105
000060 d8 69 62 bd 11 98 8a bf 42 f3 3e bf c2 99 71 3f
       -0.05527672 -1.0827657 -0.7458993 0.9437524
000070 37 a2 dc 3f e5 90 0f 3f 61 85 11 40 e2 60 f9 bf
       1.7237004 0.56080467 2.2737658 -1.9482691
000080 24 4c 6a bf cc e1 02 3e 26 56 90 be 89 b1 8c bf
       -0.9152243 0.12781447 -0.28190726 -1.099168
000090 c7 ca 45 3e 63 bc af bf b9 c7 05 3f e0 4e e0 bf
       0.19315635 -1.3729366 0.5225788 -1.7524071
0000a0 99 28 11 3d e2 15 3b 3f 3b c3 34 3f 4c d3 72 be
       0.035439108 0.73080266 0.706104 -0.23713416
0000b0 27 ce d3 3f 0f ed d9 bf 7f 8c 8c 3f 35 64 29 c0
       1.6547288 -1.702547 1.0980376 -2.6467412
0000c0 8a 55 94 3f 27 c0 a4 bf ee c0 d6 bd c9 08 f2 3e
       1.1588604 -1.287114 -0.10486017 0.47272328
0000d0 f5 39 b1 3f 47 56 a2 3f 97 76 7b bf c7 25 f3 bf
       1.3845812 1.268258 -0.9822783 -1.8995904
0000e0 f9 83 8b 3f 92 6d 68 bf 57 8a 00 3f e2 a1 40 be
       1.089965 -0.9079219 0.5021109 -0.18811753
0000f0 02 8f ab 3f 8a aa 7e be 8d 66 e9 3f bc 84 6d bf
       1.3403018 -0.24869743 1.8234421 -0.9278066
000100 3e eb 0a 3f 75 c8 95 3f ef d2 10 bf a1 b9 51 bf
       0.542652 1.17018 -0.5657186 -0.8192387
000110 a4 fe c3 3b c4 8f 23 3e 41 4f 1e bf 4f 27 d7 3f
       0.0059812833 0.15972811 -0.6183968 1.6808871
000120 7a c9 fb 3e 38 29 a7 bd 15 23 6b 3f 5f 7b 94 bd
       0.49177152 -0.08162159 0.91850406 -0.07250094
000130 ab b8 aa be 6b 88 bb 3e d8 d0 3c 3f 4d 8c 77 3d
       -0.33344015 0.36627516 0.7375617 0.060436536
000140 54 56 2c 3e b9 18 00 bf 94 95 04 be 99 5b a8 be
       0.16829807 -0.50037724 -0.12947685 -0.32882383
000150 42 16 d0 3e bf b3 11 bf 63 57 3c bf 80 95 28 bf
       0.4064198 -0.56914896 -0.7357084 -0.6585312
000160 17 48 85 3f c4 2f 27 3f 92 78 cc 3e c9 c9 9a 3f
       1.0412625 0.6530726 0.39935738 1.209283
000170 18 2e f1 3f 55 70 92 3f 45 76 12 bd d3 cd d4 bf
       1.8842192 1.1440531 -0.035757322 -1.6625313
000180 a5 a3 16 3f 96 20 09 bf ed b9 ab 3f f3 43 04 3f
       0.5884345 -0.5356535 1.3416115 0.5166618
000190 89 3e 7d bf da 13 08 3e f4 bf 61 bf ca d7 65 3f
       -0.98923546 0.13288823 -0.8818352 0.8978239
0001a0 f6 2e a3 bd 67 97 04 c0 74 bb 46 bf f6 58 fc be
       -0.079679415 -2.0717409 -0.7762978 -0.49286622
0001b0 59 f9 dc 3f 49 ae ca 3e b7 3a 19 bd 59 8c c7 3d
       1.7263595 0.39586094 -0.03740951 0.09743566
0001c0 aa 9b 16 3e df 5e de 3b b0 2e 42 bd e9 4f 44 40
       0.14707819 0.006786212 -0.047407806 3.0673773
0001d0 f4 3c 5e be 66 29 3d 3f 49 ff a5 3f 1e 7d 3a 3f
       -0.2170294 0.73891294 1.2968532 0.72847164
0001e0 d4 09 85 3f f8 96 22 bf 70 d2 9b be c8 99 e6 bf
       1.0393624 -0.6351161 -0.3043399 -1.801568
0001f0 70 c7 59 40 af 89 04 bf dd ba 9f 3f 96 1e 2e 40
       3.4027977 -0.5177259 1.2478901 2.7206168
000200 b0 7c 79 3f 18 04 97 3e 8c c3 9f be 70 8b 90 ba
       0.97455883 0.2949531 -0.31203878 -0.0011027884
000210 54 4b 74 3f 2b 56 34 3f b6 84 b5 be 59 06 84 bf
       0.9542744 0.7044398 -0.35452813 -1.0314437
000220 76 4e 51 bd 8e 79 92 3f 2c c7 19 3f 2b 93 05 bf
       -0.051100217 1.1443346 0.6006954 -0.52177685
000230 07 d3 07 3d 3c 0f dc be 23 49 e6 be 8d 4a dd be
       0.033160236 -0.42980373 -0.44977674 -0.4322094
000240 b5 5d 34 c0 fc 93 46 c0 12 b9 79 c0 07 f6 94 bf
       -2.8182194 -3.1027822 -3.9019208 -1.1637582
000250 cb 0a df 3d 00 be 8b 3f da 22 65 3f b0 3f d9 bd
       0.108907305 1.0917358 0.89506304 -0.106078506
000260 50 5d 9d bf f3 dd 48 3e 13 91 53 bf 5d 36 55 be
       -1.2294102 0.19615917 -0.8264324 -0.20821519
000270 25 e9 8a bf eb e5 f3 bf 23 6b 69 3f c5 16 e9 be
       -1.08524 -1.905454 0.911791 -0.45525184
000280 6f 27 5f bd 36 01 03 3f 4a ae 84 bf 2c 64 4c 3f
       -0.054480966 0.5117372 -1.0365689 0.7984035
000290 6f cf d7 bd d8 28 a9 3e 10 cf ac be 0d 27 97 bf
       -0.10537612 0.33038974 -0.33751726 -1.1808792
0002a0 58 39 35 bf 6c 92 c9 3e 3a c4 c3 3e d0 2e b1 be
       -0.70790625 0.39369524 0.38235646 -0.34606028
0002b0 10 08 c0 bf fd a1 05 3f 63 c8 3b 3e b9 55 8f be
       -1.500246 0.522003 0.1833816 -0.2799509
0002c0 07 10 47 3e 25 08 a9 3e c5 1d 3e 3f aa 2f a7 3f
       0.19439708 0.33014026 0.74264175 1.3061421
0002d0 86 a7 d1 bf d0 7b 8c bd 4e ec 30 bf fa 53 2a bf
       -1.6379249 -0.06859553 -0.6911057 -0.6653439
0002e0 76 dc 9a be 1e da 66 3f 03 42 78 3e 01 3c a0 be
       -0.30246323 0.9017657 0.24243931 -0.3129578
0002f0 3b 73 bb 3f fb e6 d9 3f 1e 00 6d bf 2f 07 9d 3e
       1.464454 1.7023615 -0.92578304 0.30669543
000300 35 5b a5 3f b4 69 a1 3e 04 ce 0a 3f 75 d8 14 40
       1.2918459 0.31525958 0.54220605 2.3257115
000310 40 31 0a 3d 60 ea e3 be a6 ab f5 3e 2a a2 19 3f
       0.033738375 -0.4451475 0.4798252 0.6001307
000320 36 5b 82 3e 20 63 bf bf ce 30 ea bf 81 67 42 bf
       0.25460213 -1.4952126 -1.8296144 -0.75939184
000330 21 80 d3 3f 08 dc 1e c0 7a b1 dc 3f 6e aa e4 3f
       1.6523477 -2.4821796 1.7241662 1.7864511
000340 b1 84 da 3f 98 b6 bb 3f 09 83 ce 3e 77 4f d6 3e
       1.7071744 1.4665098 0.40334347 0.41857502
000350 47 a9 bc 3e 3e bf 49 bf 63 1d c9 3e fe fc 80 3f
       0.36847898 -0.7880744 0.39280233 1.0077207
000360 99 7f d8 3e ab ff e3 3e 37 33 3b 3f 69 ad a6 bf
       0.4228485 0.44530997 0.7312502 -1.302167
000370 f8 95 52 bf 46 04 85 3f 78 f7 25 3f 66 05 d4 3e
       -0.82260084 1.0391929 0.6483073 0.4141037
000380 eb d9 ba 3e 3d b3 42 3e 7f ff 12 c0 b4 37 3d 3e
       0.36494383 0.19013686 -2.2968442 0.1847828
000390 a8 49 2d 3f dd 51 01 3e 19 3f 96 3d 07 ac 8e 3f
       0.67690516 0.12628885 0.07336254 1.1146249
0003a0 ff 31 b7 3f b1 98 80 be be 6d 4b be 92 30 21 bf
       1.4312133 -0.25116494 -0.19866082 -0.6296474
0003b0 18 e8 86 3e 37 4c 7c 3e cf 83 8c bf 80 7f 8d bd
       0.26348948 0.24638449 -1.0977725 -0.06909084
0003c0 c1 eb 1f bf c8 38 72 3f 8b 00 86 3f 9d 87 4d 3f
       -0.62469107 0.9461789 1.0468916 0.80285054
0003d0 42 59 1c bf 98 70 cf 3e d3 77 f5 bd d3 88 18 be
       -0.61073697 0.4051559 -0.11985745 -0.14895944
0003e0 e1 40 22 3f 7a eb f2 3e 92 f3 84 3f 66 3a ac 3e
       0.6338025 0.4744528 1.0386832 0.33638304
0003f0 21 9c d9 3d bb 55 13 c0 29 f5 00 3d 2f 8f 28 3f
       0.10625482 -2.3021076 0.031483803 0.6584348

residual_blocks.0.bn1.weight f4 [64]
000000 67 8c b1 3f 49 40 c0 3f ae 9e 91 3f 4f b7 d7 3f
       1.3870972 1.5019618 1.137655 1.6852816
000010 ec eb 5d 3f 98 90 92 3f a3 e8 de 3f a1 ae 87 3f
       0.86688113 1.1450377 1.7414745 1.0600168
000020 ec 82 ff 3f 4a 87 ca 3f a4 51 0b 3f 07 88 a1 3f
       1.9961829 1.5822537 0.5442145 1.2619637
000030 56 14 05 40 9c ca 00 40 9b 7e ba 3f 96 ae d5 3f
       2.0793662 2.0123663 1.4569887 1.6693904
000040 95 50 fe 3f 2b de ec 3f ce f3 e3 3f 0f 1f a0 3f
       1.9868342 1.85053 1.7808778 1.2509478
000050 5e 12 9f 3f 6b 86 9c 3f 95 b1 6f 3f a3 05 ca 3f
       1.242748 1.2228521 0.93630344 1.578297
000060 7b 1b dc 3f f1 f8 ae 3f 30 a2 de 3f 39 05 e8 3f
       1.7195886 1.3669721 1.7393246 1.8126594
000070 d4 50 92 3f ba e3 c4 3f d9 4b 06 40 42 7f 87 3f
       1.1430917 1.5381997 2.0983794 1.0585711
000080 ce 8f 88 3f 60 1a b8 3f 69 0a aa 3f 90 5e c3 3f
       1.0668886 1.4383049 1.3284427 1.5263233
000090 bb 4f 89 3f 8b a2 a6 3f 3f da 6f 3f 16 c5 1e 40
       1.0727457 1.3018354 0.9369239 2.4807792
0000a0 53 43 74 3f b7 8d 04 40 99 dd 8a 3f 8b 69 fb 3f
       0.9541523 2.0711496 1.0848876 1.9641584
0000b0 91 e3 fc 3f d6 72 bb 3f 27 f1 b4 3f d5 03 97 3f
       1.9756948 1.464442 1.4136094 1.1798044
0000c0 47 c6 ca 3f 8a c6 8d 3f ba d4 e8 3f 05 57 ab 3f
       1.584176 1.1076214 1.8189919 1.3385931
0000d0 d5 77 e0 3f 89 3c 08 40 04 f7 e5 3f 52 d3 ce 3f
       1.753657 2.1286948 1.7966008 1.615824
0000e0 18 98 b1 3f 9c 64 ab 3f 96 11 dd 3f a5 a0 a8 3f
       1.387454 1.3390079 1.7270992 1.3174025
0000f0 2b 6f 84 3f 6b 8f b5 3f 20 43 df 3f 3e 14 91 3f
       1.0346426 1.4184393 1.744236 1.1334302

residual_blocks.0.bn1.bias f4 [64]
000000 bf fc 77 be 5b 52 52 3c 08 c8 06 be 44 f6 ce bf
       -0.24217509 0.012837018 -0.13162243 -1.6168904
000010 27 dd b0 3f 29 08 ca be 44 5f ab be 1b 48 2d 3e
       1.381749 -0.3945935 -0.3347112 0.16922037
000020 b4 48 a3 bf d3 24 7e bf 7d de b5 3e 94 29 fd be
       -1.2756562 -0.9927494 0.35521308 -0.49445784
000030 f5 1b ce bf 72 44 33 bf 9d a7 98 bf 20 5b a0 bf
       -1.6102282 -0.70026314 -1.1926152 -1.2527809
000040 95 da b4 bf a1 5e 91 bf c3 bd 99 bf e4 05 12 3f
       -1.4129206 -1.1357003 -1.2011036 0.5704024
000050 3b 59 ec bd 92 5b 1f bf f1 cf 7f bc c1 4f b4 bf
       -0.11540457 -0.622491 -0.015613542 -1.4086839
000060 38 81 a3 bf 41 26 95 bf 3b d7 81 bf a7 fb 4a bf
       -1.277381 -1.1652299 -1.0143808 -0.7929024
000070 c3 1e e4 3e be ee 90 be 11 fb a9 bf 89 6d 3d bf
       0.4455472 -0.28307146 -1.3279744 -0.7399526
000080 8d d6 8d 3e be fe 1f bf a0 50 1c bf 0a b2 a7 be
       0.27702752 -0.6249808 -0.61060524 -0.3275302
000090 2f 90 b8 be d1 01 b7 be e1 21 69 be 49 1c 6f bf
       -0.36047503 -0.35743573 -0.2276683 -0.93402535
0000a0 07 18 af be c3 5c 80 bf eb be c5 bd 6b c5 66 bf
       -0.3419802 -1.0028309 -0.09655555 -0.90144986
0000b0 03 ce 0d c0 a0 dc 9d 3d 7e 16 73 bf f2 c4 5c be
       -2.215699 0.077080965 -0.94956195 -0.21559504
0000c0 45 fb 2d be 0a ad eb be fd 8a 8f bf a2 64 5b 3e
       -0.16990383 -0.46030456 -1.1214291 0.21425107
0000d0 9c 57 e9 bf d7 4f 95 bf 87 de 2c bf 82 68 55 bf
       -1.8229861 -1.166499 -0.6752705 -0.8336259
0000e0 b2 54 b6 bc 3d f5 78 be 68 66 89 bf d7 02 40 3e
       -0.022257183 -0.24312301 -1.0734377 0.18751083
0000f0 60 ca 7c 39 33 c4 08 bf e8 67 bf bf f9 9e 43 3e
       0.00024107983 -0.53424376 -1.4953585 0.19103612

residual_blocks.0.bn1.running_mean f4 [64]
000000 cd 8d 77 40 00 c7 70 c1 fa f6 59 3f 54 e1 32 40
       3.8680298 -15.048584 0.8514248 2.795003
000010 f0 c1 b7 be 6a bc 11 c1 45 86 f6 c1 15 97 61 41
       -0.3589015 -9.1085 -30.815561 14.099385
000020 54 47 35 c2 fe d7 af 40 57 7a a3 41 3c 3c 3c 3b
       -45.319656 5.495116 20.434736 0.0028722426
000030 3a af 4b c1 07 cc 2d c2 0d e8 ee 3e 2a af d7 40
       -12.73028 -43.449245 0.46661416 6.7401323
000040 8c a8 dd c1 a9 94 e1 c0 1e 77 ba 40 49 ed 4e 41
       -27.707298 -7.049397 5.8270407 12.932931
000050 09 b3 19 3f 33 c7 4c c1 3c 68 98 41 72 89 c8 c1
       0.6003881 -12.798633 19.050896 -25.067112
000060 ae 18 74 c1 b8 02 29 c0 7f bd 7d 41 b1 f5 b7 c1
       -15.256025 -2.640791 15.858764 -22.994967
000070 86 fe 37 41 c2 c7 28 c0 a4 f9 e9 c1 2b 59 33 c1
       11.4996395 -2.6371922 -29.246895 -11.20927
000080 39 d8 e8 3e f0 e9 3c bf 35 42 27 40 8e a1 00 c2
       0.45477465 -0.7379446 2.613416 -32.15777
000090 1e e8 bf c0 0a a3 5d c1 c6 0f 01 c1 46 66 f4 c1
       -5.9970846 -13.852304 -8.066351 -30.549938
0000a0 e6 30 d9 3d 3a a8 46 c1 12 aa 9c 3f c6 7f dc c1
       0.1060503 -12.416071 1.2239401 -27.56239
0000b0 ba a5 8b c1 d9 57 3d 41 1e bc d6 bf cc 9e b1 40
       -17.455921 11.833947 -1.6776159 5.5506344
0000c0 d6 42 9a c0 d2 ab d2 be ac f6 9d c1 c7 60 1b c1
       -4.8206587 -0.41146713 -19.745445 -9.711127
0000d0 30 91 0c c1 e7 04 28 c2 c5 0b 00 c2 7c 1a 14 c1
       -8.785446 -42.004787 -32.011494 -9.256466
0000e0 dc 35 11 41 35 ba 53 c1 21 09 11 c2 56 eb 27 c1
       9.075649 -13.232961 -36.258915 -10.494955
0000f0 ca a6 1c 41 dc 88 13 41 18 1f c5 c0 06 a3 ac c0
       9.79072 9.220913 -6.1600456 -5.3949003

residual_blocks.0.bn1.running_var f4 [64]
000000 e5 74 58 43 ea 8c 9a 43 17 25 30 43 87 eb 32 43
       216.45662 309.1009 176.14488 178.92003
000010 d1 e7 4b 43 64 c0 51 43 c2 8c b6 43 a2 e9 92 43
       203.90553 209.75153 365.09967 293.82526
000020 d1 e6 e7 43 b1 ce 60 43 ce 20 96 43 63 b5 43 43
       463.80325 224.80739 300.2563 195.70854
000030 7f 6e 72 43 e2 ee dd 43 e3 cc 52 43 81 80 1d 43
       242.43163 443.86627 210.80034 157.50197
000040 9b ac 98 43 53 ca 3b 43 e0 9c 79 43 ba 83 c2 43
       305.34848 187.79033 249.6128 389.0291
000050 a3 cd 71 43 82 54 32 43 ce 9e bd 43 52 7b 4d 43
       241.80327 178.33011 379.24066 205.48172
000060 50 36 7b 43 cb 8e 75 43 d2 06 99 43 64 bd 71 43
       251.21216 245.55779 306.05328 241.7398
000070 97 74 5d 43 fb 0b 67 43 bb 9c bc 43 16 dc 38 43
       221.45543 231.0468 377.22446 184.85971
000080 2b a4 46 44 b6 bb 3d 43 58 c9 45 43 2a f0 a3 43
       794.5651 189.73325 197.7865 327.87628
000090 93 80 2e 43 8d 74 47 43 81 8b 2e 43 39 f7 f2 43
       174.50224 199.45528 174.54494 485.93143
0000a0 3c 51 75 43 8a 5a 92 43 cc b0 3d 43 9c 23 af 43
       245.31732 292.70734 189.69061 350.2782
0000b0 f8 ac 2e 43 7a 31 91 43 26 f4 25 43 a9 f7 84 43
       174.67566 290.38654 165.9537 265.93484
0000c0 89 de 05 44 39 f9 52 43 aa 1c 7c 43 a9 55 9d 43
       535.4771 210.97353 252.11197 314.66922
0000d0 94 66 50 43 d8 18 d6 43 04 3e bc 43 a5 1c 65 43
       208.4007 428.1941 376.4845 229.1119
0000e0 f5 f4 54 43 f5 d0 79 43 d2 60 a4 43 0d df d8 43
       212.95686 249.81624 328.7564 433.74258
0000f0 5f fa 40 43 88 e6 86 43 e8 fa 24 43 70 71 4a 43
       192.97801 269.80103 164.9801 202.44312

residual_blocks.0.conv2.weight f4 [64, 64, 3, 3]
000000 ab 0b a2 be 32 5f ec be f5 79 8d 3f 03 47 2b 3f
       -0.31649527 -0.46166378 1.1052843 0.6690523
000010 df 80 a9 be 1c 65 d1 3e d1 42 70 bf 6c 3a 1a 3f
       -0.33106133 0.40897453 -0.93851954 0.60245395
000020 a6 92 33 be e2 3a d2 3f 65 be 16 be d1 38 f9 3e
       -0.1753641 1.642422 -0.14721067 0.4867616
000030 39 63 0a 40 f2 74 b4 bf 2c 3e a3 3e 97 d4 b7 3d
       2.162306 -1.4098189 0.3188337 0.08976095
000040 a2 dd 2d 3e d2 5c c6 bf fe a3 54 3f 29 79 12 3e
       0.16979077 -1.5497077 0.8306273 0.14304031
000050 d0 37 97 bd da 41 d0 3c 83 5b 0c c0 25 c0 9c 3f
       -0.07383692 0.025422025 -2.1930854 1.2246138
000060 97 97 18 c0 c8 21 9e 3e 16 46 94 bf fc 98 2f bf
       -2.3842523 0.30885148 -1.1583889 -0.6859281
000070 04 f9 b1 3f 40 97 da bf df 7b 74 bd 1b 56 83 3f
       1.3904119 -1.7077408 -0.059688445 1.0260652
000080 53 c7 aa bf c1 c8 73 3e b2 97 01 3f 2c 48 66 3d
       -1.3342079 0.2380705 0.50622094 0.056221172
000090 f9 67 10 3e 06 70 9f bf ac 83 ce 3f c4 7d 19 bf
       0.14102162 -1.2456062 1.6133933 -0.5995753
0000a0 1f 11 a5 be 02 7e 9d 3c 34 c9 95 3f c8 ae 2b c0
       -0.32239625 0.019225124 1.1702027 -2.6825428
0000b0 9b 78 36 bf e9 5e 87 3e 13 e3 83 3d 48 3c f3 bf
       -0.7127778 0.26439598 0.06439795 -1.9002771
0000c0 e6 2b 00 40 57 93 c9 be 28 9a 66 3f 1f 4f 28 3e
       2.0026793 -0.39370224 0.90078974 0.16436432
0000d0 5e 8a 78 bd af e0 a1 3e 25 30 1c 40 97 b9 d1 bf
       -0.060678832 0.31616732 2.4404385 -1.6384763
0000e0 7e 71 c5 bf e8 0c 55 3e ff 2c 49 3f e1 bb 37 3f
       -1.542526 0.20805705 0.78584284 0.71771055
0000f0 47 80 da 3f 93 3a 8f 3f 60 7f 72 bf e7 70 b6 bf
       1.7070397 1.118975 -0.9472561 -1.4253205
000100 61 fb 1c bf e9 4d 62 bf 97 3f 40 3e d0 3d 5f 3e
       -0.61321074 -0.8840013 0.18774258 0.21800923
000110 56 55 60 3e ef ee 0b bf c7 38 c9 be 71 e6 00 c0
       0.21907553 -0.5466146 -0.3930113 -2.014065
000120 c7 b7 4c bf 2d 86 6c bf 30 f7 ef 3e 93 48 8a 3f
       -0.7996792 -0.92392236 0.46868277 1.0803398
000130 77 fa 12 3f 2b 12 23 bb 7a 10 85 3f 39 34 79 3e
       0.5741343 -0.0024882655 1.0395653 0.24336328
000140 fb de dc bd 6d d5 62 bf 3a 7c 7e bf a8 49 81 3f
       -0.10784718 -0.8860691 -0.99408305 1.0100603
000150 52 d6 a5 3e 76 62 34 bf 6f c8 8f 3d e5 c4 2e 3d
       0.32390076 -0.7046274 0.070206515 0.042668242
000160 8e ca 8b 3f e9 3f cc 3e e0 32 ce bf 6d 61 b7 3e
       1.092119 0.3989251 -1.6109276 0.35816517
000170 a1 a8 2a 3f 13 50 b6 bf 44 5b af bf a6 92 f8 bf
       0.6666356 -1.4243187 -1.3699727 -1.9419754
000180 5a a5 13 3f 2e 95 b7 be 6a 32 50 bf f8 b5 c9 be
       0.5767418 -0.35856003 -0.81326926 -0.39396644
000190 65 a7 22 3f c6 ae 6e bf ec 42 7e bf 45 e4 9a 3e
       0.63536674 -0.93235433 -0.99320865 0.3025228
0001a0 87 89 67 3d 7a 64 04 be 03 1b 79 3f a5 f3 34 bf
       0.05652764 -0.12928954 0.9730684 -0.7068427
0001b0 b6 5d e7 bf 48 28 29 3f a8 e0 12 bf 96 b0 ca 3e
       -1.8075473 0.6607709 -0.5737405 0.3958785
0001c0 a9 b7 c6 bf ba 4a bf be 70 29 8a bf b5 ed 3d bf
       -1.5524799 -0.373617 -1.0793896 -0.7419084
0001d0 23 6f 97 bf d9 39 00 bd 55 8e f6 bf ac a7 1a bf
       -1.1830791 -0.031305168 -1.9262186 -0.60412097
0001e0 db 22 53 3f f7 3e 8b 3e 79 54 aa bd 50 1a b9 3e
       0.8247506 0.27196476 -0.08316893 0.36152887
0001f0 3f 4b 26 40 a7 fa 6a 3f 60 27 b3 3e c8 a0 8e be
       2.5983427 0.91788715 0.34990978 -0.2785704
000200 59 bb c7 3f fe d7 87 3f 99 44 24 3f 6e 90 ce bf
       1.5604049 1.061279 0.6416717 -1.6137826
000210 cd 4a 00 be 4b c8 72 3f 93 10 db 3f af 31 05 3f
       -0.12528534 0.9483687 1.7114433 0.52028936
000220 50 18 87 3d f4 3c 00 3e f0 13 c8 bf e9 16 67 3f
       0.06596434 0.12523252 -1.5631084 0.90269333
000230 8a 86 75 3d 13 9c 50 bf 8a 8d 5b 3f 8c 61 91 3f
       0.05994276 -0.8148815 0.85762846 1.1357894
000240 8e 1b a1 be 03 b0 46 3f 55 ea 11 3f 8b 40 13 3f
       -0.31466335 0.7761232 0.5699819 0.5752036
000250 c1 58 b0 bf b1 04 e0 be 03 73 29 bf c7 b4 3d 3f
       -1.3777086 -0.4375358 -0.6619112 0.7410397
000260 fa 42 1e bf fa 63 16 3f c1 e1 26 3f 17 a4 8e bf
       -0.6182095 0.587463 0.65188223 -1.1143826
000270 35 27 f5 3d 41 15 36 3e c1 ae 1c 3f 5a 0c 3e bf
       0.11970369 0.17781545 0.61204153 -0.74237597
000280 88 f4 17 be 08 ab ea b9 cf a3 01 be cd d3 18 3f
       -0.14839375 -0.00044759386 -0.12660144 0.5969818
000290 cc d3 99 bf 96 fb 5b 3e e7 d0 cc 3e 24 04 75 bf
       -1.201776 0.21482691 0.4000313 -0.95709443
0002a0 68 ef 93 be 8f ba 8c 3f 49 a5 ed 3e b7 4f 8f bc
       -0.2889359 1.0994433 0.46415165 -0.017494066
0002b0 78 7f 88 3e 81 77 14 3f 72 99 2e 3f 8f 3d 62 3e
       0.2665975 0.5799485 0.6820289 0.22093795
0002c0 44 d7 a6 bf e0 cb aa bd 49 40 c5 be 5d c7 00 c0
       -1.3034444 -0.08339667 -0.38525608 -2.0121682
0002d0 b0 3e b3 3f 35 99 e2 be 11 14 98 3f de 9b be 3f
       1.4003506 -0.44257513 1.1881124 1.4891317
0002e0 64 02 14 bf bc 7d 80 3f 16 ef 45 3f 69 e3 36 c0
       -0.5781615 1.0038371 0.7731794 -2.85763
0002f0 0f 1c 83 3f b6 b8 50 3e b2 5c 30 3e ce df 83 bf
       1.0242938 0.20382962 0.1722286 -1.0302675
000300 e4 70 db be e5 97 46 bf 51 64 6d 3f 1e d7 08 c0
       -0.42859566 -0.7757552 0.92731196 -2.1381297
000310 57 51 97 3f 92 1a 2e c0 23 ee 2b 3f 2d 27 d6 3e
       1.1821698 -2.7203717 0.6716024 0.41826764
000320 19 37 eb 3e bb 7f 4e be 33 bb ae be d8 c1 34 3e
       0.45940474 -0.20165913 -0.34127197 0.1765207
000330 b0 ef dc 3f f2 bb 03 3f f0 7d 62 be 33 1a 73 bf
       1.7260647 0.51458657 -0.22118354 -0.9496185
000340 cf b5 e7 bf b6 28 84 3f 11 3e 24 c0 2c 09 c1 bc
       -1.8102359 1.0324924 -2.5662882 -0.023563944
000350 39 e4 5f 3e 25 bf 22 be b6 ec 93 bf cc 91 34 3f
       0.21864404 -0.15893228 -1.1556613 0.7053497
000360 0f da 28 40 7c d1 87 bf 66 e9 22 3e d3 ca 03 be
       2.6383092 -1.0610805 0.15909347 -0.1287034
000370 28 d3 c1 3e 59 50 74 bf 54 01 9c be 66 7e 34 3f
       0.37856412 -0.954351 -0.30469763 0.7050537
000380 a9 bf c6 be d9 c7 e8 bf 85 a3 0b be f9 33 28 3f
       -0.388181 -1.8185989 -0.13636597 0.65704304
000390 eb 0f 87 3f 52 c0 88 be e3 94 bd bf 95 8b d8 be
       1.0551733 -0.2670923 -1.4811062 -0.42293993
0003a0 a5 c3 64 3e c4 c6 e2 3f 67 46 22 bf 8d e1 d5 3f
       0.22340257 1.7716908 -0.63388675 1.6709458
0003b0 3a aa 33 3f 9b d6 5d be d8 ca 85 bf 36 a0 97 3e
       0.7018162 -0.21663897 -1.0452528 0.2961442
0003c0 5d e9 8e bf d2 26 20 3f 7f 27 59 bf 15 18 ca be
       -1.1164967 0.62559235 -0.8482589 -0.39471498
0003d0 4f 15 a6 3e d0 ef 3e bf 0c 80 97 bc 70 1b 7f 3f
       0.32438132 -0.74584675 -0.018493675 0.9965124
0003e0 b5 19 28 3f d6 de 26 3f 3f 0c b6 3f d9 78 bd 3f
       0.65664226 0.6518377 1.4222487 1.4802505
0003f0 c9 01 6f bf 41 c3 48 bf df 93 1f c0 89 03 d6 3f
       -0.933621 -0.78422934 -2.4934003 1.6719829

residual_blocks.0.bn2.weight f4 [64]
000000 bf 47 d9 3f bd aa 99 3f 25 49 c1 3f a0 a7 55 3f
       1.697502 1.200523 1.5100447 0.834589
000010 6e 2d db 3f b7 ef c5 3f 99 0e 72 3f a3 3f da 3e
       1.7123239 1.546378 0.94553524 0.42626676
000020 24 93 05 3f 3b 82 e9 3f 2e 53 98 3f b1 1e 57 3f
       0.52177644 1.8242868 1.1900384 0.84031206
000030 60 f4 87 3f 4a fe 8b 3f 6e ca ab 3f da d1 ca 3e
       1.0621452 1.0936978 1.3421152 0.3961323
000040 d9 94 6b 3f 83 98 ce 3f bd 8d c1 3f 9a e4 7c 3f
       0.92024 1.6140293 1.512138 0.9878632
000050 e8 63 91 3f f5 23 d0 3f 39 41 fa 3f e3 0e d3 3f
       1.1358614 1.6260973 1.9551154 1.6488918
000060 d9 ad a8 3f e2 79 ae 3f a8 48 b8 3f 4a 04 b6 3f
       1.3178054 1.3630946 1.4397173 1.4220059
000070 e6 e6 c1 3f 5d c1 da 3f ad f7 68 3f 0e 5e 4c 3f
       1.514859 1.709026 0.91002923 0.79831016
000080 7d a9 d7 3f 91 2f fa 3f b1 d5 93 3f 1f 7f 85 3f
       1.6848599 1.9545766 1.1549588 1.0429419
000090 d4 56 b2 3f fd 40 9a 3f 47 c5 e0 3f cb 8d 2a 3f
       1.3932748 1.2051083 1.7560204 0.6662261
0000a0 69 9c 46 3f 3d 33 38 3f d6 86 bc 3f 91 5f 88 3f
       0.7758241 0.71953183 1.4728649 1.0654165
0000b0 31 c6 82 3f fe 6c ad 3f 22 a9 72 3f ef 4a ca 3f
       1.0216733 1.3548887 0.94789326 1.5804118
0000c0 97 ec ae 3f 6a 2c 8f 3f 6f ef 7f 3f c1 2b f1 3f
       1.3665951 1.1185429 0.9997472 1.8841478
0000d0 0c d8 87 3f 1c 2f c0 3f 88 e8 94 3f d6 05 ef 3f
       1.0612807 1.5014377 1.1633463 1.8673656
0000e0 3e a4 b7 3f 0e dc c0 3f a5 f3 bb 3f 0d 39 47 3f
       1.4346998 1.5067155 1.468373 0.7782143
0000f0 56 51 d2 3f af 39 c5 3f a2 37 b6 3f 6d 62 d8 3f
       1.6431072 1.5408229 1.4235728 1.6905037

residual_blocks.0.bn2.bias f4 [64]
000000 b9 eb 0f c0 3d 12 4e be 14 be 9e bf 05 fd 42 bd
       -2.2487624 -0.20124145 -1.2401757 -0.04760458
000010 b2 e2 f3 be 24 50 11 c0 e8 ec 3a 3c 59 8b 0e be
       -0.47633892 -2.2705164 0.011409022 -0.13920344
000020 58 88 59 bd 14 10 db bf f9 26 b7 be 49 97 43 be
       -0.053108543 -1.7114282 -0.3577192 -0.1910068
000030 32 90 f8 be 8c 5b f2 be 4b 27 42 bf 39 93 41 3f
       -0.48547512 -0.4733547 -0.75841206 0.7561527
000040 60 3b da 3d a6 b9 69 bf bc 51 81 bf d3 39 db 3d
       0.10655856 -0.912989 -1.0103068 0.107043885
000050 99 ca 79 be 5a 3c c5 bf b6 b6 10 c0 6d 77 00 c0
       -0.24393691 -1.5409043 -2.2611518 -2.0072892
000060 fd 9f a9 be 68 54 82 bf be 79 69 bf ec cc 93 be
       -0.33129874 -1.0182009 -0.9120139 -0.2886728
000070 87 e9 49 bf 92 41 b2 bf 62 28 0f bf d9 f7 ae be
       -0.7887196 -1.392626 -0.55920994 -0.34173468
000080 df 0f b8 bf 02 f2 fd bf 53 6b a6 bf 41 b0 57 bf
       -1.4379843 -1.983948 -1.3001503 -0.8425332
000090 d2 2f 96 be 8a 8c 4f 3b 5f cb e7 bf 20 be de b9
       -0.2933336 0.0031669461 -1.8108939 -0.00042484794
0000a0 02 74 56 3f cd 5d e6 3e 19 ff be bf 4a 0f 0f bf
       0.83770764 0.4499344 -1.49216 -0.55882704
0000b0 41 e7 be 3d 9a 4a e1 be d5 5f 50 3e fb 03 c0 bf
       0.09321452 -0.4400223 0.20349057 -1.5001215
0000c0 21 86 2f be 3d b9 98 bf f2 9f b4 be f6 ed c3 bf
       -0.1714101 -1.193153 -0.3527828 -1.5306995
0000d0 9d 76 b9 be 65 43 b4 bf a7 d7 ca bf 74 ff fd bf
       -0.36223307 -1.4083067 -1.5847062 -1.9843583
0000e0 73 ef 8d be e5 de ba bf 82 86 3a bf 3c 0b 60 3f
       -0.27721748 -1.4599272 -0.7286149 0.8751714
0000f0 56 c1 b0 bf 82 21 ad bf a4 35 c6 bf bb 88 c7 bf
       -1.3809001 -1.3525851 -1.548512 -1.5588602

residual_blocks.0.bn2.running_mean f4 [64]
000000 f8 5b f0 c0 e4 9b f8 c0 32 d1 89 c1 c7 0c 54 40
       -7.5112267 -7.7690296 -17.227146 3.3132799
000010 aa be de c1 95 0e 82 c1 b2 5a 65 c1 fb dd 01 c0
       -27.843098 -16.25712 -14.334642 -2.0291736
000020 5e 11 f3 c0 23 71 d3 c1 43 d8 53 c1 1e 30 cb c1
       -7.59587 -26.430243 -13.240298 -25.398495
000030 41 3f 44 c0 83 04 9f c0 6b 0d 0a c1 3d d5 54 40
       -3.0663607 -4.9693007 -8.628276 3.325515
000040 91 b6 80 bc 13 07 35 c1 85 e4 e6 c1 3d ee 8b bf
       -0.015712054 -11.314227 -28.861582 -1.093208
000050 b9 51 21 c1 e9 86 9a c0 38 8e 27 c1 cc 8b da c0
       -10.082452 -4.8289685 -10.472221 -6.829565
000060 0d b3 90 3f aa 15 71 c1 09 e5 0d c1 c4 4b 8f c0
       1.1304642 -15.067789 -8.868417 -4.4779987
000070 b0 57 22 41 2f 6a b4 c1 72 f3 87 c0 3a cc 51 bf
       10.146408 -22.551847 -4.2484674 -0.8195225
000080 a3 3f 12 c2 44 7e 4f c1 a6 4c 90 40 fa c3 62 c1
       -36.562145 -12.968327 4.5093565 -14.172846
000090 5a f6 76 c1 f2 1c 25 40 bd 11 39 c1 f3 3a 37 41
       -15.435144 2.5798917 -11.566831 11.451892
0000a0 54 95 7c c0 82 99 7e 41 a4 b6 a0 40 68 ff ff c1
       -3.9466143 15.9124775 5.022295 -31.99971
0000b0 e4 61 96 bf 64 59 d1 bf a3 6f f2 40 24 8d 7f c1
       -1.1748624 -1.6355405 7.5761275 -15.971958
0000c0 32 cc 40 c1 01 48 96 bf e9 2e d5 3f da a3 c4 c1
       -12.049852 -1.1740724 1.6654941 -24.580006
0000d0 17 73 44 c1 06 bf f0 c1 90 00 20 c1 50 83 05 c1
       -12.278098 -30.093273 -10.000137 -8.344559
0000e0 ad 15 06 41 c1 65 95 40 c3 ed cb c1 d8 d8 fa 40
       8.380292 4.668671 -25.491095 7.83897
0000f0 58 45 bb c1 e2 92 50 40 0b e9 cc c0 4b b0 d2 c1
       -23.40886 3.258965 -6.4034476 -26.33608

residual_blocks.0.bn2.running_var f4 [64]
000000 90 3d 9d 43 cd bd e6 43 f8 3c a3 43 a7 dc 13 44
       314.48096 461.48282 326.47632 591.4477
000010 e5 40 1a 44 64 70 a5 43 bd 8f 85 43 e7 f5 00 44
       617.014 330.87805 267.12296 515.8422
000020 e3 e6 23 44 9d 78 e8 43 b4 1f b1 43 91 82 1b 44
       655.6076 464.9423 354.24768 622.0401
000030 83 0c 9f 43 f8 57 b3 43 6a 5f 0c 44 8a a9 00 44
       318.09775 358.68726 561.49084 514.64905
000040 db 34 a9 43 18 78 cc 43 e2 c5 17 44 96 26 d1 43
       338.41293 408.93823 607.0919 418.30145
000050 53 9e bb 43 3e 47 b0 43 b4 8e e4 43 b5 10 dd 43
       375.2369 352.55658 457.11487 442.13052
000060 e5 f2 c4 43 34 97 dd 43 bd 71 c2 43 0c b6 23 44
       393.8976 443.18127 388.88858 654.8445
000070 7d ba 00 44 20 a2 cc 43 46 f7 bb 43 c9 bf c1 43
       514.9139 409.2666 375.93182 387.49832
000080 9f 94 ad 43 18 83 fa 43 b5 c8 c0 43 96 40 99 43
       347.1611 501.02417 385.56802 306.50458
000090 18 46 db 43 e6 1a 04 44 d6 33 cd 43 46 e3 50 44
       438.5476 528.4203 410.40497 835.55115
0000a0 4d 2d 9c 43 a2 9f c3 43 99 5b ad 43 4f d1 ee 43
       312.3539 391.24713 346.7156 477.63522
0000b0 4d 18 be 43 02 f2 b9 43 9f 91 d5 43 ba 2a b6 43
       380.18985 371.8907 427.13766 364.3338
0000c0 c2 b9 e7 43 85 74 af 43 c1 dd ae 43 f2 19 b8 43
       463.45123 350.9103 349.73245 368.2027
0000d0 d9 7c f6 43 d7 c8 e3 43 7c 79 ad 43 8e 70 d7 43
       492.97537 455.56906 346.9491 430.87933
0000e0 e7 7d cf 43 f9 2b d6 43 e3 b6 cb 43 e8 98 ab 43
       414.9836 428.34354 407.4288 343.19458
0000f0 2d 2d 0f 44 54 aa b6 43 86 5f a4 43 49 4e bd 43
       572.7059 365.3307 328.74628 378.6116

residual_blocks.1.conv1.weight f4 [64, 64, 3, 3]
000000 14 5d 37 c0 ca 1d 7f 3e 54 c0 3f 3d b4 e0 46 be
       -2.865056 0.24913707 0.046814278 -0.19421655
000010 5b 9b 72 3e 4f 23 c6 3e 76 59 85 3f 11 c4 8b bf
       0.23692076 0.38698813 1.0417926 -1.091921
000020 13 3b a6 bf fd db 0d bf bb 49 cd bf 8c 7a 1e 3f
       -1.2986778 -0.554138 -1.6038126 0.6190574
000030 a7 6c f4 be 60 ae 1e bf d1 0b ad be 5f 2b b9 be
       -0.47739145 -0.61984825 -0.33798078 -0.36165902
000040 bd 96 cd 3f 60 3b 6c bf e1 c8 40 3f 71 e3 24 bf
       1.6061627 -0.922781 0.75306517 -0.6440955
000050 04 cb 9a 3f 7d 76 3c c0 e3 18 84 bd 0c 6f b0 bf
       1.2093205 -2.944732 -0.06450059 -1.3783889
000060 e2 36 9a 3d 65 ef ee 3e 68 77 05 bf 2b 39 a5 3f
       0.07529999 0.4666702 -0.52135324 1.2908071
000070 83 12 03 3e bd e0 c4 3f 7c 1e c1 3e 36 46 4f 3f
       0.1280003 1.5381085 0.3771857 0.8096651
000080 15 a5 d1 3e dd 62 6a bf f4 ba 8b bf 71 f9 6d bf
       0.4094626 -0.91557103 -1.0916429 -0.9295874
000090 b8 c7 aa bf 82 5a 06 c0 15 3c 27 bf 7f 5c 57 3f
       -1.3342199 -2.0992742 -0.6532605 0.8412551
0000a0 fc 60 a9 3e a6 59 f5 bd b9 5b be 3f 14 83 a7 3f
       0.33081806 -0.1197999 1.4871742 1.3086877
0000b0 78 49 5c bf 52 a8 cb bf 92 af 30 bf 65 5b ee 3e
       -0.86049604 -1.5910742 -0.690179 0.46554103
0000c0 c3 49 9b bf b6 8d 3e 3f 53 c7 a5 3f 9f 2d 05 bf
       -1.2131885 0.74434984 1.2951454 -0.5202274
0000d0 2c a7 20 3f 8d 0f 64 3f 66 60 85 be 22 ce 2c 3f
       0.62755084 0.8908623 -0.2605011 0.67502034
0000e0 8b 51 68 bf a9 be 0a bf b9 ee c4 3d 44 24 b1 be
       -0.90749425 -0.54197174 0.09615845 -0.3459798
0000f0 a3 d4 f4 be f8 56 06 c0 3a bb 1d be 37 37 1e 3f
       -0.4781848 -2.0990582 -0.15403453 0.61803
000100 b4 68 a4 3c 75 a1 98 be 7e 06 09 be fe 59 3f 3f
       0.020069458 -0.29810682 -0.13381383 0.7474669
000110 71 a8 82 3f 96 bc b2 3e a1 a5 96 3f 8a 9e bd 3e
       1.0207654 0.34909505 1.1769296 0.37035018
000120 ca 69 98 bc 01 8a 2a 3e 28 b7 66 be 5a 2f b8 be
       -0.018605132 0.16654207 -0.22530806 -0.35973626
000130 a3 e6 57 bd 81 00 90 bf 8e 8f 4f bf be ac 27 3f
       -0.052710187 -1.1250154 -0.8107842 0.6549796
000140 ce fd 5a bf 9a fe 3a bd 53 48 cc 3d f1 ee 8e bf
       -0.85543525 -0.045652963 0.09974732 -1.1166669
000150 cb bb a7 3f 2f b9 dc 3f 57 16 cc 3f da e8 f6 bd
       1.3104185 1.7244014 1.5944318 -0.12056132
000160 0b c7 9a be f1 53 d3 be 43 ab f4 3c dc 5d c0 bd
       -0.30229983 -0.4127498 0.02986682 -0.09392902
000170 48 e2 0b be 24 93 94 bf da 45 26 3f c2 5e a5 3c
       -0.13660538 -1.1607404 0.64950335 0.020186786
000180 bc 79 94 3d cb 39 72 bf b3 e0 65 3f 20 b9 4b bf
       0.072497815 -0.94619435 0.8979599 -0.79579353
000190 f2 2d 40 3f 2b be ff be 20 06 a5 bc bf 34 32 bf
       0.75070107 -0.49949774 -0.020144522 -0.69611734
0001a0 5b 71 9f be b6 bc d4 bf 45 69 72 bf a8 32 39 bf
       -0.3114117 -1.662009 -0.9469188 -0.7234292
0001b0 10 4f 33 3f e3 42 ae bf 38 05 8e bf 63 68 e0 3f
       0.70042515 -1.3614162 -1.1095343 1.7531856
0001c0 20 46 3c 3f e3 b2 b5 be 0a 0b d6 be 32 98 54 3c
       0.735445 -0.35488042 -0.41805297 0.012975739
0001d0 b4 7c 0f 3f b1 70 81 bf f7 2c b6 3e 37 70 d2 be
       0.56049657 -1.0112516 0.3558118 -0.41101238
0001e0 cb 75 c7 3e 71 e2 f5 be 35 43 c9 bf f9 98 c3 bd
       0.38957056 -0.48024324 -1.5723635 -0.095506616
0001f0 8c a8 52 bf c8 8f 86 3f 27 46 b0 3e 72 61 18 bf
       -0.8228843 1.0512629 0.34428522 -0.5952369
000200 31 73 1a 3f 30 37 7f 3f 1a bb 66 bf 2e 8e 89 3f
       0.6033202 0.99693584 -0.90129244 1.0746515
000210 8e 0c 1c 40 4d 25 8f bf b2 65 2e 3f 14 4a 40 bf
       2.4382663 -1.1183258 0.68123925 -0.75113034
000220 46 e8 9b 3d bb 8d c8 bd 85 db c3 3d 46 b2 26 3e
       0.07612662 -0.09792658 0.095633544 0.16278943
000230 d9 64 55 3f a7 24 34 bf a5 1f 30 bf f4 f9 ad 3f
       0.83357006 -0.7036843 -0.68798286 1.3591905
000240 02 be ad be a2 69 47 3f 8f 9d a9 3e 6b 13 c7 be
       -0.33934027 0.7789556 0.3312802 -0.38882002
000250 cf 1f d1 3f 90 ef 71 3e 78 c1 d4 3e 5c 38 ce be
       1.6337832 0.23626542 0.41553855 -0.40277374
000260 c6 33 c4 3e 91 cb aa bf ed c6 dc 3e 1a 70 3d 3e
       0.3832075 -1.3343374 0.43120518 0.18499795
000270 65 be 08 c0 5a 75 f5 be 74 84 0c be ab 19 62 3e
       -2.1366208 -0.47941095 -0.13722402 0.22080104
000280 85 ba b9 bf 62 50 91 3f 5d b9 d5 3e d8 d2 d9 bf
       -1.4510046 1.1352656 0.41742983 -1.701747
000290 cf 11 00 bf 7b 53 5d 3f 73 2d 8c 3f 96 65 e0 3d
       -0.50027174 0.86455506 1.095137 0.10956876
0002a0 ab 67 7d 3f 6e d6 d0 bf 2b 6d 95 3f cf 92 37 bf
       0.9898631 -1.6315439 1.167394 -0.7170839
0002b0 fc d8 e1 3f 0a 14 24 3f f2 3b 08 3e 40 37 84 bf
       1.7644343 0.6409308 0.13304117 -1.0329361
0002c0 54 18 9a 3d 75 79 d3 3e 6b cd a6 3f 37 63 68 3f
       0.075241715 0.41303602 1.3031439 0.9077639
0002d0 f6 2f 99 bf 5b bc d8 3e 29 ce e5 be 98 ef 84 3f
       -1.1967762 0.42331204 -0.4488385 1.0385618
0002e0 77 41 a2 bc 0f 6e d1 3f 04 ef 60 3f a7 94 82 bf
       -0.019806607 1.6361712 0.8786471 -1.0201615
0002f0 8a b5 66 3f 9f a4 e4 3d 1b eb 19 40 d2 9d 9d 3f
       0.90120757 0.111642115 2.4049747 1.2313788
000300 5d 92 4b be f0 2d 45 3f 39 c4 5a 3d a7 93 56 be
       -0.19880052 0.7702322 0.05340979 -0.20954762
000310 c8 b5 14 40 b4 f0 f0 3f 3d 1d 55 40 48 68 f9 bf
       2.323595 1.8823457 3.3299096 -1.9484949
000320 f8 3a e5 bf fd 72 e8 bf 13 75 e9 bf e6 4e 8c 3f
       -1.7908621 -1.8160092 -1.8238853 1.0961578
000330 0b 35 06 3e 68 6c 9f 3f ae 27 d5 be 3a f3 2a c0
       0.13106172 1.2454958 -0.41631836 -2.6710954
000340 89 31 e7 be a7 cc 92 3e 86 56 88 bf cd 09 80 bf
       -0.4515498 0.28671762 -1.0651405 -1.0002991
000350 ab 66 3e bd 53 1c a9 bf 68 17 82 bf 57 e0 94 3f
       -0.04648463 -1.3211769 -1.0163393 1.1630963
000360 1f a6 bf 3e 54 ed fa 3e 6a d3 de 3f 72 f2 f8 bc
       0.37431428 0.49009192 1.7408268 -0.030389044
000370 b1 90 b7 3e 74 37 8c 3f 49 c7 c5 be 48 a5 b8 3e
       0.35852578 1.0954423 -0.38628605 0.360636
000380 09 e7 ff 3d 56 28 35 bf cc 80 6a 3e 87 39 6e bf
       0.12495238 -0.7076467 0.22900695 -0.9305653
000390 e1 26 6b 3e 5e b7 9c bf e8 22 9b bf 01 fe 01 3e
       0.2296405 -1.2243459 -1.2120028 0.12694551
0003a0 32 28 83 bc e8 94 56 be bc ec 24 c0 90 01 08 be
       -0.016010378 -0.2095524 -2.5769491 -0.13281846
0003b0 a5 a6 71 bf d2 eb e8 3d 14 38 30 3f 4b 86 59 be
       -0.94394904 0.11373104 0.6883557 -0.21242635
0003c0 11 50 21 bf 65 e2 60 3f 8d ac 92 bf 85 5b 6a bf
       -0.63012797 0.8784545 -1.1458908 -0.915459
0003d0 ac d4 08 c0 66 90 a0 bf 8c 01 fb 3e 3a 99 6a bf
       -2.1379805 -1.2544067 0.49024618 -0.91640055
0003e0 a9 9c c8 3e a1 f5 58 bf 90 80 ae bd da fa 8f bf
       0.39182022 -0.847498 -0.08520615 -1.1248429
0003f0 01 80 08 c0 c6 fe f2 3f b6 27 21 bf 50 7a a2 bf
       -2.1328127 1.8984001 -0.6295122 -1.2693577

residual_blocks.1.bn1.weight f4 [64]
000000 c9 d9 c4 3f 93 fa a6 3f 0e 97 e4 3f 54 d6 9c 3f
       1.5378963 1.3045219 1.7858598 1.2252908
000010 28 bc 80 3f dc dd 8e 3f 7e 2f af 3f f9 c6 cc 3f
       1.0057421 1.1161456 1.3686368 1.5998222
000020 1c 43 c7 3f 84 e0 8e 3f 0c e1 ad 3f 2a 88 e1 3f
       1.5567355 1.1162267 1.3584304 1.7619679
000030 bf e3 a5 3f 88 39 6b 3f 00 8d d0 3f e4 64 6e 3f
       1.2960128 0.9188466 1.629303 0.93122697
000040 3d 42 b8 3f 4e 16 d2 3f 94 44 a9 3f d4 a3 bf 3f
       1.4395214 1.6413057 1.3224053 1.4971871
000050 57 6b 99 3f f0 fd ee 3f 6b 00 5d 3f ec f2 b6 3f
       1.1985883 1.8671246 0.8632876 1.4292884
000060 c3 e3 7b 3f 4a 44 c1 3f 93 a4 d5 3f 71 b2 3c 3f
       0.9839441 1.5098965 1.6690849 0.7370978
000070 5c 6a 65 3f 31 c9 9d 3f 0e 53 fc 3f 59 71 84 3f
       0.89615417 1.2327024 1.9712846 1.0347091
000080 ed 68 d1 3f aa 40 9f 3f 20 b0 6c 3f 02 e0 ec 3f
       1.6360146 1.2441609 0.92456245 1.8505862
000090 27 84 4f 3f a8 75 a6 3f 52 eb e0 3f 77 72 68 3f
       0.81061023 1.3004656 1.7571814 0.9079966
0000a0 f0 fe 9f 3f 77 5b ce 3f 0a d0 cc 3f d7 56 bf 3f
       1.2499676 1.6121663 1.6000988 1.4948376
0000b0 a7 46 c9 3f 66 9c 3d 3f f5 c1 68 3f 20 54 b9 3f
       1.5724686 0.7406677 0.90920955 1.4478798
0000c0 96 e8 7d 3f c7 f4 8f 3f 10 9d cd 3f 41 e2 dc 3f
       0.9918302 1.1246575 1.6063557 1.7256547
0000d0 00 d8 c1 3f a1 3c f4 3f 3c 45 a4 3f d2 ff ca 3f
       1.5144043 1.9081002 1.2833629 1.585932
0000e0 a6 a1 a5 3f 40 de a2 3f 4e 2e 8d 3f 92 ad e8 3f
       1.2939956 1.2724075 1.1029756 1.817797
0000f0 af a0 bf 3f 60 af f5 3f 39 fc 38 3f dc 00 cb 3f
       1.4970912 1.9194145 0.7225986 1.5859637
